Back-testing Cryptocurrencies Astonishing Results from a Simple Deep Learning Strategy/model_solusdt.onnx (onnx, 905631 bytes, 9 tensors)

sequential/dense/MatMul/ReadVariableOp:0 f4 [100, 1]
-0.22513519 0.20947054 0.08077812 -0.17307802 0.091826804 -0.18722051 -0.23763137 -0.18442237
0.09908659 0.23891 -0.25909296 -0.17274955 0.21700878 -0.06541772 0.20234095 0.16449271
-0.11658543 -0.17540778 0.14561231 0.16410284 -0.04306291 0.25707835 0.015001382 -0.21695171
-0.13241905 -0.1712451 0.17505293 0.17430535 -0.09650209 0.13327584 0.06306416 0.06963492
0.218929 0.17255849 -0.044175286 0.18936925 0.2242654 -0.20690607 0.20030868 -0.12571718
0.21484788 -0.19962321 0.04446034 0.048592083 -0.22686563 0.17107324 -0.13503516 -0.062801205
0.109764606 0.011188357 0.24812031 -0.16144855 -0.24464159 -0.23378967 0.08368921 -0.23536314
-0.039048284 0.022668792 0.01657598 0.23865435 0.23491281 -0.18006197 0.062445432 -0.13521358
0.09503904 0.20422524 0.10588979 -0.13860573 0.09645054 0.08415347 0.12352348 0.11061928
0.13326499 -0.09672615 0.19634098 -0.1314964 0.19592594 0.2530344 -0.16426341 -0.24655738
-0.17407033 -0.1729881 0.19711673 0.014536086 0.2329983 0.16863117 0.14929222 0.023360604
-0.22844931 -0.21893418 0.20964585 0.08437779 -0.11906288 -0.23880035 -0.22093399 0.06520112
0.062324014 0.22527373 -0.11093986 -0.2397316
00000000: d789 66be 727f 563e 006f a53d 5d3b 31be
00000010: b10f bc3d bcb6 3fbe a355 73be 38d9 3cbe
00000020: e9ed ca3d d3a4 743e d5a7 84be 42e5 30be
00000030: 8d37 5e3e baf9 85bd 7732 4f3e c770 283e
00000040: 58c4 eebd 199e 33be 651b 153e 930a 283e
00000050: bc62 30bd c69f 833e 5bc8 753c 9728 5ebe
00000060: dc98 07be e05a 2fbe 1341 333e 1a7d 323e
00000070: e3a2 c5bd 7679 083e c827 813d c19c 8e3d
00000080: ec2e 603e 2cb3 303e 25f1 34bd 03ea 413e
00000090: d4a5 653e 2fdf 53be b81d 4d3e 01bc 00be
000000a0: 1501 5c3e 076a 4cbe 0c1c 363d 7e08 473d
000000b0: 774f 68be d32d 2f3e a846 0abe eb9d 80bd
000000c0: 44cc e03d 5f4f 373c 4013 7e3e c552 25be
000000d0: 5383 7abe 8f66 6fbe 4065 ab3d 0903 71be
000000e0: 18f1 1fbd e7b3 b93c 59ca 873c ce61 743e
000000f0: fc8c 703e 2a62 38be c8c6 7f3d 6e75 0abe
00000100: d4a3 c23d 6c20 513e bfdc d83d a9ee 0dbe
00000110: dc87 c53d a858 ac3d e1f9 fc3d 5c8c e23d
00000120: 9e76 083e 5c18 c6bd 9c0d 493e fea6 06be
00000130: cfa0 483e ba8d 813e ab34 28be 8a79 7cbe
00000140: 7e3f 32be cb23 31be f8d8 493e c328 6e3c
00000150: 1b97 6e3e a6ad 2c3e 0fe0 183e bd5e bf3c
00000160: 9eee 69be 4830 60be 67ad 563e 43ce ac3d
00000170: 3dd7 f3bd 1488 74be 853c 62be 2a88 853d
00000180: 7747 7f3d 28ae 663e 7034 e3bd 337c 75be

sequential/conv1d/Conv1D/ExpandDims_1:0 f4 [256, 1, 1, 2]
0.04123071 -0.08021143 -0.010698162 0.017116811 0.119852744 0.14417472 -0.033002395 0.020865152
0.08533036 -0.008821018 0.024446756 0.05818726 0.05782109 0.05242645 0.07155626 -0.0097936345
-0.100814246 -0.0500331 0.045953657 0.032113098 -0.08169006 0.052948352 -0.057318464 0.0252994
-0.10437495 0.004443205 0.10778024 0.09809541 0.11534566 -0.057837296 0.08208581 0.1215714
-0.03932485 -0.0574508 0.07134381 -0.008222385 -0.06375639 0.0332054 -0.038005874 -0.09685043
0.11194095 0.026040928 -0.08365342 0.008961695 -0.0011347011 -0.076869786 -0.0038251907 -0.10658603
-0.082975246 0.0150421485 0.084372945 -0.007930459 -0.011289917 -0.048777513 -0.050422497 0.11982388
0.06650991 -0.022912662 0.0739254 0.12920232 -0.07021967 -0.19651692 0.01512423 0.08625973
-0.060110744 0.03157328 0.1235152 0.057339117 0.073252365 0.08392286 -0.016840376 -0.026077509
-0.072122246 -0.0590953 -0.033676695 0.011616882 0.192206 -0.16135499 -0.0128788855 -0.019188128
0.19414726 -0.19550319 0.020364504 0.06969464 -0.07418124 0.008116437 -0.09259742 0.06642172
0.09512794 0.12956658 -0.10203596 0.0016510142 -0.048771843 0.023013841 -0.08637405 0.15676859
-0.02760746 0.09986886 0.20529392 -0.22920163 -0.061811153 -0.04509002 -0.08512191 -0.039448857
-0.09413666 -0.10047891 0.077952795 -0.10478395 -0.06931847 0.029207703 -0.037337467 0.006711269
-0.03970982 -0.09581756 -0.035238244 -0.032829 0.10841166 0.073083945 -0.047918122 0.020961149
0.08470738 -0.11931128 0.09270809 -0.038264103 0.1255505 -0.10011424 0.006276466 0.051520415
0.081181094 -0.008285801 -0.011093505 -0.0815069 -0.08781095 0.00024420908 0.0048289793 0.04072392
0.056490764 0.14336278 0.08664533 0.10921135 0.093766265 0.02901092 0.08807368 0.020900907
0.054833952 0.0623899 0.033309385 0.09185058 -6.893277e-05 -0.07353117 -0.05643601 -0.04655724
-0.08856413 -0.008537509 0.058580052 0.100811936 -0.10762398 0.0051386096 -0.016199864 0.120625645
0.20583485 -0.21785858 0.017744903 0.14016607 0.101553746 -0.037311655 -0.06495641 0.04939697
0.053131077 0.07808498 0.15791962 -0.12801982 0.116504595 0.06410493 -0.03305335 0.033630975
0.0739008 0.10059771 -0.06567304 -0.07186256 0.15726961 -0.18470526 0.0170848 0.09598509
-0.027362794 -0.026269622 -0.025788315 -0.16704887 -0.027124876 -0.010077703 0.10598986 0.06596531
-0.0820693 0.055967983 -0.039883867 0.008551626 0.038929075 0.010902446 -0.04130855 0.12468926
0.03176999 -0.0670357 -0.08945332 0.061493557 -0.083985485 -0.07802823 0.1555223 -0.15527178
0.10726478 -0.03681512 -0.079356715 -0.07099097 -0.015881129 0.054825377 -0.09067739 0.06571758
-0.09390137 -0.024141006 0.11569099 -0.016331209 0.095686235 -0.016467689 0.053976208 -0.08653333
0.011258918 0.089433655 0.049322024 0.038100243 0.087017596 -0.038722906 0.044299886 -0.07993887
-0.04290846 -0.04035698 -0.04937126 0.0025303348 -0.07095362 0.024560314 -0.07718629 0.10459397
0.036715634 0.001079876 -0.042916164 -0.05566818 0.030621408 0.12676492 -0.1033143 0.11469971
0.05450324 0.01612362 -0.08021759 -0.081765756 0.06888613 0.12907815 0.083607204 -0.00795608
00000000: 88e1 283d e445 a4bd 5847 2fbc 8e38 8c3c
00000010: 5b75 f53d 8aa2 133e 852d 07bd 65ed aa3c
00000020: afc1 ae3d 0886 10bc 9044 c83c c455 6e3d
00000030: cfd5 6c3d 1ebd 563d 178c 923d 7b75 20bc
00000040: b377 cebd 82ef 4cbd e739 3c3d 0689 033d
00000050: 1e4d a7bd 5fe0 583d c4c6 6abd b040 cf3c
00000060: 89c2 d5bd 4e98 913b e3bb dc3d 3fe6 c83d
00000070: 583a ec3d cde6 6cbd 9b1c a83d 6dfa f83d
00000080: 1813 21bd 8851 6bbd b41c 923d 2fb7 06bc
00000090: b692 82bd 6302 083d 0cac 1bbd 8559 c6bd
000000a0: 4c41 e53d c953 d53c 7c52 abbd 13d4 123c
000000b0: 40ba 94ba e86d 9dbd 0db0 7abb c749 dabd
000000c0: edee a9bd 5873 763c b9cb ac3d c2ee 01bc
000000d0: 58f9 38bc eeca 47bd d287 4ebd 3966 f53d
000000e0: 5936 883d 56b3 bbbc 3366 973d 9d4d 043e
000000f0: 55cf 8fbd bb3b 49be 9ecb 773c f1a8 b03d
00000100: af36 76bd fc52 013d 8af5 fc3d 6cdc 6a3d
00000110: 5605 963d c0df ab3d d4f4 89bc 80a0 d5bc
00000120: d4b4 93bd ea0d 72bd 93f0 09bd bc54 3e3c
00000130: a6d1 443e 3e3a 25be f601 53bc 6c30 9dbc
00000140: 8ace 463e fd31 48be 76d3 a63c 10bc 8e3d
00000150: 55ec 97bd cefa 043c b7a3 bdbd 1c08 883d
00000160: 70d2 c23d 1aad 043e 3bf8 d0bd d866 d83a
00000170: fcc4 47bd 8687 bc3c e1e4 b0bd f287 203e
00000180: 0a29 e2bc 0b88 cc3d 9238 523e d5b3 6abe
00000190: b12d 7dbd 50b0 38bd 6554 aebd 2095 21bd
000001a0: b9ca c0bd e3c7 cdbd b7a5 9f3d f898 d6bd
000001b0: d8f6 8dbd fe44 ef3c 2cef 18bd 34ea db3b
000001c0: c4a6 22bd ff3b c4bd fa55 10bd b477 06bd
000001d0: ef06 de3d 09ad 953d cb45 44bd b7b6 ab3c
000001e0: 107b ad3d 7959 f4bd bddd bd3d d2ba 1cbd
000001f0: 4f90 003e b208 cdbd d0aa cd3b 1207 533d
00000200: 4642 a63d 2bc1 07bc 88c1 35bc 17ed a6bd
00000210: 3ad6 b3bd 3009 8039 6a3c 9e3b 20ce 263d
00000220: dc62 673d b1cd 123e 1b73 b13d 33aa df3d
00000230: 8708 c03d 4fa8 ed3c f95f b43d 6138 ab3c
00000240: 9199 603d 8d8c 7f3d 6c6f 083d 281c bc3d
00000250: 0090 90b8 8397 96bd 7229 67bd ceb2 3ebd
00000260: 1c61 b5bd e8e0 0bbc a3f1 6f3d 7d76 ce3d
00000270: f669 dcbd c861 a83b 94b5 84bc 940a f73d
00000280: 5fc6 523e 5216 5fbe c25d 913c b287 0f3e
00000290: 69fb cf3d 1bd4 18bd de07 85bd 7a54 4a3d
000002a0: f99f 593d 05eb 9f3d aeb5 213e a117 03be
000002b0: f699 ee3d 7249 833d f362 07bd a2c0 093d
000002c0: 4d59 973d 2c06 ce3d 967f 86bd ae2c 93bd
000002d0: 490b 213e 6023 3dbe 6cf5 8b3c d593 c43d
000002e0: f027 e0bc 6433 d7bc 0442 d3bc dc0e 2bbe
000002f0: fd34 debc f31c 25bc 3611 d93d d218 873d
00000300: f313 a8bd af3e 653d 445d 23bd 1e1c 0c3c
00000310: 1874 1f3d 2ca0 323c 2733 29bd 155d ff3d
00000320: 4021 023d 034a 89bd 4d33 b7bd abe0 7b3d
00000330: 9500 acbd 44cd 9fbd 3d41 1f3e 91ff 1ebe
00000340: a3ad db3d 74cb 16bd c685 a2bd b763 91bd
00000350: 2419 82bc 9390 603d 11b5 b9bd f096 863d
00000360: 5d4f c0bd 5cc3 c5bc 66ef ec3d 07c9 85bc
00000370: 25f7 c33d 3fe7 86bc 2816 5d3d 6338 b1bd
00000380: 5377 383c fe28 b73d e405 4a3d 000f 1c3d
00000390: 4836 b23d e99b 1ebd cc73 353d feb6 a3bd
000003a0: c8c0 2fbd 5c4d 25bd 8539 4abd f9d3 253b
000003b0: 2250 91bd b632 c93c d813 9ebd 5d35 d63d
000003c0: 2263 163d a08a 8d3a dcc8 2fbd 5104 64bd
000003d0: bfd9 fa3c aace 013e 7396 d3bd aee7 ea3d
000003e0: ca3e 5f3d af15 843c 1f49 a4bd ce74 a7bd
000003f0: 2c14 8d3d 102d 043e 413a ab3d 385a 02bc

const_fold_opt__157 f4 [1, 256, 1]
0.036060784 0.01823397 -0.00093997753 -0.0112273935 -9.109966e-05 -0.00021165848 -0.00033798363 0.00010667386
0.0 0.018392704 0.031193972 0.027209375 -0.0070948713 -0.0003965958 0.00027233985 -9.1490685e-05
0.0 0.00087475474 0.030932456 0.0 0.02323135 -0.0048819184 0.0 -0.0053825174
-0.0059847357 0.00066435547 0.0 -0.00013003257 0.00020992712 -0.0003739828 0.08804716 -8.911952e-05
0.030363517 0.016636897 0.0019290001 0.0 0.0 0.020764029 -0.022710877 0.03059024
-0.016095495 0.006247999 -0.005730957 0.025313696 -0.000579142 -0.0049520144 -0.005881573 -0.00092335127
-0.00011300669 -0.015380832 0.0 0.0 0.0 0.026674401 -0.00586082 -0.004824255
0.0 0.0 -0.00029653407 0.029339306 0.031451773 -0.047955316 -0.04202597 0.0047828266
0.0006193676 0.0 -0.0045964755 -0.031708904 0.0070910007 -0.0003194886 0.0003840871 -7.428998e-05
-6.2315536e-05 0.0037586535 0.0 0.0 0.0 -0.00052669115 -0.005754983 0.01190279
-0.015194645 0.0039886045 0.00017939546 -0.005638347 0.00033201935 -0.020903217 0.007282251 0.023540549
0.0066716745 0.0 -0.011525399 0.0039124824 0.0 0.06923645 0.03355238 0.007847784
0.02914414 0.030627074 0.023777757 -2.2168624e-05 0.032280825 -0.005950357 0.0 -0.015965233
-0.049740743 0.0 0.016223002 -0.005984371 0.0 0.00019612696 -0.058477435 0.031082932
6.674216e-06 -1.5175141e-05 -0.041416783 0.03224547 0.0 0.04360356 -0.005873287 0.01938801
0.021766845 0.0 5.4057746e-05 0.015432203 -0.00028946486 0.0 -0.00033878564 0.00021032224
0.017723324 0.019683173 0.0 0.040456332 0.016512515 -6.567636e-05 -0.04361343 0.00020648027
-0.01878105 -0.00021248561 0.015588314 -0.005781707 0.030148938 0.0 0.0085824225 -0.005842271
0.007648672 -0.00028734014 0.0 -0.014653108 0.0 -0.000101107296 0.028430415 0.00027044374
0.0 -0.00016790381 0.0 -1.632733e-05 0.003521424 -0.011090439 0.0 0.0005132994
-0.03756723 -0.0153405825 -0.0004455583 -0.0056898 0.0 0.0005810713 0.02218967 0.0002038345
-0.031292547 -0.0005974765 0.0 0.035030585 0.0 -0.016709771 0.021218358 0.0072409404
-2.5600657e-05 -0.00014560769 0.0 0.0 0.011065067 -0.00021424262 0.031864945 -0.0028260022
0.0082402965 0.0 0.042138185 -0.012104828 -0.00047862576 0.0 0.029034203 -0.0058521004
0.03223252 -0.00035036562 -0.0058325944 -0.00023385278 0.010548557 0.01198182 0.0020463583 -0.012506169
0.0 -0.0133656915 -0.028364612 0.0 -0.0058521847 -0.014783039 4.7507936e-05 0.013990123
2.1166346e-05 0.020815954 0.0 -0.00047065507 0.01352362 0.0001724761 0.036238905 0.0322885
-0.012221555 0.055574328 0.00020570964 0.0007331228 -0.00024712202 0.0 -0.0057461727 3.9489918e-05
-0.0059659537 0.0006442523 0.0 0.00024312474 0.014015134 0.03510487 0.019999947 -0.00013053523
0.018328825 0.0 0.0 0.028759927 0.0 -0.038203567 0.020569632 0.030330632
0.0002270642 0.0002658768 -0.013612543 0.0050032972 -7.225539e-05 0.01994081 0.00037749007 0.022006152
0.012607248 0.0 0.000567372 0.008222805 0.0 0.0 0.0 0.006370295
00000000: 79b4 133d 685f 953c d368 76ba 1af3 37bc
00000010: c20c bfb8 a4f0 5db9 6533 b1b9 18b6 df38
00000020: 0000 0000 4cac 963c 808a ff3c 32e6 de3c
00000030: 187c e8bb 30ee cfb9 d6c8 8e39 b0de bfb8
00000040: 0000 0000 cc4f 653a 1066 fd3c 0000 0000
00000050: ac4f be3c 80f8 9fbb 0000 0000 d45f b0bb
00000060: 9a1b c4bb 2428 2e3a 0000 0000 5a59 08b9
00000070: e21f 5c39 1f13 c4b9 1252 b43d aee5 bab8
00000080: e9bc f83c 1a4a 883c 81d6 fc3a 0000 0000
00000090: 0000 0000 5319 aa3c 290c babc 6298 fa3c
000000a0: b3da 83bc 04bc cc3b c0ca bbbb ab5e cf3c
000000b0: 90d1 17ba 8244 a2bb 36ba c0bb 0e0d 72ba
000000c0: 01fe ecb8 e3ff 7bbc 0000 0000 0000 0000
000000d0: 0000 0000 4684 da3c 1f0c c0bb c914 9ebb
000000e0: 0000 0000 0000 0000 2178 9bb9 fc58 f03c
000000f0: 93d3 003d cb6c 44bd 6c23 2cbd 42b9 9c3b
00000100: 0e5d 223a 0000 0000 089e 96bb 32e1 01bd
00000110: a05b e83b 0981 a7b9 4c5f c939 21cc 9bb8
00000120: 66af 82b8 be53 763b 0000 0000 0000 0000
00000130: 0000 0000 a511 0aba 4c94 bcbb eb03 433c
00000140: f6f2 78bc d7b2 823b 1a1c 3c39 e2c1 b8bb
00000150: e212 ae39 393d abbc f39f ee3b 1cd8 c03c
00000160: 109e da3b 0000 0000 07d5 3cbc 4834 803b
00000170: 0000 0000 d7cb 8d3d 386e 093d fe93 003c
00000180: b1bf ee3c a1e5 fa3c 92c9 c23c c2f6 b9b7
00000190: e638 043d 36fb c2bb 0000 0000 85c9 82bc
000001a0: f3bc 4bbd 0000 0000 1ae6 843c 8b18 c4bb
000001b0: 0000 0000 6ea7 4d39 0986 6fbd a2a1 fe3c
000001c0: 14f3 df36 bc98 7eb7 a5a4 29bd d313 043d
000001d0: 0000 0000 a699 323d b474 c0bb 9bd3 9e3c
000001e0: 6250 b23c 0000 0000 10bc 6238 5ad7 7c3c
000001f0: 51c3 97b9 0000 0000 0a9f b1b9 f289 5c39
00000200: 8130 913c 9b3e a13c 0000 0000 8ab5 253d
00000210: 4145 873c babb 89b8 ffa3 32bd a082 5839
00000220: b7da 99bc acce 5eb9 2166 7f3c 7974 bdbb
00000230: e8fa f63c 0000 0000 4a9d 0c3c 8570 bfbb
00000240: b6a1 fa3b 24a6 96b9 0000 0000 9713 70bc
00000250: 0000 0000 9109 d4b8 e7e6 e83c 58ca 8d39
00000260: 0000 0000 560f 30b9 0000 0000 adf6 88b7
00000270: b1c7 663b acb4 35bc 0000 0000 f18e 063a
00000280: 19e0 19bd 1157 7bbc d399 e9b9 8071 babb
00000290: 0000 0000 0953 183a 1cc7 b53c 68bc 5539
000002a0: 9d2c 00bd f89f 1cba 0000 0000 3b7c 0f3d
000002b0: 0000 0000 eee2 88bc 1fd2 ad3c 6945 ed3b
000002c0: fec0 d6b7 44ae 18b9 0000 0000 0000 0000
000002d0: 414a 353c 51a6 60b9 d184 023d 7334 39bb
000002e0: 4f02 073c 0000 0000 1799 2c3d 5453 46bc
000002f0: 10f0 fab9 0000 0000 23d9 ed3c fac2 bfbb
00000300: 3f06 043d 47b1 b7b9 591f bfbb 6136 75b9
00000310: dbd3 2c3c 654f 443c 321c 063b ade6 4cbc
00000320: 0000 0000 c6fb 5abc e75c e8bc 0000 0000
00000330: afc3 bfbb 8f34 72bc 4243 4738 d436 653c
00000340: 628e b137 3886 aa3c 0000 0000 41c2 f6b9
00000350: 2c92 5d3c b3da 3439 3f6f 143d f240 043d
00000360: eb3c 48bc e8a1 633d c3b3 5739 0a2f 403a
00000370: 2890 81b9 0000 0000 644a bcbb faa1 2538
00000380: 0c7e c3bb 0ae3 283a 0000 0000 4def 7e39
00000390: bc9f 653c 20ca 0f3d eed6 a33c 49e0 08b9
000003a0: 5526 963c 0000 0000 0000 0000 f099 eb3c
000003b0: 0000 0000 587b 1cbd a581 a83c f277 f83c
000003c0: 1518 6e39 6165 8b39 2507 5fbc b3f2 a33b
000003d0: d187 97b8 e95a a33c dce9 c539 3f46 b43c
000003e0: a18e 4e3c 0000 0000 b1bb 143a f2b8 063c
000003f0: 0000 0000 0000 0000 0000 0000 e8bd d03b

W0__62 f4 [1, 400, 100]
-0.006374773 -0.00034353358 -0.081414215 0.03158947 -0.053594846 0.0073646307 0.034537878 -0.0026018724
0.06582349 0.021031246 0.085020564 0.0954326 0.046418 -0.018007467 -0.04655089 0.026268441
-0.0951361 0.0118513955 0.06084882 0.11474249 0.1095353 -0.086717926 0.021560017 0.08962799
0.010229049 -0.03427411 0.08664972 -0.012464976 -0.08871356 0.07652144 -0.119021356 0.055634007
-0.02462556 0.057062835 0.110895716 -0.03679394 0.0003021592 -0.083968885 -0.09738174 0.042355057
-0.12175013 -0.099174306 -0.058526147 0.023711473 0.0039482582 -0.09478373 -0.021478621 0.026334876
-0.07604665 0.027612096 0.058418255 -0.081993826 -0.058932677 -0.060732182 -0.028211566 0.0790572
0.047109105 -0.15924709 0.063040055 -0.08100384 -0.09877504 0.03975636 -0.06581559 -0.071775526
-0.031873144 -0.06328591 0.011160371 0.033310335 -0.04850174 0.07199609 0.10429199 0.06893698
0.0011263738 0.04784425 -0.0019373961 -0.049408324 0.08702163 0.052562818 -0.05057151 0.0056462483
-0.055867568 -0.004645331 0.104477346 -0.02352493 -0.09455672 0.06666564 -0.0143998135 0.10473244
0.011576488 -0.042021174 -0.061066646 0.07182759 -0.08094417 -0.12397723 -0.02311302 -0.050131787
0.06191198 -0.046294875 0.032044362 -0.10135196 -0.09407084 0.109883286 -0.030503454 -0.015612561
-0.08326228 -0.06667528 0.06264716 -0.109285325 -0.04756313 0.061318442 -0.032746054 0.02378869
0.015738795 -0.10063984 -0.03904364 -0.04193352 -0.11258824 0.07886133 0.12193336 0.02645677
-0.09528445 -0.11780087 -0.046961047 -0.04042684 -0.032017265 -0.04556725 0.038366165 0.073160976
0.13268681 -0.0561567 -0.04496093 0.02840288 -0.13586016 0.02034254 0.12694801 0.0021130382
-0.09926491 0.010996585 0.07564736 0.04594571 0.05219378 0.0142956 -0.056101564 0.07785413
0.13647224 -0.0347673 0.15668048 -0.03832583 0.05832994 -0.09754208 -0.023635477 0.040837724
0.008930712 -0.07543139 0.034546096 -0.03991176 0.10253733 0.03543483 0.10977994 0.023013676
-0.05955091 0.06740162 0.06394102 -0.07978947 0.045075625 0.035464205 -0.057081625 0.13309915
-0.09795461 0.13305351 0.09489825 -0.08446274 0.04929555 0.068103366 0.051080126 -0.052550845
-0.06838103 -0.042735305 0.081534036 -0.1233862 0.082068525 -0.10444777 -0.13538395 -0.07403286
0.007050103 0.06777043 -0.1219667 -0.057353064 -0.10632182 0.056613866 0.081565656 0.061847515
0.047624506 0.04258226 0.06942544 -0.029735649 0.059981603 -0.05264904 -0.123264216 -0.07330324
0.04157039 0.020016933 0.093084395 0.0024958341 0.019983528 0.040318254 0.067875296 -0.019165695
-0.035963975 0.0947543 -0.07836948 -0.041991178 -0.019825725 -0.079125136 0.0017694278 -0.076882936
0.02440595 0.09402696 -0.031274933 0.0456551 -0.08062694 0.086472526 -0.028183963 -0.035523612
-0.07861605 -0.09110203 -0.010346873 0.014744225 0.037237488 -0.026366761 0.075701945 -0.037885398
0.0011530883 0.11576906 -0.003377944 -0.0018134323 -0.053348545 0.010894669 -0.0932775 -0.11613317
0.050635293 0.041851066 -0.114752494 -0.047347154 -0.028341332 0.023159381 0.025874361 -0.04136001
-0.056620307 -0.062279176 0.08664933 0.0059000603 -0.01806209 -0.08747095 0.06308396 -0.061633773
00000000: 79e3 d0bb 4c1c b4b9 7fbc a6bd f663 013d
00000010: 4586 5bbd 0053 f13b 9777 0d3d 2d84 2abb
00000020: 77ce 863d b849 ac3c 431f ae3d 2b72 c33d
00000030: cd20 3e3d 6584 93bc 25ac 3ebd ea30 d73c
00000040: b7d6 c2bd 5b2c 423c 9d3c 793d 1cfe ea3d
00000050: 0b54 e03d 2b99 b1bd a29e b03c e18e b73d
00000060: be97 273c 0263 0cbd 6975 b13d e639 4cbc
00000070: 74af b5bd 46b7 9c3d 78c1 f3bd 7ce0 633d
00000080: 8bbb c9bc b8ba 693d 4b1d e33d 3eb5 16bd
00000090: 1f6b 9e39 e1f7 abbd 1470 c7bd 7f7c 2d3d
000000a0: 2258 f9bd e61b cbbd 1db9 6fbd 903e c23c
000000b0: 6460 813b f91d c2bd eff3 afbc 3dbc d73c
000000c0: 59be 9bbd c332 e23c fb47 6f3d 61ec a7bd
000000d0: 6463 71bd 4fc2 78bd f11b e7bc bee8 a13d
000000e0: 7af5 403d ab11 23be 251b 813d 57e5 a5bd
000000f0: 914a cabd 91d7 223d 53ca 86bd 0cff 92bd
00000100: 6a8d 02bd 0b9c 81bd fdd9 363c 6b70 083d
00000110: c3a9 46bd b072 933d 0a97 d53d d52e 8d3d
00000120: d5a2 933a 55f8 433d 3af0 fdba 6260 4abd
00000130: 6538 b23d 1c4c 573d 1224 4fbd 2a04 b93b
00000140: 64d5 64bd dc37 98bb 38f8 d53d 5bb7 c0bc
00000150: f4a6 c1bd ff87 883d 32ed 6bbc f67d d63d
00000160: 4fab 3d3c 651e 2cbd 0521 7abd 581a 933d
00000170: 0fc6 a5bd c6e7 fdbd 8457 bdbc fd56 4dbd
00000180: 6b97 7d3d b29f 3dbd f340 033d 9e91 cfbd
00000190: 36a8 c0bd 7d0a e13d 61e2 f9bc d4cb 7fbc
000001a0: 6a85 aabd 0d8d 88bd 274d 803d fcd0 dfbd
000001b0: 8ed1 42bd 0c29 7b3d ba20 06bd 80e0 c23c
000001c0: a5ee 803c 431c cebd 39ec 1fbd 7cc2 2bbd
000001d0: aa94 e6bd 0d82 a13d 33b8 f93d debb d83c
000001e0: 7e24 c3bd 9541 f1bd 3a5a 40bd 9d96 25bd
000001f0: 8924 03bd baa4 3abd d725 1d3d 6cd5 953d
00000200: 0ddf 073e 9104 66bd f428 38bd 28ad e83c
00000210: ed1e 0bbe 66a5 a63c a9fe 013e e67a 0a3b
00000220: 674b cbbd 052b 343c 01ed 9a3d 9231 3c3d
00000230: 25c9 553d 1838 6a3c c1ca 65bd fc71 9f3d
00000240: 61bf 0b3e 2868 0ebd d970 203e 8cfb 1cbd
00000250: 60eb 6e3d 24c4 c7bd 309f c1bc 7545 273d
00000260: 1f52 123c c67b 9abd 3580 0d3d 837a 23bd
00000270: 17ff d13d 1d24 113d 4ed4 e03d 2d87 bc3c
00000280: a8eb 73bd dc09 8a3d 82f3 823d a968 a3bd
00000290: 38a1 383d ea42 113d 6cce 69bd 254b 083e
000002a0: 6d9c c8bd 2e3f 083e 045a c23d cdfa acbd
000002b0: 21ea 493d c779 8b3d 6539 513d 8e3f 57bd
000002c0: 5a0b 8cbd 370b 2fbd 51fb a63d e7b1 fcbd
000002d0: 8b13 a83d b6e8 d5bd 17a2 0abe 8a9e 97bd
000002e0: 8d04 e73b 39cb 8a3d adc9 f9bd 0ceb 6abd
000002f0: 41bf d9bd f1e3 673d e50b a73d d253 7d3d
00000300: ea11 433d bc6a 2e3d ed2e 8e3d 2d98 f3bc
00000310: 45af 753d 85a6 57bd f371 fcbd 0220 96bd
00000320: b745 2a3d 8dfa a33c 08a3 be3d 2691 233b
00000330: 7fb4 a33c c124 253d 3402 8b3d 6001 9dbc
00000340: f64e 13bd 8b0e c23d 2e80 a0bd f1fe 2bbd
00000350: 8f69 a2bc 5c0c a2bd 25ec e73a cd74 9dbd
00000360: fdee c73c 3591 c03d 251a 00bd d800 3b3d
00000370: bd1f a5bd 8218 b13d 0ee2 e6bc 3581 11bd
00000380: 7401 a1bd b393 babd ee85 29bc c391 713c
00000390: 5686 183d 1bff d7bc 9f09 9b3d b82d 1bbd
000003a0: 3923 973a 5418 ed3d 7f60 5dbb b1b0 edba
000003b0: 0184 5abd 8e7f 323c 4608 bfbd 3ad7 edbd
000003c0: f466 4f3d 066c 2b3d 5b03 ebbd 17ef 41bd
000003d0: 152c e8bc beb8 bd3c 78f6 d33c 1d69 29bd
000003e0: b2ea 67bd 7318 7fbd 3475 b13d 4b55 c13b
000003f0: f3f6 93bc f823 b3bd 2a32 813d b273 7cbd

W0__41 f4 [1, 400, 256]
0.12631778 -0.036219157 0.013019235 0.017385075 -0.045317408 -0.055287976 0.09625471 0.052995034
0.008280762 0.0040957523 0.05117489 0.060605347 0.03200356 0.07470288 -0.031706188 0.034881055
0.052928396 0.10698523 -0.00076368067 -0.09474214 0.08613299 0.035579942 -0.03526052 0.025589895
0.04560185 0.007486126 0.008404866 0.0964066 -0.069501124 0.063905224 0.011149917 0.056170624
0.022712816 0.029986836 -0.026877023 0.04705467 0.09392149 0.026126053 0.22550881 -0.015657516
0.22513841 0.09393184 0.0019553676 0.0134658525 -0.033077233 0.030487664 0.0044905543 0.06360597
0.030791547 0.19717515 -0.056843508 0.034714453 -0.025619082 -0.028613586 -0.027674682 0.06374378
0.039319552 0.036489733 -0.06585949 -0.060850047 0.10415072 0.0995553 0.15836939 0.031781398
-0.07783842 -0.0672403 0.06050951 -0.06718101 0.050301135 0.017124305 -0.06962395 0.06349099
0.06733328 0.08452423 -0.05877012 -0.03449259 0.030443706 0.089360885 0.09351676 0.017054198
0.116396725 0.11251808 0.006986146 -0.057762917 0.09117899 0.072256766 -0.020647774 -0.080166906
-0.035826057 0.036390938 0.092363805 -0.059365388 -0.013913035 0.01020824 -0.03879183 0.08502937
0.07186927 0.026493957 0.013909156 -0.02347905 0.12075973 0.0015783245 -0.047591448 0.21613988
0.1133653 -0.07288998 0.10509411 0.029998226 -0.08626956 0.01825648 0.03964126 0.061112683
0.06460784 0.042848356 0.120022856 -0.03468321 -0.04359074 -0.0341815 -0.09260346 0.06327187
-0.01569519 0.009338342 -0.02268894 0.035037708 0.007935482 -0.063205905 0.040214665 0.108392805
-0.05398992 0.04573336 0.0030001104 -0.0562804 -0.022517258 -0.022733439 0.07785926 0.0076819966
0.21614677 0.07023553 0.049863 -0.016462743 0.045645963 -0.0043843687 -0.042759616 -0.07416799
-0.06257582 -0.009396003 0.008044079 0.19295447 -0.014780879 0.10857872 -0.07551292 0.08486751
0.057366557 0.07910488 -0.012027234 0.10130665 -0.0749338 0.18685418 -0.06944427 -0.0760738
0.20544554 0.22169828 -0.038488172 0.06047914 0.043839164 0.0596627 -0.049446512 0.0042878715
0.12358755 -0.0127902655 -0.041797217 0.030024676 -0.05824865 0.22183837 -0.083548725 -0.046475753
-0.0062590046 -0.06982921 -0.052861746 0.009550437 0.049318813 -0.04768037 0.09671534 -0.057324328
-0.019334562 0.025647312 0.08668169 0.16299663 0.03857634 0.03443449 -0.07804698 0.087850995
0.13570793 0.0838776 -0.01491826 0.098364845 0.023594642 0.0768718 0.012221879 0.25234607
0.00799159 0.111886404 0.013436517 0.06398376 0.083648704 0.099904664 -0.044938225 0.0077803074
-0.04141474 0.024490012 0.068478964 0.019938007 0.03408888 0.063375115 0.12081106 0.1343906
0.15774632 0.028857311 0.08851485 0.04749036 0.0019660278 -0.088189736 0.037312634 0.09084844
0.09119675 0.039451838 -0.089433335 0.033960603 0.08655918 0.008092943 0.033409107 -0.002264465
0.092734255 -0.0160333 -0.004788026 -0.021041483 0.014699526 0.16357683 0.099092975 0.025580492
-0.061457362 0.10009146 0.13073105 0.02604961 0.058860365 -0.0077538383 0.00289235 -0.064614505
-0.017402023 0.012032382 0.10581041 -0.041140527 0.08414092 0.07228365 -0.06792728 -0.024322446
00000000: 7359 013e 8a5a 14bd a14e 553c 256b 8e3c
00000010: bf9e 39bd a575 62bd 3021 c53d 5211 593d
00000020: 08ac 073c a935 863b c39c 513d 503d 783d
00000030: 2a16 033d d3fd 983d 59de 01bd 70df 0e3d
00000040: 72cb 583d 131b db3d be31 48ba 2b08 c2bd
00000050: 7e66 b03d 46bc 113d 566d 10bd e6a1 d13c
00000060: 01c9 3a3d 2d4e f53b 90b4 093c d370 c53d
00000070: 9b56 8ebd bee0 823d 24ae 363c 2b13 663d
00000080: 3a10 ba3c f4a6 f53c 342d dcbc 66bc 403d
00000090: e959 c03d 4e06 d63c c8eb 663e 3144 80bc
000000a0: af8a 663e 565f c03d a025 003b e19f 5c3c
000000b0: fe7b 07bd 44c1 f93c 8025 933b d943 823d
000000c0: 8e3e fc3c 48e8 493e bdd4 68bd be30 0e3d
000000d0: 1cdf d1bc 0a67 eabc 04b6 e2bc 198c 823d
000000e0: 8a0d 213d 4276 153d 57e1 86bd e63d 79bd
000000f0: f94c d53d a6e3 cb3d 962b 223e 362d 023d
00000100: c069 9fbd 48b5 89bd d2d8 773d 3396 89bd
00000110: 9008 4e3d 4548 8c3c 0097 8ebd 9007 823d
00000120: 08e6 893d 0a1b ad3d f0b8 70bd 1a48 0dbd
00000130: 1465 f93c d702 b73d b785 bf3d 3fb5 8b3c
00000140: 6861 ee3d e16f e63d 0aec e43b cf98 6cbd
00000150: 0dbc ba3d 5bfb 933d 8525 a9bc 8c2e a4bd
00000160: 58be 12bd aa0e 153d 3c29 bd3d 1f29 73bd
00000170: 80f3 63bc 7640 273c 2fe4 1ebd e123 ae3d
00000180: 3230 933d db09 d93c 3be3 633c 2357 c0bc
00000190: e150 f73d c8df ce3a 40ef 42bd c653 5d3e
000001a0: 112c e83d 5847 95bd 953b d73d d7be f53c
000001b0: 18ae b0bd 9d8e 953c e05e 223d 4b51 7a3d
000001c0: 1d51 843d c281 2f3d 8bce f53d fb0f 0ebd
000001d0: 348c 32bd e701 0cbd e2a6 bdbd af94 813d
000001e0: 3393 80bc d8ff 183c 28de b9bc b383 0f3d
000001f0: d303 023c 1972 81bd 22b8 243d 0cfd dd3d
00000200: 8924 5dbd e752 3b3d 809d 443b 4786 66bd
00000210: 1d76 b8bc 7a3b babc ad74 9f3d 42b9 fb3b
00000220: 9455 5d3e a5d7 8f3d 253d 4c3d e0dc 86bc
00000230: 43f7 3a3d c0aa 8fbb b524 2fbd 63e5 97bd
00000240: c027 80bd b1f1 19bc 50cb 033c db95 453e
00000250: 802b 72bc 855e de3d 85a6 9abd 04cf ad3d
00000260: 32f9 6a3d bd01 a23d e00d 45bc dc79 cf3d
00000270: e476 99bd b456 3f3e cc38 8ebd 95cc 9bbd
00000280: 5160 523e e004 633e c6a5 1dbd fab8 773d
00000290: b290 333d e060 743d 6d88 4abd 4681 8c3b
000002a0: 781b fd3d 438e 51bc 8f33 2bbd 4ff6 f53c
000002b0: 2396 6ebd 9929 633e 981b abbd 5c5d 3ebd
000002c0: 5618 cdbb 9e02 8fbd 8f85 58bd 7079 1c3c
000002d0: 8602 4a3d 7e4c 43bd b112 c63d eacc 6abd
000002e0: 8463 9ebc 501a d23c 2b86 b13d 97e8 263e
000002f0: 3902 1e3d 2e0b 0d3d 18d7 9fbd 39eb b33d
00000300: 05f7 0a3e 05c8 ab3d b86b 74bc 8273 c93d
00000310: 8d49 c13c f66e 9d3d 473e 483c 8133 813e
00000320: 28ef 023c b324 e53d d624 5c3c eb09 833d
00000330: 0350 ab3d d19a cc3d 2511 38bd f3f1 fe3b
00000340: 81a2 29bd 479f c83c b33e 8c3d 0855 a33c
00000350: c8a0 0b3d d0ca 813d ca6b f73d b09d 093e
00000360: 4088 213e 2b66 ec3c 4647 b53d 4085 423d
00000370: 79d8 003b d29c b4bd 22d5 183d bf0e ba3d
00000380: 5dc5 ba3d 4098 213d d328 b7bd 461a 0b3d
00000390: f045 b13d 4398 043c fdd7 083d 6b67 14bb
000003a0: 75eb bd3d 4458 83bc e0e4 9cbb 305f acbc
000003b0: 48d6 703c af80 273e 42f1 ca3d 2e8e d13c
000003c0: b7ba 7bbd c0fc cc3d 5cde 053e fe65 d53c
000003d0: 9117 713d e913 febb 958d 3d3b 9c54 84bd
000003e0: b08e 8ebc 7823 453c 21b3 d83d f882 28bd
000003f0: 1352 ac3d 7309 943d 751d 8bbd de3f c7bc

R0__63 f4 [1, 400, 100]
0.060719293 0.023995424 0.033697944 0.01779398 0.06014442 -0.030630128 0.024811445 -0.058791053
0.050925724 0.08559688 0.009606587 -0.09961308 -0.00087793823 -0.0997669 -0.037002068 -0.020159472
-0.06545659 -0.021370098 0.005564639 0.042374585 0.056257013 0.015750129 -0.030219318 0.005872918
-0.0038188875 0.0021093169 -0.0620356 0.11814435 0.044747755 0.011443864 -0.009718402 -0.013219942
-0.011482396 -0.05106836 0.1234603 0.016370948 0.017676458 -0.02228984 -0.030599847 -0.07867829
-0.024083665 -0.00027743945 -0.0011037445 -0.007911794 -0.095758855 0.037110537 -0.021871561 -0.052659772
0.05565794 0.06277807 0.048287854 -0.08087705 0.024743322 0.050633192 -0.051642478 -0.055845298
0.016519964 -0.009912643 -0.005536418 0.034622345 0.04364022 -0.034622967 0.0021564865 -0.030659728
0.10677574 0.037858844 0.073597685 0.012553905 0.08169088 0.003731783 -0.10242449 0.05985122
-0.03825872 -0.01694081 0.016369693 0.041986767 0.04451172 0.022060743 -0.024692181 -0.07396225
0.03235109 0.027264021 -0.08841611 -0.043109026 -0.06627447 0.070881486 0.048322596 0.05667251
-0.016757522 -0.09054262 -0.049694885 0.024094133 -0.053248413 -0.086422876 -0.10025582 0.039458327
0.0080056405 0.0023522098 -3.8838105e-05 -0.05209911 0.035317574 -0.030832304 -0.059809383 0.10120002
0.02099156 0.007596854 -0.041531105 -0.06862824 0.0063699507 0.07398008 -0.0749488 -0.061218366
0.037798077 -0.030022532 -0.042961817 -0.084036015 0.110901766 0.04194578 -0.061277993 -0.01722635
0.0253115 -0.016135821 0.011614707 -0.051227666 0.030647414 -0.042406645 0.06085631 -0.05772553
0.1451815 0.0042560757 0.023251178 0.037699778 -0.023156213 0.05087166 -0.01847138 -0.0022567464
0.07629441 -0.09026543 0.009053769 -0.020549614 0.0036682778 -0.00037528487 0.038359758 0.064809315
-0.04094879 0.013676798 -0.03424933 -0.110197894 0.00036695795 -0.06976559 -0.002516934 -0.061012764
-0.010099087 0.058152515 0.003587022 -0.064798735 0.015099948 0.0009794657 0.0933433 0.037779156
0.15178709 -0.014866341 0.034350555 -0.06829047 0.0921555 0.09508535 -0.003417177 -0.027908122
0.053961206 -0.034566883 -0.0062645273 -0.0018851873 -0.06333796 0.014861359 -0.051107008 -0.11824885
-0.061870266 0.058174603 -0.03422304 0.01600797 -0.047778107 -0.02014155 0.0012134793 -0.10899001
-0.01758236 -0.029110169 -0.045837544 0.013813065 0.015243347 0.008410547 0.0023056227 -0.12619951
-0.115455344 -0.010687932 0.0013145602 -0.06519111 0.013824031 0.032637432 0.08916975 -0.033511683
0.017830824 -0.10485104 0.04712911 0.0050480026 0.072655566 -0.070956014 0.058049317 -0.008029473
0.019201618 -0.002224499 0.055430155 0.006005476 0.025858035 0.0023806132 -0.03298706 0.024060817
0.06141734 0.013915535 -0.16088055 0.010772221 0.017049605 0.018036019 0.013676163 -0.0604089
-0.020365428 -0.05333932 -0.031162128 0.046899874 0.048402693 -0.02629465 0.06650476 0.0072129876
-0.0014769401 0.012588895 0.10184022 0.039097294 -0.034346674 -0.032750033 0.0035295151 -0.02129507
0.008424798 0.020799978 0.029359657 0.08001297 0.09939736 -0.09439869 0.07466228 -0.0523711
0.03347966 -0.056493126 0.061462637 -0.10473864 -0.08330291 -0.012836553 0.045229502 0.009651608
00000000: cbb4 783d 0d92 c43c db06 0a3d aec4 913c
00000010: ff59 763d 09ec fabc 5f41 cb3c e3ce 70bd
00000020: 7e97 503d 6b4d af3d f264 1d3c f101 ccbd
00000030: 7025 66ba 9752 ccbd 7b8f 17bd 7a25 a5bc
00000040: 1b0e 86bd 5810 afbc 9357 b63b f990 2d3d
00000050: c16d 663d 6a06 813c 818e f7bc 9b71 c03b
00000060: 4d46 7abb 773c 0a3b 0b19 7ebd aaf5 f13d
00000070: 6c49 373d 0b7f 3b3c ef39 1fbc 7598 58bc
00000080: a920 3cbc 0f2d 51bd c1d8 fc3d 5e1c 863c
00000090: 38ce 903c 2f99 b6bc 88ac fabc 1522 a1bd
000000a0: 1b4b c5bc 4b75 91b9 85ab 90ba 78a0 01bc
000000b0: 381d c4bd 3801 183d fd2b b3bc c6b1 57bd
000000c0: 95f9 633d ca91 803d 7cc9 453d dea2 a5bd
000000d0: 82b2 ca3c c064 4f3d 1087 53bd 0abe 64bd
000000e0: e054 873c a368 22bc d76a b5bb 29d0 0d3d
000000f0: 16c0 323d d0d0 0dbd d753 0d3b 1c2a fbbc
00000100: 3dad da3d e011 1b3d 62ba 963d e5ae 4d3c
00000110: 8c4d a73d ee90 743b eec3 d1bd 8e26 753d
00000120: 2db5 1cbd 74c7 8abc bc19 863c 51fa 2b3d
00000130: ec51 363d bbb8 b43c 4247 cabc 8579 97bd
00000140: 9482 043d cc58 df3c 8113 b5bd 1793 30bd
00000150: e9ba 87bd 502a 913d eaed 453d 6f21 683d
00000160: 1247 89bc 696e b9bd dd8c 4bbd 0f61 c53c
00000170: 021b 5abd 7afe b0bd ec52 cdbd 0e9f 213d
00000180: 172a 033c 8827 1a3b 19e6 22b8 e065 55bd
00000190: 29a9 103d 0794 fcbc affa 74bd f541 cf3d
000001a0: 7ef6 ab3c 08ef f83b 851c 2abd f68c 8cbd
000001b0: 05bb d03b de82 973d c27e 99bd 1cc0 7abd
000001c0: 28d2 1a3d d0f1 f5bc bbf8 2fbd 131b acbd
000001d0: 7720 e33d 57cf 2b3d a2fe 7abd 461e 8dbc
000001e0: 105a cf3c 452f 84bc 9d4b 3e3c 1ad4 51bd
000001f0: 4910 fb3c 97b2 2dbd 7744 793d 9b71 6cbd
00000200: 76aa 143e 8d76 8b3b 4179 be3c 156b 1a3d
00000210: 19b2 bdbc cd5e 503d 4b51 97bc ece5 13bb
00000220: 3e40 9c3d 15dd b8bd 4256 143c aa57 a8bc
00000230: 7d67 703b e2c1 c4b9 1f1f 1d3d bfba 843d
00000240: ebb9 27bd a614 603c 0749 0cbd 6faf e1bd
00000250: 4364 c039 43e1 8ebd 25f3 24bb 85e8 79bd
00000260: a476 25bc 5531 6e3d 3e14 6b3b 33b5 84bd
00000270: c665 773c 6a61 803a c62a bf3d 51be 1a3d
00000280: 136e 1b3e f491 73bc 2bb3 0c3d e0db 8bbd
00000290: 06bc bc3d 1cbc c23d b7f2 5fbb 939f e4bc
000002a0: 6d06 5d3d 0196 0dbd aa46 cdbb 6418 f7ba
000002b0: 55b7 81bd 0f7d 733c 9555 51bd 742c f2bd
000002c0: ad6b 7dbd 7e48 6e3d 752d 0cbd 2523 833c
000002d0: fab2 43bd e4ff a4bc 9c0d 9f3a 2836 dfbd
000002e0: e208 90bc 7378 eebc 26c0 3bbd 3250 623c
000002f0: 3bbf 793c 64cc 093c ee19 173b 723a 01be
00000300: da73 ecbd 701c 2fbc 524d ac3a eb82 85bd
00000310: 307e 623c d4ae 053d a19e b63d 8c43 09bd
00000320: f311 923c 24bc d6bd 740a 413d b769 a53b
00000330: 71cc 943d 6351 91bd 1fc5 6d3d 0d8e 03bc
00000340: b64c 9d3c e6c8 11bb bb0a 633d 96c9 c43b
00000350: 3bd4 d33c 1004 1c3b 701d 07bd 311b c53c
00000360: c090 7b3d fcfd 633c dfbd 24be f87d 303c
00000370: 9dab 8b3c 46c0 933c fc11 603c 536f 77bd
00000380: 66d5 a6bc 557a 5abd b847 ffbc 151a 403d
00000390: e741 463d e167 d7bc a633 883d ed5a ec3b
000003a0: e395 c1ba a741 4e3c 9b91 d03d 7c24 203d
000003b0: 19af 0cbd e624 06bd 704f 673b 0073 aebc
000003c0: 2a08 0a3c b764 aa3c aa83 f03c d7dd a33d
000003d0: d890 cb3d 1a54 c1bd 8ae8 983d 1483 56bd
000003e0: f821 093d 5665 67bd 3fc0 7b3d 3681 d6bd
000003f0: b79a aabd 6850 52bc 9242 393d c721 1e3c

R0__42 f4 [1, 400, 100]
0.023774346 0.021383185 -0.04325422 0.10914021 -0.14779419 0.05564268 0.0072117615 -0.017318042
-0.015095322 0.11101156 -0.09172947 -0.06786697 -0.0061003724 -0.009779704 0.08452712 -0.110080846
0.08753848 -0.05265279 0.025416583 0.05317501 0.06560916 -0.058162425 0.07458758 0.0075117615
0.003232431 -0.03890154 -0.070633315 0.027670717 0.000624438 0.06979629 0.015341368 0.015486056
-0.044363398 0.013415741 0.08644794 -0.04127958 0.016832987 0.06666836 0.027392086 -0.060806796
0.0101407 -0.00071094657 -0.024136504 0.007915832 0.10397888 0.011462493 0.1158889 0.06553402
0.012235419 0.11366177 0.045631923 0.016048588 -0.031737868 -0.01345277 -0.036706567 0.089687645
-0.023951693 0.11004187 -0.019268293 0.027389647 0.07055628 0.012923278 -0.033549163 -0.020979382
0.030498186 -0.054983497 -0.052359935 0.019421376 -0.016097112 -0.14460684 -0.015893381 -0.028992277
0.033930577 -0.05892698 -0.08289391 0.036097694 0.07375844 -0.013890289 0.03988136 -0.027573543
0.046678666 0.02803424 0.026111063 -0.05345023 0.038099706 -0.07668078 -0.0026048014 -0.080681376
-0.0771132 -0.0930844 0.100250155 -0.033411853 0.04636299 0.026080409 -0.05710006 0.043096635
0.07634359 0.1516593 0.015303489 -0.044693887 0.016028762 -0.08691449 -0.0032270926 0.05899155
-0.038722668 0.036981497 0.06218158 0.038164895 0.09590018 0.002460279 -0.13005313 0.100082725
-0.0688654 0.023636851 -0.008611854 -0.013410058 0.054993384 -0.11496284 0.0053692283 -0.14209358
0.10588033 -0.011888404 -0.019248873 -0.06579503 0.07931921 0.0117695825 0.040881023 0.051640302
-0.031315215 -0.030048795 -0.08592825 0.018326825 0.025831472 -0.06575254 0.048263445 -0.03293041
-0.017428331 -0.12402142 -0.033069853 0.0059393602 -0.05547338 0.04221636 0.01185042 -0.0053671277
-0.03690688 -0.07962198 -0.039710186 0.09161882 0.06342973 -0.10639384 0.091807626 0.08407906
0.056680083 0.044207897 -0.0447936 -0.07223301 -0.0362023 -0.073822655 0.041884594 -0.07244871
-0.10104911 0.0726292 -0.02335126 -0.12522838 -0.1055722 0.005345988 -0.0064348 -0.11054107
0.07952161 0.04873093 0.034339238 0.05505459 -0.1171552 0.022249958 0.11163281 0.030234665
-0.042904112 -0.024129076 0.099807985 0.030498857 -0.03775363 0.018454315 0.008935671 -0.10653938
0.04307084 -0.06820692 -0.009828755 0.14499928 0.14129262 -0.036104705 -0.06300998 0.076607704
-0.04716218 0.021117313 -0.033181213 0.030012244 0.023998497 0.0048475373 0.03434057 -0.08321183
-0.048386954 -0.026611917 -0.04103511 -0.036146674 0.050384376 0.06489849 -0.064866334 0.022211276
0.009484753 0.06297536 -0.030179363 0.075691946 -0.081459016 -0.016539536 0.024663998 0.0076562306
0.0419717 0.015504073 0.05648626 -0.07009688 -0.0409118 -0.044809952 0.0014098143 0.06276368
0.101375975 0.11571784 -0.0053434493 0.1473017 -0.042793695 -0.024716321 -0.019300837 -0.08623948
-0.024557622 0.049028803 -0.034345485 0.053167973 -0.022491343 -0.067057185 -0.012611455 0.009132897
-0.013453708 0.06260087 -0.043694135 -0.060643334 0.00056382833 0.014110369 -0.015565537 0.019702658
0.047425132 -0.068224676 -0.016870765 0.01720695 0.00046058354 -0.093046516 -0.07092486 0.041426282
00000000: 6bc2 c23c ca2b af3c 562b 31bd e784 df3d
00000010: 5c57 17be 94e9 633d a450 ec3b 91de 8dbc
00000020: 5f52 77bc 075a e33d a9dc bbbd d7fd 8abd
00000030: a2e5 c7bb 0d3b 20bc 8e1c ad3d 1172 e1bd
00000040: 6047 b33d 74aa 57bd 7036 d03c 0ace 593d
00000050: 185e 863d b93b 6ebd 60c1 983d 3925 f63b
00000060: 31d7 533b 3957 1fbd 33a8 90bd b3ad e23c
00000070: 53b1 233a 5bf1 8e3d 5c5a 7b3c 3ab9 7d3c
00000080: 65b6 35bd b2cd 5b3c 9e0b b13d c714 29bd
00000090: 55e5 893c 6c89 883d 5e65 e03c 8c10 79bd
000000a0: 2e25 263c d15e 3aba ebb9 c5bc 68b1 013c
000000b0: e1f2 d43d 2ecd 3b3c 2957 ed3d b336 863d
000000c0: 1177 483c 81c7 e83d 8ae8 3a3d 5478 833c
000000d0: 91ff 01bd 0269 5cbc a059 16bd 28ae b73d
000000e0: 5736 c4bc a25d e13d 8ad8 9dbc 4160 e03c
000000f0: d07f 903d 28bc 533c d96a 09bd f4dc abbc
00000100: 55d7 f93c 6036 61bd 5f77 56bd 9419 9f3c
00000110: 17de 83bc d113 14be d632 82bc 3681 edbc
00000120: cafa 0a3d 6b5d 71bd 48c4 a9bd 2ddb 133d
00000130: aa0e 973d 1894 63bc a35a 233d e9e1 e1bc
00000140: 2132 3f3d 10a8 e53c dee6 d53c a1ee 5abd
00000150: 700e 1c3d d00a 9dbd 51b5 2abb 473c a5bd
00000160: 87ed 9dbd 09a3 bebd f44f cd3d deda 08bd
00000170: 1ee7 3d3d 95a6 d53c c1e1 69bd 1986 303d
00000180: 075a 9c3d 934c 1b3e 7cbb 7a3c f010 37bd
00000190: c04e 833c 3900 b2bd a17d 53bb 20a1 713d
000001a0: a99b 1ebd e979 173d 1db2 7e3d cb52 1c3d
000001b0: 5067 c43d a23c 213b a62c 05be 2cf8 cc3d
000001c0: 4e09 8dbd 12a2 c13c bc18 0dbc dcb5 5bbc
000001d0: be40 613d a371 ebbd 5af0 af3b fb80 11be
000001e0: c9d7 d83d 95c7 42bc d0af 9dbc 8bbf 86bd
000001f0: 1c72 a23d 35d5 403c dc72 273d c884 533d
00000200: 6244 00bd e428 f6bc 26fb afbd 2322 963c
00000210: 869c d33c 45a9 86bd e4af 453d 0ae2 06bd
00000220: dcc5 8ebc f1fe fdbd 4174 07bd f79e c23b
00000230: 0e38 63bd 10eb 2c3d 4428 423c bbde afbb
00000240: ab2b 17bd d910 a3bd 26a7 22bd a6a2 bb3d
00000250: 72e7 813d 03e5 d9bd a305 bc3d a431 ac3d
00000260: 6029 683d 5713 353d 7e79 37bd e6ee 93bd
00000270: dd48 14bd 5530 97bd 2e8f 2b3d fd5f 94bd
00000280: d6f2 cebd 9ebe 943d 244b bfbc de3b 00be
00000290: 3d36 d8bd 662d af3b 04db d2bb 5b63 e2bd
000002a0: 3adc a23d 159a 473d 4da7 0c3d ec80 613d
000002b0: 11ef efbd 8b45 b63c be9f e43d b0ae f73c
000002c0: 39bc 2fbd 57aa c5bc 2168 cc3d bdd8 f93c
000002d0: 8da3 1abd 812d 973c ec66 123c 5231 dabd
000002e0: 0d6b 303d 12b0 8bbd c908 21bc b17a 143e
000002f0: 03af 103e 87e2 13bd 600b 81bd 80e4 9c3d
00000300: 212d 41bd 37fe ac3c 06e9 07bd 3ddc f53c
00000310: 7f98 c43c 17d8 9e3b b3a8 0c3d f76a aabd
00000320: 6631 46bd 3c01 dabc 6e14 28bd 890e 14bd
00000330: d95f 4e3d 80e9 843d a4d8 84bd 6cf4 b53c
00000340: f065 1b3c 3af9 803d b63a f7bc 6104 9b3d
00000350: fcd3 a6bd ec7d 87bc 270c ca3c 1ee1 fa3b
00000360: 84ea 2b3d cc04 7e3c 235e 673d f48e 8fbd
00000370: 2293 27bd a48a 37bd 85c9 b83a 3f8a 803d
00000380: 359e cf3d 7afd ec3d 1a18 afbb 42d6 163e
00000390: 7148 2fbd e279 cabc ca1c 9ebc 539e b0bd
000003a0: 112d c9bc 6dd2 483d daad 0cbd a9c6 593d
000003b0: c43f b8bc 4755 89bd 47a0 4ebc 25a2 153c
000003c0: f16c 5cbc e334 803d 9ff8 32bd 2565 78bd
000003d0: e1cd 133a 2d2f 673c 9806 7fbc 7867 a13c
000003e0: db40 423d 61b9 8bbd 8f34 8abc 97f5 8c3c
000003f0: 7a7a f139 2c8f bebd 0e41 91bd 9bae 293d

B0__64 f4 [1, 800]
0.015614272 -0.014556344 0.006026413 0.025058396 -0.003019886 0.010193289 0.020717021 0.005442632
0.02022483 0.008722715 0.016005903 0.032501366 0.019907268 0.012849581 0.021028742 0.020191893
0.010578104 0.006677028 0.02781915 0.004518676 0.0056989505 0.0072616595 -0.019705607 0.018702928
0.0009830238 0.004258004 -0.0045942725 0.010729198 0.016660756 -0.0005927341 0.014374814 0.006069312
0.011664295 0.0128731085 0.014941337 0.0024450268 0.028015232 0.0010323859 0.009185538 0.0122691
0.040844455 0.011967857 0.08328403 0.008464421 0.0065580294 0.02263326 0.029733945 0.0051082
9.419554e-05 0.0038949193 0.00607553 0.01793166 0.00963629 0.010770865 0.009055261 0.0044251005
0.0041410415 0.002844532 -0.0018232564 0.012463497 0.030040007 0.024997933 0.028304761 0.012257723
0.00519738 0.004032504 0.013936778 0.02379201 0.01644783 -0.008804161 0.0072311736 0.002183331
0.012948972 0.0069214823 0.014679274 0.012822935 0.0049513676 0.013267154 0.015592935 0.0021161542
0.011665025 0.009144314 0.004916712 -0.0015794109 -0.00038711732 0.0077220006 0.04390195 -0.014134471
0.011539287 0.028853768 0.0100670345 0.005906271 0.011063504 0.016625902 -0.0035602024 0.013393783
0.0018774425 0.0031806033 0.0103149135 0.006138535 0.01654539 -0.019152673 0.0042782873 0.030934718
-0.0035024583 0.01933272 0.030137114 0.0024477208 0.01921425 0.00626669 0.01467571 0.04150724
0.023544753 0.012194858 0.026941989 0.02128897 0.011877848 0.009110303 0.038929265 0.0034585397
0.0044325483 0.007499061 -0.020659382 0.024561625 0.0011008814 0.0072690286 -0.0023146868 0.013013593
0.009166448 -0.0032130256 0.011900566 0.0031819087 0.01157575 0.01699959 0.013261249 0.0027607735
0.027034968 -0.00086425844 0.009498416 0.0073607243 0.048596263 0.011357238 0.031948067 0.0066004302
0.0074869543 0.030563248 0.03531106 0.0042901007 0.0021556388 0.0027365284 0.009246337 0.018656142
0.009459803 0.01701435 0.011847477 0.010998412 -0.00078513 0.002761941 -0.004113439 0.011823311
0.031656504 0.028629722 0.029693004 0.01122268 0.005930558 0.0021424256 0.008735579 0.039497208
0.01446296 -0.00340979 0.008654376 0.0061188615 0.013250832 0.009331146 0.022104256 0.0163821
0.010472543 0.0110460855 0.01910777 0.0024564534 0.012599531 0.013048754 0.008249184 -0.004301715
0.009636363 0.017949797 0.059060592 -0.020747818 0.015919399 0.032873183 0.0113128405 0.006528022
0.0077146594 0.02340723 -0.0058027017 0.016996574 0.00060585997 0.0020714593 0.009494882 0.0044256495
1.0004213 0.97689015 0.99860775 0.9678776 0.9952813 0.9706707 0.9513174 1.0008259
1.0176731 0.9943662 0.9887977 0.9367126 0.9846739 1.0120581 0.9967006 0.9950342
0.9895772 0.9864937 0.9544574 1.0036165 1.013529 0.98998934 0.9836614 0.96893865
0.98644227 0.9955251 0.9872281 0.98102957 1.000656 0.97163814 1.0146188 1.0048369
0.96266335 0.9814439 1.0112609 0.9854235 0.94058573 0.99767214 0.9808448 1.0065701
0.98085755 1.0006346 1.0146437 1.0092689 0.9989393 0.9538286 0.9948578 1.0004355
0.9857685 1.0080485 0.99700034 0.96771646 0.97121525 0.96551305 1.0058454 0.95663124
00000000: 01d3 7f3c bb7d 6ebc 3779 c53b 4447 cd3c
00000010: 48e9 45bb c101 273c beb6 a93c 1b58 b23b
00000020: 8bae a53c b8e9 0e3c d01e 833c 2720 053d
00000030: 9114 a33c 0d87 523c 7844 ac3c 7869 a53c
00000040: c94f 2d3c f8ca da3b fce4 e33c 6711 943b
00000050: 43be ba3b 37f3 ed3b a76d a1bc e236 993c
00000060: ced8 803a ba86 8b3b 8d8b 96bb 85c9 2f3c
00000070: 237c 883c b661 1bba 5784 6b3c 14e1 c63b
00000080: 991b 3f3c bbe9 523c 82cc 743c be3c 203b
00000090: 3380 e53c 1f51 873a f07e 163c 5604 493c
000000a0: 844c 273d d514 443c d190 aa3d 5bae 0a3c
000000b0: bde4 d63b 6369 b93c 9a94 f33c b062 a73b
000000c0: d88a c538 e741 7f3b 3d15 c73b 6be5 923c
000000d0: 88e1 1d3c 4878 303c 845c 143c 6f00 913b
000000e0: 93b1 873b 546b 3a3b 55fa eeba b233 4c3c
000000f0: 7616 f63c 77c8 cc3c 63df e73c 9ed4 483c
00000100: c94e aa3b 1823 843b 1557 643c 76e7 c23c
00000110: 99bd 863c 543f 10bc 7bf3 ec3b 3716 0f3b
00000120: ed27 543c 9acd e23b 5681 703c 4a17 523c
00000130: 153f a23b 7a5e 593c 8279 7f3c 2daf 0a3b
00000140: a91e 3f3c 08d2 153c 5f1c a13b 3c04 cfba
00000150: 02f6 cab9 d608 fd3b 88d2 333d 4594 67bc
00000160: 470f 3d3c bd5e ec3c 34f0 243c 6489 c13b
00000170: b343 353c 0b33 883c 4952 69bb 9971 5b3c
00000180: 8414 f63a ab71 503b e2ff 283c c425 c93b
00000190: 338a 873c 11e6 9cbc e030 8c3b ce6a fd3c
000001a0: 8089 65bb a75f 9e3c 1ce2 f63c f169 203b
000001b0: 3467 9d3c ce58 cd3b 6472 703c 7f03 2a3d
000001c0: ede0 c03c f1cc 473c 72b5 dc3c 3566 ae3c
000001d0: 4e9b 423c 6143 153c 4b74 1f3d aba8 623b
000001e0: e93e 913b afba f53b dd3d a9bc 7635 c93c
000001f0: 734b 903a 0831 ee3b 00b2 17bb f736 553c
00000200: df2e 163c a091 52bb 97fa 423c 9287 503b
00000210: 37a8 3d3c b942 8b3c b645 593c 18ee 343b
00000220: 7078 dd3c 678f 62ba 3f9f 1b3c 3b32 f13b
00000230: e00c 473d b513 3a3c fadb 023d 6c48 d83b
00000240: 2055 f53b c75f fa3c 54a2 103d f993 8c3b
00000250: 9e45 0d3b 5457 333b f37d 173c c4d4 983c
00000260: 4afd 1a3c ae61 8b3c ec1b 423c af32 343c
00000270: 2fd1 4dba ae01 353b 07ca 86bb 90b6 413c
00000280: 40aa 013d e188 ea3c be3e f33c 55df 373c
00000290: 2055 c23b f067 0c3b ad1f 0f3c d3c7 213d
000002a0: 0df6 6c3c c976 5fbb 15cb 0d3c bb80 c83b
000002b0: 051a 593c aae1 183c fc13 b53c c133 863c
000002c0: 0795 2b3c a4fa 343c e687 9c3c 73fc 203b
000002d0: 436e 4e3c 71ca 553c 9627 073c 67f5 8cbb
000002e0: d6e1 1d3c 740b 933c 85e9 713d 54f7 a9bc
000002f0: 6669 823c 08a6 063d 7e59 393c 04e9 d53b
00000300: 41cb fc3b 85c0 bf3c 9724 bebb 663c 8b3c
00000310: 93d2 1e3a 52c1 073b 6c90 1b3c 0a05 913b
00000320: ce0d 803f 7915 7a3f c2a4 7f3f d4c6 773f
00000330: c1ca 7e3f e07d 783f 8a89 733f 101b 803f
00000340: 1d43 823f c98e 7e3f d921 7d3f 66cc 6f3f
00000350: 9713 7c3f 1f8b 813f c527 7f3f 90ba 7e3f
00000360: ee54 7d3f da8a 7c3f 5257 743f 8176 803f
00000370: 51bb 813f f16f 7d3f 3cd1 7b3f 5d0c 783f
00000380: 7b87 7c3f bcda 7e3f fbba 7c3f c124 7b3f
00000390: 7f15 803f 47bd 783f 07df 813f 7f9e 803f
000003a0: 1b71 763f e83f 7b3f ff70 813f b744 7c3f
000003b0: 3aca 703f 7167 7f3f a518 7b3f 4ad7 803f
000003c0: 7b19 7b3f cb14 803f d8df 813f b92f 813f
000003d0: 7cba 7f3f 1c2e 743f 00af 7e3f 450e 803f
000003e0: 535b 7c3f bc07 813f 6a3b 7f3f 44bc 773f
000003f0: 90a1 783f dd2b 773f 8bbf 803f c9e5 743f
