Back-testing Cryptocurrencies Astonishing Results from a Simple Deep Learning Strategy/model_bnbusdt.onnx (onnx, 905566 bytes, 9 tensors)

sequential/dense/MatMul/ReadVariableOp:0 f4 [100, 1]
-0.21879424 -0.25399986 0.20539312 0.002226826 -0.20236139 0.2576801 0.2337171 -0.14628612
-0.10682326 0.21699859 -0.12525189 -0.2722119 0.016119117 0.075434245 0.28211996 -0.2562438
-0.025349503 -0.16918305 -0.14297934 -0.06816066 -0.26441947 -0.21080428 0.2724466 -0.2988416
-0.051565617 0.06421304 -0.27411836 -0.13054475 0.19891427 -0.006895122 -0.11279963 0.21891573
0.1612744 -0.17905316 -0.25622222 -0.10373195 -0.10470481 -0.17795044 -0.22850706 -0.020540524
-0.24420442 -0.23291986 0.16829517 0.26347136 0.212183 -0.07003977 -0.092532724 -0.13880144
-0.11610258 0.078033365 -0.032175448 -0.17241569 -0.22717115 0.16202906 -0.21621187 0.28598428
-0.20172916 0.05380205 -0.23394433 -0.05098271 -0.14758772 0.22695915 -0.2539763 -0.22208227
-0.19265062 -0.21566379 -0.076966755 -0.2373942 -0.19681711 -0.2968006 -0.01560149 0.1483857
0.12685147 0.008662776 0.13786982 0.13287644 -0.09789008 -0.012146554 0.00084584364 0.103486024
-0.14695571 -0.013147063 -0.13870992 -0.078865446 0.24775477 -0.008009984 0.18114722 -0.09187915
-0.028558156 -0.13020165 -0.10982243 -0.18256457 -0.08834375 -0.006703795 -0.21676154 -0.051477093
0.089230694 -0.2680422 -0.051099896 -0.09103468
00000000: 990b 60be 450c 82be 9352 523e f1ef 113b
00000010: d337 4fbe a5ee 833e 8953 6f3e 07cc 15be
00000020: 27c6 dabd e134 5e3e 0842 00be 5c5f 8bbe
00000030: 3d0c 843c 457d 9a3d 0772 903e 6332 83be
00000040: c3a9 cfbc 523e 2dbe 2d69 12be d197 8bbd
00000050: fd61 87be 14dd 57be 1f7e 8b3e c401 99be
00000060: 7836 53bd 2082 833d 3e59 8cbe 86ad 05be
00000070: 2fb0 4b3e 7af0 e1bb 7e03 e7bd 722b 603e
00000080: 1e25 253e b659 37be 8f2f 83be 6b71 d4bd
00000090: 7a6f d6bd a438 36be c1fd 69be 9a44 a8bc
000000a0: b910 7abe 8b82 6ebe 9255 2c3e b8e5 863e
000000b0: 8046 593e 0371 8fbd cc81 bdbd f721 0ebe
000000c0: 31c7 edbd f5cf 9f3d 67ca 03bd bd8d 30be
000000d0: 8e9f 68be f2ea 253e a566 5dbe 886c 923e
000000e0: 1792 4ebe 8a5f 5c3d 1a8f 6fbe 3fd3 50bd
000000f0: 3c21 17be fb67 683e 2e09 82be 8969 63be
00000100: 3446 45be f8d6 5cbe bfa0 9dbd 7717 73be
00000110: 6d8a 49be 40f6 97be 649d 7fbc 6cf2 173e
00000120: 5ae5 013e 51ee 0d3c bf2d 0d3e c310 083e
00000130: 987a c8bd 5702 47bc 9bbb 5d3a 7bf0 d33d
00000140: 8f7b 16be c766 57bc f909 0ebe 3584 a1bd
00000150: 6db3 7d3e 4f3c 03bc a87e 393e 232b bcbd
00000160: cbf2 e9bc 9553 05be 95ea e0bd 35f2 3abe
00000170: 91ed b4bd 82ab dbbb bdf6 5dbe a5d9 52bd
00000180: 95be b63d d43c 89be 204e 51bd 6470 babd

sequential/conv1d/Conv1D/ExpandDims_1:0 f4 [256, 1, 1, 2]
0.10437649 -0.08479385 -0.03246945 -0.09763851 -0.011076787 0.045147303 -0.012236163 -0.10070402
0.064457044 0.0395958 0.028928662 -0.04738481 -0.08210189 -0.03400272 -0.099128276 -0.09065086
-0.023204088 -0.0028358698 -0.075169586 0.115900956 0.052681156 0.0813235 -0.0027224675 0.11375158
-0.06595799 -0.061140332 -0.03831265 -0.17547908 0.00039554702 0.019454421 0.036804028 -0.049709715
-0.040051162 -0.07895518 -0.004148692 -0.025377013 0.054513056 -0.030290948 0.023989903 -0.0049586254
-0.082381874 0.047977544 -0.06522795 0.04970659 0.045624774 -0.013707032 -0.20556182 -0.15142834
-0.10749402 -0.062018774 -0.05521238 0.10154712 -0.0783129 0.023029491 -0.04624241 -0.04783524
0.02520673 0.0054199877 -0.09500287 -0.09109394 -0.001043506 -0.0060880035 0.05989363 0.023536704
0.06740942 -0.034174867 -0.07797128 0.020154437 -0.098006666 -0.043325245 -0.069051065 -0.041272566
-0.04472895 -0.016677916 -0.041290388 -0.0637888 0.097635254 -0.0140873175 0.08303516 0.0123602655
-0.04200632 -0.021548897 -0.06451786 0.00017786298 -0.048575018 0.0047145695 -0.10708808 0.051035892
-0.06473787 0.041112643 -0.08021298 -0.05239659 0.012564195 0.022457998 0.052084256 -0.0030873572
0.06277958 0.10230392 -0.01265493 -0.030002922 0.106509835 -0.1126862 -0.08929165 0.028155068
0.11924763 -0.051923435 -0.050783627 0.09121473 -0.054078415 0.012720088 0.0681399 -0.0034402688
0.08297997 0.09180192 0.09383412 -0.048774567 0.028370028 0.06450227 -0.064549595 -0.016884089
0.14700694 -0.13859509 -0.07489304 -0.014346339 -0.003159225 -0.060627308 -0.041927103 0.11765032
-0.017487992 0.05838458 -0.031883325 0.06126729 0.09535403 0.0667529 0.11207839 0.12220557
-0.020442225 0.048146416 0.12014852 -0.104684316 0.15485604 -0.15704489 -0.10573363 -0.07410404
0.05008615 -0.0045313397 -0.08922799 0.050821166 -0.013808072 -0.07867016 -0.042634852 0.09012735
0.008017122 0.060298655 -0.031636037 -0.07589011 -0.20945112 -0.11776231 0.07958808 -0.061614644
0.026280938 -0.042890266 0.014414946 0.07877923 -0.10473471 -0.06648497 -0.034172654 -0.0107785165
-0.04006327 -0.016963325 -0.06887227 0.02260893 -0.054392196 0.11706343 0.039059326 0.020207066
-0.042788863 -0.05081049 -0.20917588 -0.05951244 -0.058723737 0.096350685 -0.09764827 -0.07322855
0.0857693 0.06962043 -0.06483582 -0.01211074 0.06858147 0.05639512 -0.049134016 0.017560335
-0.07923657 0.09880013 -0.06107247 0.048214354 -0.05137204 0.102658845 0.09759829 0.06422835
0.17231631 -0.198586 0.086004585 -0.06958463 0.055294205 0.015962403 -0.03312005 -0.0013860539
0.13967562 -0.14037895 0.13849688 -0.16114056 -0.020747911 0.029289238 -0.04083854 0.10149704
0.03888579 0.02263931 0.07949682 -0.03752079 0.046626985 0.046710525 0.044409577 0.07616863
-0.035410944 0.11805912 -0.09757942 0.04021584 -0.060713574 -0.042655118 -0.048198123 0.08850808
0.110259466 -0.029933816 0.061236534 0.060911685 -0.06403069 0.120678924 -0.03594395 -0.15529081
0.11652228 -0.11776088 -0.026129393 0.08994675 -0.06716174 0.034860283 -0.016399942 0.041328628
0.11800612 -0.09156448 -0.03361597 -0.05428212 -0.036910083 0.021187676 0.092843175 -0.07212556
00000000: 57c3 d53d 66a8 adbd b0fe 04bd b3f6 c7bd
00000010: 697b 35bc 61ec 383d 307a 48bc e93d cebd
00000020: 0e02 843d 352f 223d cdfb ec3c 9316 42bd
00000030: 0925 a8bd 7046 0bbd c403 cbbd 28a7 b9bd
00000040: 8016 bebc 00da 39bb 83f2 99bd 7b5d ed3d
00000050: 32c8 573d ef8c a63d 6d6b 32bb 97f6 e83d
00000060: fc14 87bd 496e 7abd baed 1cbd cab0 33be
00000070: 6c61 cf39 e15e 9f3c d2bf 163d 6a9c 4bbd
00000080: b00c 24bd 41b3 a1bd c0f1 87bb 74e3 cfbc
00000090: 1549 5f3d b924 f8bc 7986 c43c f77b a2bb
000000a0: d4b7 a8bd 1a84 443d 3b96 85bd 2399 4b3d
000000b0: 0be1 3a3d 7693 60bc cc7e 52be 0810 1bbe
000000c0: d325 dcbd 6607 7ebd 6026 62bd f0f7 cf3d
000000d0: 8462 a0bd 58a8 bc3c ae68 3dbd e2ee 43bd
000000e0: 587e ce3c 279a b13b dd90 c2bd 768f babd
000000f0: 40c6 88ba e07d c7bb 0653 753d 0cd0 c03c
00000100: f30d 8a3d f2fa 0bbd 68af 9fbd eb1a a53c
00000110: b8b7 c8bd d075 31bd a56a 8dbd 6c0d 29bd
00000120: b435 37bd 20a0 88bc 1c20 29bd b4a3 82bd
00000130: fef4 c73d 7ece 66bc 570e aa3d b682 4a3c
00000140: d20e 2cbd 5087 b0bc f121 84bd bb80 3a39
00000150: 99f6 46bd ad7c 9a3b ff50 dbbd 030b 513d
00000160: 4a95 84bd bb65 283d b446 a4bd cf9d 56bd
00000170: 0eda 4d3c d6f9 b73c 4d56 553d 4255 4abb
00000180: 9592 803d b884 d13d a056 4fbc b0c8 f5bc
00000190: d421 da3d 06c8 e6bd 8ade b6bd 75a5 e63c
000001a0: 1a38 f43d abad 54bd 7e02 50bd cace ba3d
000001b0: 5481 5dbd ea67 503c ef8c 8b3d 2276 61bb
000001c0: 67f1 a93d a502 bc3d 1a2c c03d d7c7 47bd
000001d0: 4368 e83c c419 843d 9432 84bd 8050 8abc
000001e0: fd88 163e dfeb 0dbe 8661 99bd e80c 6bbc
000001f0: 000b 4fbb 5754 78bd c1bb 2bbd a7f2 f03d
00000200: fa42 8fbc ab24 6f3d 1798 02bd 69f3 7a3d
00000210: f948 c33d bfb5 883d 5b89 e53d ea46 fa3d
00000220: 7476 a7bc 2d35 453d 6d10 f63d bb64 d6bd
00000230: 9592 1e3e 60d0 20be e08a d8bd dcc3 97bd
00000240: 2327 4d3d a27b 94bb 2abd b6bd db29 503d
00000250: 403b 62bc d21d a1bd e2a1 2ebd b094 b83d
00000260: 3f5a 033c b9fb 763d ca94 01bd 466c 9bbd
00000270: 5b7a 56be 5e2d f1bd 13ff a23d a35f 7cbd
00000280: 1f4b d73c b4ad 2fbd aa2c 6c3c 0157 a13d
00000290: 277f d6bd 4629 88bd a0f8 0bbd 6098 30bc
000002a0: 6219 24bd acf6 8abc e80c 8dbd 5d36 b93c
000002b0: 5aca 5ebd f4be ef3d acfc 1f3d 4a89 a53c
000002c0: 6043 2fbd a91e 50bd 3432 56be 51c3 73bd
000002d0: 4d88 70bd 8253 c53d d1fb c7bd daf8 95bd
000002e0: d1a7 af3d 2895 8e3d a4c8 84bd 206c 46bc
000002f0: 7174 8c3d 92fe 663d c040 49bd b1da 8f3c
00000300: c846 a2bd b957 ca3d 2027 7abd 6a7c 453d
00000310: 7d6b 52bd cd3e d23d 9de1 c73d 278a 833d
00000320: b073 303e 215a 4bbe 2c23 b03d 6382 8ebd
00000330: 2d7c 623d 96c3 823c e4a8 07bd 40ac b5ba
00000340: 2007 0f3e 80bf 0fbe 20d2 0d3e 0802 25be
00000350: 86f7 a9bc fcef ef3c 5046 27bd aedd cf3d
00000360: b546 1f3d 1376 b93c 3bcf a23d 66af 19bd
00000370: f0fb 3e3d 8953 3f3d d1e6 353d 4cfe 9b3d
00000380: 110b 11bd fbc8 f13d b8d7 c7bd 5db9 243d
00000390: ccae 78bd 22b7 2ebd 656b 45bd b943 b53d
000003a0: b7cf e13d c337 f5bc 29d3 7a3d 887e 793d
000003b0: 8622 83bd 8326 f73d f739 13bd 8e04 1fbe
000003c0: 3ca3 ee3d 9e2c f1bd 4f0d d6bc 0036 b83d
000003d0: 188c 89bd a8c9 0e3d 2c59 86bc 3548 293d
000003e0: 31ad f13d 2886 bbbd e6b0 09bd ee56 5ebd
000003f0: 072f 17bd c791 ad3c 9024 be3d 91b6 93bd

const_fold_opt__152 f4 [1, 256, 1]
-0.039148334 0.0 0.0013144457 0.0 -0.001140019 0.022667155 0.0 0.0
0.0 -0.00060522935 -0.0046138307 -0.0014795485 0.0 0.03622126 0.0070416057 0.019996107
0.0 0.0 -0.020496847 -0.0006420924 -0.0039756713 0.023549398 0.016899988 0.037831955
0.0 -0.0005681719 -2.2763377e-05 0.0 0.011861471 0.0 0.0 -0.0017273426
-0.027742196 -0.00011278898 0.0 0.0 0.0 0.0 -0.0005299989 -0.00086906546
0.0 -1.8121222e-05 -9.278588e-05 -0.00011368004 -0.0034881658 0.0 0.017141374 -0.0005434455
-0.0019547585 0.0 -0.03222928 -4.546487e-05 -0.0014153023 -0.030230485 -6.1009247e-05 0.012461568
0.013356964 -0.0006860999 -0.0008204072 0.0 -0.05004319 0.0 0.0 -0.0004960006
0.017123371 -0.0004648086 -0.0018196917 -0.005150906 0.016486285 -0.045186896 -0.048590444 0.0
0.00013716606 -0.004884393 0.0 -0.00026091 -0.0007276245 0.0 0.035229202 -0.032697126
0.02301924 -0.0014595225 0.0 0.0 0.0 -0.0047585806 -0.001816962 0.017946325
0.0 0.028528467 -0.0006115757 0.0 -0.0019123234 0.0 -0.00061452686 -0.00031306964
-0.00080497353 0.016898902 -0.025208969 -0.0017011008 -0.038149882 0.014232391 -0.00068493315 0.0
-0.044330027 -0.031518057 0.01820068 0.014268419 -0.0011334048 0.020223863 0.004816786 -0.0011743678
-0.00084099587 -0.00011202996 0.0 -0.0008444174 -0.0010711743 -0.0012790911 -0.0007110893 0.034384396
-0.037670758 0.017882805 -0.004957718 0.01677167 -0.0010373972 0.0 0.020236818 -0.035873655
0.0 -0.0014265204 -0.0013529083 0.0 -0.001453471 -0.012425245 0.016528811 -0.00010249199
-0.00062421133 0.0 0.0226308 -0.00063812645 -0.001108953 0.0 -0.046488516 0.022650132
-0.0017021388 0.014448619 -0.0005385127 0.019723479 -0.0061513702 0.0 -0.00012938252 -0.0019846738
-0.0012899273 -0.005814793 0.0 0.013929196 0.0012873141 0.0 -0.0014743187 0.021057041
0.017169617 0.020845706 0.0 0.0 0.036510408 0.0 -0.04585282 0.0
-0.010864694 0.0 0.00015155079 -0.0014867003 0.0 -0.019994184 -0.0069121723 0.0
0.021184923 0.0 0.0 0.0 0.0 0.04427249 -2.2488544e-05 -0.0011486745
0.012437062 -0.03176519 0.02062386 0.0 -0.001175216 -0.0011551033 0.013659189 0.021034151
0.0 -0.037896376 0.013043963 -0.0017159086 0.0 -0.0059418445 0.0 0.0
-0.007849708 -0.00090822944 -2.3867422e-05 -7.79693e-05 -0.004851799 -0.03601049 0.029058091 0.014417077
-0.030332362 0.0 0.0 0.0049503557 0.0103353495 -0.024424441 0.0 0.038023826
-0.04053485 -0.0015821666 0.0 -0.049407672 -0.02742608 -2.6885511e-05 -0.000393412 0.020928474
-0.02658019 -0.030289486 0.02819799 0.0 0.0 0.0 0.022822093 0.00027986077
0.02251255 0.0 -5.316559e-05 0.0 0.0 -0.0022918554 -0.0016109041 0.0
-0.00056985294 0.022070628 0.01874695 -0.004435711 -0.04838012 0.0 0.0 0.0
-0.016211726 -0.04591321 -0.0013821748 -0.002758859 0.0 -0.04084413 -0.0016857455 0.017402848
00000000: 015a 20bd 0000 0000 7b49 ac3a 0000 0000
00000010: b16c 95ba 78b0 b93c 0000 0000 0000 0000
00000020: 0000 0000 41a8 1eba 9e2f 97bb 69ed c1ba
00000030: 0000 0000 be5c 143d 45bd e63b e0ce a33c
00000040: 0000 0000 0000 0000 01e9 a7bc 1752 28ba
00000050: 5946 82bb abea c03c d871 8a3c aef5 1a3d
00000060: 0000 0000 5ff1 14ba fbf3 beb7 0000 0000
00000070: 9e56 423c 0000 0000 0000 0000 0068 e2ba
00000080: 9a43 e3bc 1f89 ecb8 0000 0000 0000 0000
00000090: 0000 0000 0000 0000 a0ef 0aba ffd1 63ba
000000a0: 0000 0000 0703 98b7 0a96 c2b8 8267 eeb8
000000b0: b699 64bb 0000 0000 116c 8c3c 0376 0eba
000000c0: 681b 00bb 0000 0000 d902 04bd 88b1 3eb8
000000d0: aa81 b9ba eca5 f7bc 2ee4 7fb8 9b2b 4c3c
000000e0: 2bd7 5a3c 63db 33ba 9810 57ba 0000 0000
000000f0: 17fa 4cbd 0000 0000 0000 0000 0906 02ba
00000100: 5046 8c3c 8eb1 f3b9 b982 eeba eec8 a8bb
00000110: 3f0e 873c e515 39bd c606 47bd 0000 0000
00000120: 3cd4 0f39 420d a0bb 0000 0000 bfca 88b9
00000130: 0ebe 3eba 0000 0000 7f4c 103d 6ced 05bd
00000140: d892 bc3c 734d bfba 0000 0000 0000 0000
00000150: 0000 0000 deed 9bbb 2127 eeba 2c04 933c
00000160: 0000 0000 88b4 e93c 2752 20ba 0000 0000
00000170: eda6 faba 0000 0000 3318 21ba 7f23 a4b9
00000180: dc04 53ba 916f 8a3c 0a83 cebc 79f7 deba
00000190: 0d43 1cbd f92e 693c 168d 33ba 0000 0000
000001a0: 6793 35bd 1419 01bd 9819 953c 16c6 693c
000001b0: c18e 94ba 84ac a53c 21d6 9d3b 3fed 99ba
000001c0: 4776 5cba a0f1 eab8 0000 0000 e45b 5dba
000001d0: a566 8cba 2da7 a7ba 6568 3aba a7d6 0c3d
000001e0: a74c 1abd f67e 923c 5a74 a2bb be64 893c
000001f0: 46f9 87ba 0000 0000 afc7 a53c 41f0 12bd
00000200: 0000 0000 15fa baba 1254 b1ba 0000 0000
00000210: 6582 beba 4193 4bbc 6e67 873c f8f0 d6b8
00000220: 1da2 23ba 0000 0000 3a64 b93c f147 27ba
00000230: 4a5a 91ba 0000 0000 be6a 3ebd c58c b93c
00000240: 4d1a dfba e7b9 6c3c fa2a 0dba 2293 a13c
00000250: 6f91 c9bb 0000 0000 dbaa 07b9 4d11 02bb
00000260: c712 a9ba 058a bebb 0000 0000 4837 643c
00000270: 18bb a83a 0000 0000 ed3d c1ba d17f ac3c
00000280: 4ca7 8c3c 9dc4 aa3c 0000 0000 0000 0000
00000290: f08b 153d 0000 0000 2bd0 3bbd 0000 0000
000002a0: d401 32bc 0000 0000 9be9 1e39 62dd c2ba
000002b0: 0000 0000 d8ca a3bc 817f e2bb 0000 0000
000002c0: 018c ad3c 0000 0000 0000 0000 0000 0000
000002d0: 0000 0000 1257 353d c8a5 bcb7 1f8f 96ba
000002e0: d2c4 4b3c 371c 02bd 5ff3 a83c 0000 0000
000002f0: b509 9aba d666 97ba cbca 5f3c d04f ac3c
00000300: 0000 0000 3b39 1bbd 59b6 553c 57e8 e0ba
00000310: 0000 0000 ceb3 c2bb 0000 0000 0000 0000
00000320: 109c 00bc 3f16 6eba e636 c8b7 7383 a3b8
00000330: d7fb 9ebb bc7f 13bd 3c0b ee3c 9b35 6c3c
00000340: 937b f8bc 0000 0000 0000 0000 9836 a23b
00000350: 9955 293c c415 c8bc 0000 0000 dfbe 1b3d
00000360: df07 26bd b460 cfba 0000 0000 b35f 4abd
00000370: a9ac e0bc 3288 e1b7 dd42 ceb9 3172 ab3c
00000380: b3be d9bc a821 f8bc 79ff e63c 0000 0000
00000390: 0000 0000 0000 0000 66f5 ba3c 47ba 9239
000003a0: 3d6c b83c 0000 0000 1efe 5eb8 0000 0000
000003b0: 0000 0000 f432 16bb f924 d3ba 0000 0000
000003c0: 2f62 15ba 76cd b43c 3493 993c 7159 91bb
000003d0: 3c2a 46bd 0000 0000 0000 0000 0000 0000
000003e0: 74ce 84bc 7d0f 3cbd 172a b5ba f9cd 34bb
000003f0: 0000 0000 2d4c 27bd 3cf4 dcba 6b90 8e3c

W0__62 f4 [1, 400, 100]
0.07024715 -0.049456872 -0.08503835 0.0074503967 0.060992792 -0.103999175 -0.08956327 0.06731905
0.047151312 0.034404036 0.06387348 -0.03251706 0.05126546 -0.059842303 -0.09317476 -0.04528933
-0.004169338 0.12777491 -0.026196267 -0.02858389 0.09466736 -0.055851966 0.11743474 0.10201091
-0.088322766 -0.001984568 -0.020042058 0.04787715 -0.17810173 -0.04379694 0.011591945 -0.08518779
-0.11742185 0.03694826 0.044935755 -0.12711899 0.0940139 -0.0053964755 -0.047879774 -0.043920178
-0.06102312 0.064962 0.031101549 -0.051719774 -0.13829641 0.00020451896 0.08598194 0.10438385
0.0031498484 0.101527825 -0.09695984 0.13518624 -0.02213501 -0.00047034211 -0.066347994 0.027621927
-0.05085794 0.014748704 -0.0478363 0.04483473 0.12967935 -0.0710151 -0.055903733 0.07114327
-0.124581926 -0.042071242 -0.07247474 -0.07138524 0.06364367 -0.14602394 0.082436204 -0.06779834
-0.036845192 0.03538519 0.019612119 0.019466098 -0.009980567 -0.0014053916 -0.0425265 -0.017683772
0.09531619 0.049035754 0.053066846 -0.0056396774 0.056884535 0.059372835 -0.07663136 0.075243324
-0.11519283 0.111291274 0.029435534 -0.15399557 0.054304298 -0.10678746 -0.04885823 0.13341239
0.08247419 0.061376516 0.073639505 0.11090275 0.10952651 -0.012398558 -0.032042187 -0.043945253
0.08413375 0.07966399 0.021441557 0.11282891 -0.085006684 -0.0030661842 0.03782582 0.02580769
-0.10901266 -0.11510971 0.008668854 -0.103352964 0.0014290963 -0.069772564 0.020762643 0.0012592392
0.07612493 0.06422722 0.02041848 0.024678385 0.12164031 0.053484093 0.10021334 0.080309145
-0.11533463 0.10918691 0.05591147 -0.11536911 0.02342761 -0.089230895 -0.083822355 -0.10471255
-0.046944004 -0.020578882 0.051123604 -0.031556174 0.068010986 0.07659871 0.037994467 0.108235836
-0.10485034 0.06834704 0.094569415 -0.019335931 -0.09868982 -0.02330467 0.015290879 -0.003242981
0.06561319 -0.0075882706 -0.026880957 -0.08738782 -0.05632259 0.058742985 -0.022323174 -0.06399579
-0.06627647 0.108021356 -0.054219764 -0.050777994 -0.031373776 0.13291192 0.0110658305 -0.017096162
0.0036662333 0.022250166 -0.0075639994 0.03472134 0.08498303 -0.1076392 -0.047153562 0.116078585
-0.049778346 -0.09268973 -0.08665807 -0.05826907 -0.07269431 0.019101644 0.021160185 0.0019409203
-0.01628924 -0.119521424 0.08622902 0.012485538 -0.12784794 -0.060207997 0.06605672 -0.034168728
-0.0030031407 0.05657928 -0.07898669 0.102522135 -0.0638134 -0.018388813 0.1297412 -0.07065499
0.01604652 -0.018812967 -0.0362932 -0.16830637 0.0060308403 -0.005739642 -0.04217435 0.062751316
-0.01592724 0.20894094 0.11830006 -0.10892482 -0.050708503 0.07112896 0.07073526 -0.06759419
0.15905525 -0.021960119 -0.13009028 -0.07799205 0.08155564 -0.20155792 0.11292316 -0.06311971
-0.07467971 -0.12629183 -0.06254044 0.14473657 -0.08284857 -0.03709031 0.11813575 -0.17754602
-0.13097717 0.015137019 0.15728298 -0.08330178 -0.09444986 -0.030659018 0.054202918 0.107186176
-0.017346274 0.040495127 -0.050996564 -0.022414679 -0.093010634 -0.10394548 0.102931604 -0.090749644
0.0895578 -0.004219746 -0.035268392 0.04100881 0.068202265 -0.031901512 -0.037460696 -0.0338695
00000000: bddd 8f3d 4a93 4abd 9628 aebd 7522 f43b
00000010: 94d3 793d 85fd d4bd f36c b7bd 92de 893d
00000020: bc21 413d 3feb 0c3d 19d0 823d 9c30 05bd
00000030: bbfb 513d 341d 75bd 69d2 bebd 4e81 39bd
00000040: f19e 88bb 6dd7 023e 8e99 d6bc c328 eabc
00000050: f6e0 c13d 08c5 64bd a081 f03d 19eb d03d
00000060: 91e2 b4bd 870f 02bb 3e2f a4bc d51a 443d
00000070: 4d60 36be 6c64 33bd 24ec 3d3c f076 aebd
00000080: de7a f0bd 0f57 173d 8e0e 383d 7b2b 02be
00000090: 5c8a c03d ebd4 b0bb 951d 44bd a5e5 33bd
000000a0: 61f3 79bd cc0a 853d adc8 fe3c 1dd8 53bd
000000b0: 939d 0dbe 2474 5639 4d17 b03d 33c7 d53d
000000c0: b06d 4e3b d2ed cf3d e192 c6bd 436e 0a3e
000000d0: 7b54 b5bc 4098 f6b9 75e1 87bd 6147 e23c
000000e0: 6a50 50bd 8ca4 713c ffef 43bd 9fa4 373d
000000f0: aaca 043e 5d70 91bd 50fb 64bd 90b3 913d
00000100: cf24 ffbd e552 2cbd a36d 94bd 6d32 92bd
00000110: 9d57 823d 4d87 15be 50d4 a83d dbd9 8abd
00000120: fcea 16bd 10f0 103d 98a9 a03c 5e77 9f3c
00000130: 8885 23bc 1e35 b8ba 4430 2ebd 8fdd 90bc
00000140: 2235 c33d b7d9 483d 9f5c 593d 0bcd b8bb
00000150: c2ff 683d ee30 733d e7f0 9cbd 2c19 9a3d
00000160: 38ea ebbd aeec e33d ca22 f13c 04b1 1dbe
00000170: 2f6e 5e3d 62b3 dabd 911f 48bd 429d 083e
00000180: 3ae8 a83d f165 7b3d 4fd0 963d fb20 e33d
00000190: 6f4f e03d 5223 4bbc ab3e 03bd f0ff 33bd
000001a0: 514e ac3d e026 a33d 34a6 af3c d812 e73d
000001b0: fc17 aebd 09f2 48bb 3fef 1a3d a66a d33c
000001c0: 0842 dfbd a4be ebbd cf07 0e3c b8aa d3bd
000001d0: 8450 bb3a ebe4 8ebd 6b16 aa3c 0e0d a53a
000001e0: 63e7 9b3d 9089 833d a844 a73c 532a ca3c
000001f0: 8e1e f93d 2312 5b3d a73c cd3d 1f79 a43d
00000200: 9034 ecbd 639d df3d 6d03 653d a446 ecbd
00000210: 42eb bf3c b0be b6bd 0eab abbd 8973 d6bd
00000220: 5b48 40bd 0b95 a8bc fc66 513d 0c41 01bd
00000230: 5849 8b3d c9df 9c3d 16a0 1b3d c0aa dd3d
00000240: c6bb d6bd 88f9 8b3d 9cad c13d 6366 9ebc
00000250: e31d cabd 6fe9 bebc 9886 7a3c 3188 54bb
00000260: 3560 863d 07a7 f8bb 7435 dcbc 63f8 b2bd
00000270: 84b2 66bd 7c9c 703d 17df b6bc 3a10 83bd
00000280: f5bb 87bd 4d3a dd3d 8b15 5ebd 96fc 4fbd
00000290: ca81 00bd 101a 083e 754d 353c 400d 8cbc
000002a0: 3045 703b fb45 b63c 6ddb f7bb f737 0e3d
000002b0: 950b ae3d f171 dcbd 1824 41bd 9cba ed3d
000002c0: 61e4 4bbd 1dd4 bdbd c979 b1bd 8cab 6ebd
000002d0: c1e0 94bd 0d7b 9c3c 2058 ad3c 7a66 fe3a
000002e0: 0371 85bc a6c7 f4bd d798 b03d 2490 4c3c
000002f0: 92ea 02be a99c 76bd bf48 873d 82f4 0bbd
00000300: 57d0 44bb adbf 673d c6c3 a1bd 20f7 d13d
00000310: 9ab0 82bd 23a4 96bc e1da 043e 90b3 90bd
00000320: fe73 833c a71d 9abc 2ea8 14bd 8158 2cbe
00000330: 5b9e c53b 9b13 bcbb 03bf 2cbd c383 803d
00000340: d879 82bc 9df4 553e 4d47 f23d fa13 dfbd
00000350: b8b3 4fbd 0fac 913d a6dd 903d d36e 8abd
00000360: 61df 223e b5e5 b3bc 6336 05be 4cba 9fbd
00000370: a506 a73d 3365 4ebe 4244 e73d e844 81bd
00000380: adf1 98bd a552 01be 3415 80bd d335 143e
00000390: 83ac a9bd 02ec 17bd 28f1 f13d a0ce 35be
000003a0: e11e 06be 4201 783c ca0e 213e 209a aabd
000003b0: ee6e c1bd 9f28 fbbc e103 5e3d 6d84 db3d
000003c0: c619 8ebc 38de 253d c6e1 50bd fd9e b7bc
000003d0: 5c7c bebd 5ee1 d4bd cecd d23d f3da b9bd
000003e0: 146a b73d cc45 8abb 9775 10bd dbf8 273d
000003f0: a1ad 8b3d 29ab 02bd 6370 19bd bfba 0abd

W0__41 f4 [1, 400, 256]
0.10138285 -0.08078547 -0.011126419 0.039291017 0.10675861 0.032485552 -0.05285258 -0.06515026
0.0655834 0.06565045 -0.008256743 0.026276654 -0.08294564 -0.1510618 -0.07787283 -0.005121482
-0.042298462 -0.01072634 -0.07044713 0.080324024 0.03017179 -0.032158345 0.10799163 -0.047680054
0.043780424 0.116123594 0.003342837 -0.09024199 0.02502158 -0.062494133 0.022182137 0.11175397
0.0183461 -0.05752133 -0.06039587 -0.0906977 0.07254792 0.073598675 0.0883647 0.09995594
-0.024482608 0.08730527 0.0012019798 -0.087555125 -0.048010424 -0.011449464 -0.0037286214 0.078960456
-0.057059333 0.085178666 -0.014946468 -0.005467303 0.08754745 0.0900684 0.08719341 -0.057784226
0.00300192 0.12581386 -0.03038443 0.058734573 0.06289343 0.013192825 0.010656863 0.09059408
-0.013607725 0.052063316 -0.027114658 0.011583337 0.08549918 0.17181458 0.08461656 -0.027947962
0.06916597 -0.05522038 -0.021662861 0.037301198 0.06871066 -0.07856029 0.020684035 0.039354637
0.018899256 0.08617264 0.07149438 -0.043957934 -0.08327672 -0.029214136 0.020194227 0.07068217
0.0071905255 -0.087749735 -0.06690751 -0.044554878 0.02724612 -0.01191628 0.09326333 0.08864886
-0.025289597 0.0024604003 -0.014115839 0.10833719 0.047891013 0.034312293 0.027163038 -0.016695134
0.02518323 0.027569884 -0.00856619 -0.07171226 0.0113120545 0.014363959 -0.033287797 0.019120358
0.036985163 0.031756587 -0.06250063 0.07491564 0.0655076 -0.043579582 0.07953456 0.005720774
0.04136995 -0.074166216 -0.00018806981 -0.006463628 0.00036449148 0.073905 0.06848662 0.15169096
0.032475404 0.04691548 -0.032089308 0.026265986 0.062146634 -0.09092892 -0.024686106 -0.06838865
-0.073810086 -0.037669662 0.0945192 0.043002486 0.0053026336 -0.02540949 0.0076190177 0.04779302
0.054689243 -0.031945065 -0.06135048 -0.06261152 0.055159763 -0.08623895 -0.04752227 -0.020156523
0.097411655 -0.09239356 -0.04200804 0.09304145 -0.0621983 -0.08237063 0.06861651 0.025964357
0.031123789 -0.078053534 -0.03367406 0.042613603 0.00063324027 -0.06995906 0.067594714 0.08657042
0.014084195 -0.0015648231 0.0015002852 0.038620457 -0.04421575 -0.07523694 0.10181029 0.0074754134
0.09361373 -0.073139936 0.09533309 0.04330305 -0.09056267 -0.10003717 0.015133619 0.05274494
0.07059263 0.10092499 -0.06744518 0.05737815 -0.0035381524 -0.037879474 0.095360145 0.008722364
0.017004162 -0.003411121 -0.074765615 -0.008946667 -0.00093271583 0.079810105 0.0419595 -0.09531394
-0.0024878138 0.10304528 0.078540884 0.07596692 -0.07913956 0.019680433 -0.032888778 -0.022107586
-0.062410764 -0.025197916 -0.049863756 -0.01900062 0.043715954 0.019431481 -0.084442675 -0.06392777
0.045560304 -0.071028516 -0.063267976 0.017039254 0.054273903 -0.07340503 0.03686322 -0.041894197
-0.03083867 0.095678516 0.0082128085 0.079871856 0.05774314 0.06885596 -0.0021773868 0.08748337
-0.030616937 -0.013030998 0.08706733 -0.016345426 -0.050307907 0.086121395 -0.016419394 -0.08125689
0.10727034 0.073479265 -0.025927933 -0.059567932 0.15986149 -0.019251257 -0.02745837 0.074594654
0.041127183 0.0054017664 0.06487082 -0.055772915 0.06250533 0.063469715 0.0014119751 0.060682647
00000000: d0a1 cf3d da72 a5bd 954b 36bc 9eef 203d
00000010: 42a4 da3d 920f 053d f27b 58bd 806d 85bd
00000020: 9750 863d be73 863d 4a47 07bc 2342 d73c
00000030: 67df a9bd f2af 1abe ca7b 9fbd 1bd2 a7bb
00000040: 2741 2dbd 88bd 2fbc 9646 90bd ec80 a43d
00000050: d42a f73c 78b8 03bd b72a dd3d 294c 43bd
00000060: 1a53 333d 35d2 ed3d 8013 5b3b cbd0 b8bd
00000070: 0efa cc3c d9f9 7fbd 50b7 b53c 44df e43d
00000080: 8f4a 963c 7c9b 6bbd a961 77bd b7bf b9bd
00000090: 0194 943d e7ba 963d 8df8 b43d b3b5 cc3d
000000a0: c08f c8bc 1bcd b23d c08b 9d3a 1a50 b3bd
000000b0: 94a6 44bd 8896 3bbc e35b 74bb 05b6 a13d
000000c0: 0cb7 69bd 2772 ae3d 08e2 74bc 1027 b3bb
000000d0: 144c b33d c875 b83d 7592 b23d 27af 6cbd
000000e0: dcbb 443b 59d5 003e c5e8 f8bc aa93 703d
000000f0: 45ce 803d b826 583c 209a 2e3c 6489 b93d
00000100: eff2 5ebc 5840 553d 8f1f debc 09c8 3d3c
00000110: 321a af3d 29f0 2f3e 724b ad3d 20f3 e4bc
00000120: e3a6 8d3d c42e 62bd 5076 b1bc 24c9 183d
00000130: 2db8 8c3d 38e4 a0bd 9171 a93c 5432 213d
00000140: 9dd2 9a3c 487b b03d a56b 923d 3c0d 34bd
00000150: fc8c aabd 7c52 efbc 5d6e a53c d0c1 903d
00000160: 809e eb3b 22b6 b3bd ce06 89bd 2d7f 36bd
00000170: 4133 df3c 803c 43bc d800 bf3d 898d b53d
00000180: 212c cfbc ab3e 213b 1f46 67bc e3df dd3d
00000190: 5e29 443d 0c8b 0c3d 0585 de3c 3cc4 88bc
000001a0: 104d ce3c 3dda e13c 3459 0cbc e1dd 92bd
000001b0: 3256 393c d056 6b3c c958 08bd 4ca2 9c3c
000001c0: c17d 173d 3213 023d 5500 80bd 5f6d 993d
000001d0: d928 863d 8180 32bd 04e3 a23d 5575 bb3b
000001e0: 8973 293d 75e4 97bd 9b34 45b9 d7cc d3bb
000001f0: 3819 bf39 815b 973d b742 8c3d e054 1b3e
00000200: ee04 053d 722a 403d 1470 03bd c42b d73c
00000210: 788d 7e3d f138 babd 843a cabc 590f 8cbd
00000220: be29 97bd 814b 1abd 4893 c13d 6023 303d
00000230: b7c1 ad3b 9027 d0bc f4a8 f93b 9dc2 433d
00000240: d401 603d d4d8 02bd a44a 7bbd 783a 80bd
00000250: 34ef 613d 0c9e b0bd b6a6 42bd 4b1f a5bc
00000260: c37f c73d d638 bdbd 9f10 2cbd 848c be3d
00000270: a5c3 7ebd efb1 a8bd d086 8c3d 34b3 d43c
00000280: 51f7 fe3c 88da 9fbd d0ed 09bd 9a8b 2e3d
00000290: 0900 263a b246 8fbd 196f 8a3d d54b b13d
000002a0: 65c1 663c c01a cdba 38a5 c43a 7c30 1e3d
000002b0: 931b 35bd d315 9abd ea81 d03d 50f4 f43b
000002c0: 8eb8 bf3d 64ca 95bd ff3d c33d 8a5e 313d
000002d0: ec78 b9bd 4ae0 ccbd 00f3 773c 140b 583d
000002e0: de92 903d c3b1 ce3d b320 8abd 5a05 6b3d
000002f0: 59e0 67bb 8227 1bbd 2e4c c33d 3fe8 0e3c
00000300: 504c 8b3c 1d8d 5fbb b71e 99bd 0b95 12bc
00000310: 8081 74ba 7b73 a33d badd 2b3d f433 c3bd
00000320: 970a 23bb 6709 d33d 0bda a03d 8b94 9b3d
00000330: ec13 a2bd dc38 a13c 62b6 06bd f81a b5bc
00000340: 6ea2 7fbd dc6b cebc f03d 4cbd 30a7 9bbc
00000350: 800f 333d c52e 9f3c 48f0 acbd 90ec 82bd
00000360: 719d 3a3d 6677 91bd a492 81bd e895 8b3c
00000370: 504e 5e3d 6055 96bd e3fd 163d 4099 2bbd
00000380: 61a1 fcbc 19f3 c33d 048f 063c db93 a33d
00000390: 1284 6c3d 5b04 8d3d 7db2 0ebb 7b2a b33d
000003a0: 5fd0 fabc f87f 55bc 5b50 b23d d8e6 85bc
000003b0: aa0f 4ebd 6a60 b03d f781 86bc 036a a6bd
000003c0: 8db0 db3d 4c7c 963d d166 d4bc 81fd 73bd
000003d0: bbb2 233e d0b4 9dbc 60f0 e0bc 15c5 983d
000003e0: fa74 283d 4d01 b13b feda 843d 2472 64bd
000003f0: cb02 803d 69fc 813d 0612 b93a 5e8e 783d

R0__63 f4 [1, 400, 100]
-0.034964725 -0.04553127 -0.03477413 -0.04761492 0.021781031 0.051563714 0.021809844 0.0024472522
0.12811765 -0.04121164 0.012626072 0.030292328 0.00962833 -0.016763825 0.027394842 0.028133867
-0.06407084 0.058272023 0.050468057 -0.06641508 -0.008451726 0.02858876 0.029547168 0.047492534
0.0630404 0.08396259 -0.0068603395 -0.020925362 0.011070668 -0.058063958 -0.064147376 -0.016182661
0.07440893 0.0008379773 0.0883864 -0.089778654 -0.05862942 -0.024498487 -0.10663092 0.088388465
-0.07217724 0.015031193 -0.014863695 -0.063140765 -0.0021222623 0.06175433 -0.0065684468 0.08163623
0.1284201 -0.084491394 0.0015615877 -0.040290162 -0.03561536 -0.0040810294 0.034495216 -0.034003243
0.040508322 -0.00086524547 0.06310648 0.047812127 -0.1027503 -0.029458828 0.05920764 0.02115437
0.0014820157 0.008965645 -0.04645877 0.072126396 -0.027800817 0.098260656 -0.0395786 0.012224782
-0.022470156 0.030041225 -0.015419477 0.021539768 0.060290888 0.024826339 -0.0059787915 0.08835641
0.014494623 0.13688119 -0.025021523 0.039668832 0.0026605623 -0.025730604 0.065572955 -0.03495593
0.081041925 -0.05309404 -0.0010588933 0.108233765 -0.015315727 -0.07100638 -0.032200184 -0.009194574
-0.032064468 0.03335062 0.00657413 -0.006714176 -0.016069623 0.05877531 0.017735023 -0.029568939
-0.06841707 -0.05650056 0.03649179 -0.02552016 0.0050117644 0.035213627 0.010475282 -0.050622698
0.0437153 -0.022455864 -0.08627394 -0.104418464 -0.015367062 -0.016180879 0.029986305 -0.07389904
0.099580385 -0.001819996 -0.04395432 0.037379757 0.047463052 0.017228352 -0.024344483 0.02442189
0.073397584 0.029447783 -0.011134101 -0.008388467 0.031156203 -0.005029899 -0.04547287 0.0022741847
0.018497001 0.108841255 -0.0007935646 0.014449064 0.012058641 -0.035497054 -0.061457217 0.02061038
-0.03417252 0.07810748 0.089753404 0.071261875 -0.0014037546 0.063385025 0.016095981 -0.035308834
0.05269841 -0.07191551 -3.4368062e-05 0.04001563 0.099433504 -0.030963855 0.10367811 0.011960727
0.013189803 -0.06451554 0.014199096 0.0074229757 0.03923388 0.05274638 -0.03449626 0.12482382
0.025610594 0.005176797 0.05127292 -0.044803157 -0.025375262 -0.009292007 -0.013040245 -0.028547304
0.01068117 -0.033339087 -0.08871213 -0.118024446 0.03508211 0.042556092 0.0032110463 0.021920806
-0.13353811 -0.05402441 0.0122124525 -0.010889539 0.031111324 -0.024019385 -0.007959707 0.025690537
0.03988012 -0.0834034 -0.047328107 0.02529531 0.003340275 -0.03819724 0.03232426 0.05038975
-0.07713019 0.044434562 0.0030166889 -0.066605054 -0.05427174 0.014938077 -0.06777318 0.056240436
-0.058215976 0.004483459 0.026224216 0.06512958 0.010548186 0.026430221 -0.05762023 -0.040848773
-0.08298158 0.040260226 0.016616974 -0.013836654 0.09037125 0.043746915 -0.0124811195 -0.0028140289
0.04994141 -0.059894603 0.12512212 -0.054016892 -0.08955398 0.04048112 -0.028369842 0.034866367
-0.047927924 0.10103022 -0.023960406 0.1151489 0.0028663957 0.006506316 -0.0060060006 0.06716358
0.077144615 0.033882514 0.0077212444 -0.05644044 0.028943518 -0.0062507587 0.041081794 0.046269424
0.07488703 -0.06015315 0.010363425 0.056675427 0.06556829 -0.06523349 0.06506134 0.020859547
00000000: 2c37 0fbd ff7e 3abd 516f 0ebd dd07 43bd
00000010: 226e b23c 7934 533d 8faa b23c 1462 203b
00000020: 4631 033e 89cd 28bd 96dd 4e3c 9e27 f83c
00000030: 25c0 1d3c 4a54 89bc 266b e03c ff78 e63c
00000040: 9337 83bd a5ae 6e3d 98b7 4e3d a104 88bd
00000050: 1c79 0abc fa32 ea3c e70c f23c 8887 423d
00000060: 531b 813d 94f4 ab3d b3cc e0bb aa6b abbc
00000070: bf61 353c 79d4 6dbd b35f 83bd 8091 84bc
00000080: b663 983d b4ab 5b3a ee03 b53d dfdd b7bd
00000090: 6725 70bd 0db1 c8bc 5061 dabd 0305 b53d
000000a0: a9d1 93bd 6545 763c db86 73bc f24f 81bd
000000b0: a715 0bbb 1cf2 7c3d 203c d7bb e530 a73d
000000c0: 8f80 033e d309 adbd 30ae cc3a 4c07 25bd
000000d0: 69e1 11bd 28ba 85bb db4a 0d3d fc46 0bbd
000000e0: 0eec 253d a4d1 62ba f83d 813d a6d6 433d
000000f0: c06e d2bd a453 f1bc b683 723d ee4b ad3c
00000100: 3240 c23a a4e4 123c 8d4b 3ebd 01b7 933d
00000110: 8abe e3bc e23c c93d 2c1d 22bd 744a 483c
00000120: 5513 b8bc 0419 f63c f9a1 7cbc 2b74 b03c
00000130: 94f3 763d 9b60 cb3c bde9 c3bb 35f4 b43d
00000140: db7a 6d3c 952a 0c3e f0f9 ccbc c97b 223d
00000150: d45c 2e3b fdc8 d2bc 1d4b 863d f32d 0fbd
00000160: 4ff9 a53d 2379 59bd 90ca 8aba aaa9 dd3d
00000170: d1ee 7abc cb6b 91bd 57e4 03bd d7a4 16bc
00000180: 0856 03bd a99a 083d cd6b d73b 9702 dcbb
00000190: 71a4 83bc 61be 703d 0a49 913c 8f3a f2bc
000001a0: 401e 8cbd 226d 67bd 6a78 153d a80f d1bc
000001b0: ba39 a43b 2a3c 103d 84a0 2b3c bf59 4fbd
000001c0: d00e 333d 5cf5 b7bc 64b0 b0bd 59d9 d5bd
000001d0: 21c6 7bbc c38d 84bc d7a5 f53c 6158 97bd
000001e0: cdf0 cb3d ef8c eeba 7209 34bd 841b 193d
000001f0: 9e68 423d 7922 8d3c 156e c7bc 6a10 c83c
00000200: 7951 963d 7a3c f13c ce6b 36bc c86f 09bc
00000210: 4b3b ff3c dad1 a4bb c341 3abd 7d0a 153b
00000220: 0687 973c 2ae8 de3d 3807 50ba c4bb 6c3c
00000230: 9b91 453c 5c65 11bd 90ba 7bbd 1ad7 a83c
00000240: 7cf8 0bbd d1f6 9f3d a2d0 b73d bff1 913d
00000250: 30fe b7ba 02d0 813d b8db 833c ff9f 10bd
00000260: 4ada 573d 7048 93bd 6d26 10b8 6ee7 233d
00000270: cba3 cb3d e9a7 fdbc 3055 d43d edf6 433c
00000280: 0b1a 583c b920 84bd 53a3 683c 6f3c f33b
00000290: b4b3 203d 970c 583d f34b 0dbd a2a3 ff3d
000002a0: 4fcd d13c 1fa2 a93b 8e03 523d 8483 37bd
000002b0: c8df cfbc 813d 18bc c0a6 55bc 09dc e9bc
000002c0: 1300 2f3c 918e 08bd b5ae b5bd cdb6 f1bd
000002d0: 42b2 0f3d 4c4f 2e3d 6b70 523b 4393 b33c
000002e0: 37be 08be b348 5dbd bd16 483c 096a 32bc
000002f0: 2ddd fe3c 4dc4 c4bc 6e69 02bc f674 d23c
00000300: 5659 233d 67cf aabd 1edb 41bd 1c38 cf3c
00000310: 84e8 5a3b b674 1cbd 7166 043d 7c65 4e3d
00000320: 6ff6 9dbd 0401 363d a4b3 453b 3b68 88bd
00000330: 0b4c 5ebd d6be 743c aacc 8abd 5f5c 663d
00000340: e073 6ebd fbe9 923b 2bd4 d63c a862 853d
00000350: 4cd2 2c3c 3184 d83c 3103 6cbd 0b51 27bd
00000360: 3ff2 a9bd e8e7 243d 5220 883c 22b3 62bc
00000370: 9014 b93d f72f 333d 9c7d 4cbc 926b 38bb
00000380: 5d8f 4c3d 0b54 75bd 0320 003e d140 5dbd
00000390: 1468 b7bd 88cf 253d df67 e8bc 09d0 0e3d
000003a0: 1250 44bd efe8 ce3d 9d48 c4bc 30d3 eb3d
000003b0: 24da 3b3b ef32 d53b fccd c4bb 0f8d 893d
000003c0: fffd 9d3d 64c8 0a3d 7e02 fd3b 172e 67bd
000003d0: f51a ed3c 2ad3 ccbb 6245 283d 0285 3d3d
000003e0: 5f5e 993d 2663 76bd 5bcb 293c 7e24 683d
000003f0: ab48 863d 2399 85bd e13e 853d a4e1 aa3c

R0__42 f4 [1, 400, 100]
0.06409988 0.12019601 0.060684983 -0.008596725 -0.082607985 -0.003850112 0.0005932497 0.034298446
0.10558302 0.072725736 0.053056885 -0.018346049 -0.047706615 -0.06322258 0.028940454 0.09936722
-0.017630542 0.009844489 -0.029306013 0.0025439675 0.038037494 -0.050576184 0.016941039 0.05787118
-0.09473515 -0.016303571 -0.032013204 -0.039229784 -0.026453504 0.048416983 0.07435544 -0.02140472
0.02129704 -0.055757333 0.027444497 -0.11838721 0.020886434 0.033536408 0.0046220655 -0.031588696
-0.0961401 0.0645487 0.068307415 -0.07926848 -0.023320757 -0.07612721 0.019862441 0.034503184
-0.07199508 0.0070311036 -0.03651591 0.045309145 -0.08316547 -0.06866806 0.039097257 -0.06007136
-0.0037832973 0.04093253 -0.049971186 -0.0011678215 0.06621502 0.043522216 -0.020131646 0.012065073
-0.021530485 -0.019870196 -0.17459296 0.0059101526 0.022759994 0.034557626 0.04610609 -0.15935224
0.00087984867 0.0018500115 0.07706392 -0.07503791 -0.0052985614 0.07973941 0.06626276 0.062507525
-0.056255125 -0.00030371523 -0.050261613 -0.02083222 -0.049560748 -0.04993184 -0.030550087 0.007988886
-0.029417744 0.024200123 0.03649183 -0.051298548 -0.08677983 -0.008905802 -0.06169442 -0.10217914
-0.073874235 0.091779165 0.011774133 0.031174606 -0.13688838 -0.09079879 -0.115259334 0.053748004
-0.014199479 0.002473753 -0.007928449 -0.010051691 0.009271259 -0.07984899 0.0025100883 0.009118068
-0.008351836 0.07216459 0.009267149 -0.057679694 -0.0012981835 0.027339295 -0.003493017 0.010609539
0.071805336 0.041865718 0.084245905 -0.053292494 0.053523127 -0.0012076142 0.05554188 -0.06234118
-0.0028534299 0.026501084 0.028225772 -0.016608233 0.045628577 0.024276063 0.025756007 -0.04533703
0.00648268 -0.023990648 0.06255054 -0.019993452 0.13638602 -0.059194017 -0.011197298 0.043176405
-0.059091974 0.047984138 0.0452076 0.0563636 -0.019642798 -0.007842996 -0.10951455 -0.094434984
-0.03207395 0.055612378 -0.013539922 0.049711496 0.027440248 -0.017000133 -0.040212765 0.0730892
0.06314134 0.017109584 0.049501635 0.0443247 0.06843848 0.03251544 -0.034467287 -0.053399023
0.041659165 0.03160284 -0.045192044 -0.007851001 0.003939647 -0.014021054 -0.070633195 0.0059606372
-0.004671049 -0.049131554 0.035122022 -0.07910318 -0.06578205 -0.05828907 0.0524878 -0.04333121
0.09316157 -0.07287348 -0.039688163 0.072698936 -0.007491005 -0.057716593 -0.03884946 0.020234354
-0.0105715655 0.04652602 -0.012286219 -0.0061891126 0.0101795895 -0.07090299 0.02692336 -0.015871009
-0.01951838 0.12352473 -0.010676104 0.046087485 -0.03265385 0.07239527 -0.0013772945 0.00352133
0.042351574 -0.0038493923 0.051186107 -0.046715744 -0.01749515 0.026815841 -0.014893924 0.10149418
-0.07714291 -0.11035443 -0.020102106 0.05582065 -0.05830248 -0.028641459 -0.10949402 -0.027928995
-0.03963579 0.11415719 0.07317074 0.01046036 0.04242041 0.027927697 -0.104403675 -0.010726268
-0.04446736 0.018192278 -0.035309333 0.022585725 0.025038084 -0.027278386 0.020641236 0.010069085
0.11516944 -0.010863104 0.04597569 0.06983232 0.06561146 -0.072316974 0.036386643 -0.011986945
-0.028477414 -0.08641115 -0.018386403 0.028191388 0.07747876 -0.009360768 0.11323799 -0.050593853
00000000: cc46 833d 5329 f63d d190 783d 47d9 0cbc
00000010: 602e a9bd 2952 7cbb 5084 1b3a 877c 0c3d
00000020: e93b d83d 3bf1 943d 2d52 593d 744a 96bc
00000030: 0368 43bd d77a 81bd 8814 ed3c 0b81 cb3d
00000040: ed6d 90bc c84a 213c 2a13 f0bc b1b8 263b
00000050: 34cd 1b3d f928 4fbd efc7 8a3c 550a 6d3d
00000060: 8104 c2bd 118f 85bc 4720 03bd 69af 20bd
00000070: 05b5 d8bc e350 463d aa47 983d f458 afbc
00000080: 2177 ae3c cd61 64bd 48d3 e03c fe74 f2bd
00000090: 071a ab3c 795d 093d b274 973b 2663 01bd
000000a0: 1ae5 c4bd 1c32 843d c2e4 8b3d 8357 a2bd
000000b0: 2c0b bfbc 95e8 9bbd 8fb6 a23c 3653 0d3d
000000c0: 2872 93bd 2c65 e63b b591 15bd 1596 393d
000000d0: a852 aabd d7a1 8cbd 7224 203d 630d 76bd
000000e0: 32f1 77bb dea8 273d 96ae 4cbd 9611 99ba
000000f0: be9b 873d 5a44 323d 1feb a4bc 95ac 453c
00000100: b360 b0bc d2c6 a2bc 7fc8 32be f4a9 c13b
00000110: 2b73 ba3c 4c8c 0d3d bdd9 3c3d 3c2d 23be
00000120: a5a5 663a 167c f23a b0d3 9d3d 7aad 99bd
00000130: 8e9f adbb 6a4e a33d c5b4 873d f203 803d
00000140: c66b 66bd f83b 9fb9 1fdf 4dbd 55a8 aabc
00000150: 3600 4bbd 5485 4cbd 2d44 fabc d1e3 023c
00000160: 7bfd f0bc 563f c63c 7578 153d 6d1e 52bd
00000170: a0b9 b1bd a4e9 11bc 4ab3 7cbd 4c43 d1bd
00000180: 604b 97bd b7f6 bb3d 4be8 403c e361 ff3c
00000190: 782c 0cbe b7f4 b9bd 160d ecbd de26 5c3d
000001a0: eea4 68bc b01e 223b 53e6 01bc d9af 24bc
000001b0: 7be6 173c de87 a3bd 4b80 243b f363 153c
000001c0: 24d6 08bc 07cb 933d 3dd5 173c 8b41 6cbd
000001d0: cf27 aaba a8f6 df3c 1aeb 64bb a2d3 2d3c
000001e0: ad0e 933d 637b 2b3d 1e89 ac3d 3b49 5abd
000001f0: 113b 5b3d cf48 9eba e27f 633d 7759 7fbd
00000200: 9c00 3bbb cd18 d93c bc39 e73c fd0d 88bc
00000210: 08e5 3a3d 98de c63c 43fe d23c 52b3 39bd
00000220: a96c d43b 0988 c4bc 7f1a 803d 4fc9 a3bc
00000230: c7a8 0b3e 6d75 72bd df74 37bc bed9 303d
00000240: 6d0a 72bd 048b 443d 9b2b 393d 85dd 663d
00000250: efe9 a0bc e97f 00bc 2a49 e0bd 2167 c1bd
00000260: f95f 03bd cec9 633d 8dd6 5dbc 489e 4b3d
00000270: 5fca e03c dd43 8bbc 24b6 24bd caaf 953d
00000280: 3f50 813d 6629 8c3c 3ac2 4a3d d18d 353d
00000290: 7929 8c3d e92e 053d 922d 0dbd efb8 5abd
000002a0: cda2 2a3d fb71 013d 4b1b 39bd 7ca1 00bc
000002b0: 2818 813b 90b8 65bc 23a8 90bd 7351 c33b
000002c0: 990f 99bb 2b3e 49bd 1cdc 0f3d d900 a2bd
000002d0: bdb8 86bd 85c0 6ebd 73fd 563d 117c 31bd
000002e0: 7ecb be3d b13e 95bd 0e90 22bd 2ee3 943d
000002f0: 1b77 f5bb 3c68 6cbd 9d20 1fbd 84c2 a53c
00000300: 5c34 2dbc 1192 3e3d 234c 49bc 0ace cabb
00000310: 4bc8 263c 9635 91bd 618e dc3c eb03 82bc
00000320: 02e5 9fbc 89fa fc3d d3ea 2ebc 3bc6 3c3d
00000330: 0bc0 05bd f943 943d 5686 b4ba 1dc6 663b
00000340: d878 2d3d 1646 7cbb 86a8 513d 0259 3fbd
00000350: fd51 8fbc e5ac db3c a505 74bc 2edc cf3d
00000360: 1afd 9dbd 8101 e2bd 2cad a4bc 32a4 643d
00000370: 95ce 6ebd 7ea1 eabc 673e e0bd 59cb e4bc
00000380: 2359 22bd 3fcb e93d 8ada 953d ee61 2b3c
00000390: 06c1 2d3d a0c8 e43c 98d1 d5bd 3bbd 2fbc
000003a0: 6823 36bd f907 953c 85a0 10bd b305 b93c
000003b0: ab1c cd3c ec76 dfbc cf17 a93c cef8 243c
000003c0: f5dd eb3d 29fb 31bc 0151 3c3d 3f04 8f3d
000003d0: 4d5f 863d ec1a 94bd 290a 153d e464 44bc
000003e0: 7749 e9bc 54f8 b0bd 159f 96bc a0f1 e63c
000003f0: 2fad 9e3d e85d 19bc 52e9 e73d 803b 4fbd

B0__64 f4 [1, 800]
0.024168583 0.021627588 0.058939878 -0.007859466 0.011613878 0.031541336 0.012568855 0.008303031
0.007949849 0.008828042 0.0043032104 0.019388342 -0.004398491 0.009205351 0.018793045 0.015957199
-0.0033982066 0.03180274 0.014242682 -0.00051124976 0.016869927 0.01979899 0.015701031 0.07393121
0.004457753 -0.0020994074 0.02578983 0.01267493 0.017536474 -0.0018021876 0.02180607 0.028669052
0.024048358 0.020537684 0.022428215 0.015695328 0.02310991 0.03878762 0.026028063 0.00076931395
0.022097895 0.025682753 0.013792582 0.032701798 0.05573643 0.016534828 0.004991772 0.009517674
0.0031024255 0.008513447 0.0025422638 0.0015054687 0.04766455 0.008999439 0.07168811 0.030325588
0.017482478 0.0040938994 0.018789783 0.0013782632 0.05140289 0.019590031 0.025771292 0.013683147
0.016751042 0.011501339 0.004823146 0.020050377 0.0071610264 0.038536683 0.002214121 0.005866627
0.023137378 -0.0029144436 0.0096168425 0.028467845 0.014969345 -0.0025374242 -0.0028559838 0.005319711
0.03966478 -0.0017001077 0.0011717767 0.0050053 0.005031809 0.0016409038 0.030495098 0.0022405959
-0.0017397671 0.020820798 0.009976002 0.005598259 0.008770046 -0.009253095 0.028866535 0.0026279357
0.0033263427 0.05631885 0.0029136476 0.0025008067 0.030349256 0.021635525 0.056005612 -0.008384448
0.012189855 0.034243766 0.013541371 0.008178069 0.010882187 0.008957816 0.0039892728 0.02022047
-0.0039746366 0.007080787 0.0189702 0.016035521 -0.003783197 0.032882962 0.015427497 -0.00038104755
0.018767722 0.020807743 0.017758768 0.07571912 0.0053005596 -0.0019836319 0.022254772 0.012455162
0.020576635 -0.0021137835 0.0141584 0.030150246 0.020349823 0.02003705 0.026333189 0.017613253
0.023326123 0.04041773 0.034307364 8.92621e-05 0.02809372 0.026339808 0.015552048 0.03606966
0.055538356 0.016695477 0.0029343404 0.012230876 0.0027007577 0.008264206 0.0036108578 -0.0029876498
0.045074645 0.0071324958 0.07040143 0.030205227 0.018382402 0.003966609 0.02024152 0.0014847254
0.05231917 0.020073058 0.03553598 0.0133943185 0.01788647 0.013338059 0.004699048 0.020639673
0.008903014 0.042567242 0.0016488042 0.005779976 0.025385937 -0.0027086926 0.009934048 0.028755426
0.01433603 -0.0023279162 -0.0022140904 0.004707429 0.041536983 -0.0018558314 -0.0017223073 0.0043236027
0.0062091863 0.0009791498 0.02989062 0.0018158033 -0.0023587453 0.02245865 0.0100343395 0.0054854956
0.008978469 -0.009924995 0.031472802 0.0021756315 0.003399727 0.056021653 0.0027700958 -0.0012412402
0.98444235 0.99904966 0.9714798 0.9890323 0.99240273 0.99149436 0.99620587 0.9979458
0.9955923 0.99534494 0.99738926 0.99593914 0.994052 1.002991 0.9970974 0.9951477
0.99596953 0.98852766 0.9950149 0.9960762 0.9846922 0.99391764 0.99452704 0.990885
0.99881214 0.9975346 0.9944914 0.9959505 0.99351555 0.99440324 1.0182441 0.99635136
1.0001329 0.99199384 0.994887 0.99486953 0.98860186 0.993228 0.97133815 0.9976165
0.98006254 0.9984577 0.9993263 0.98383933 0.99512255 0.99153334 1.002209 0.994993
0.9970436 0.9985061 0.9974016 0.99396604 0.9772207 0.98995656 1.0007435 0.99006706
00000000: 31fd c53c 572c b13c f16a 713d fdc4 00bc
00000010: 2348 3e3c 7d31 013d 99ed 4d3c 7009 083c
00000020: 1540 023c 7ea3 103c f201 8d3b 4dd4 9e3c
00000030: 3721 90bb 0ad2 163c dff3 993c acb8 823c
00000040: 72b4 5ebb 9743 023d 235a 693c 6405 06ba
00000050: cd32 8a3c 7e31 a23c 739f 803c 3f69 973d
00000060: 5812 923b 3696 09bb 3245 d33c 82aa 4f3c
00000070: a7a8 8f3c 6237 ecba a5a2 b23c 5cdb ea3c
00000080: 1001 c53c a53e a83c 60bb b73c 7d93 803c
00000090: fe50 bd3c c4df 1e3d ce38 d53c c9ab 493a
000000a0: a506 b53c a364 d23c 48fa 613c 52f2 053d
000000b0: e24b 643d 0c74 873c 0592 a33b 05f0 1b3c
000000c0: 1052 4b3b fc7b 0b3c 1c9c 263b 2653 c53a
000000d0: e73b 433d 6272 133c 37d1 923d 5e6d f83c
000000e0: 6a37 8f3c 1e26 863b 08ed 993c d7a6 b43a
000000f0: d68b 523d 467b a03c 511e d33c 472f 603c
00000100: 7b39 893c 1d70 3c3c 7b0b 9e3b b040 a43c
00000110: 0ba7 ea3b a4d8 1d3d c91a 113b d63c c03b
00000120: 998a bd3c 4000 3fbb f68f 1d3c 6635 e93c
00000130: fc41 753c ea4a 26bb 752b 3bbb f850 ae3b
00000140: 8977 223d 26d6 deba 4d96 993a 8003 a43b
00000150: e0e1 a43b 9813 d73a dbd0 f93c f6d6 123b
00000160: e608 e4ba 6190 aa3c 6372 233c 9a71 b73b
00000170: 3db0 0f3c 4b9a 17bc 8379 ec3c 7239 2c3b
00000180: c5fe 593b 98ae 663d e5f2 3e3b 93e4 233b
00000190: 019f f83c fc3c b13c 2466 653d ec5e 09bc
000001a0: f5b7 473c 3143 0c3d a0dc 5d3c 4ffd 053c
000001b0: 334b 323c cec3 123c 72b8 823b 66a5 a53c
000001c0: ab3d 82bb f205 e83b 6567 9b3c ed5c 833c
000001d0: 83ef 77bb 49b0 063d 9dc3 7c3c 56c7 c7b9
000001e0: c4be 993c 0075 aa3c d67a 913c a012 9b3d
000001f0: 51b0 ad3b d2ff 01bb a44f b63c bc10 4c3c
00000200: 5590 a83c 6787 0abb a2f8 673c a6fd f63c
00000210: acb4 a63c bd24 a43c b3b8 d73c ab49 903c
00000220: 6d16 bf3c 108d 253d e185 0c3d 3a32 bb38
00000230: cd24 e63c 95c6 d73c 04ce 7e3c c8bd 133d
00000240: 307c 633d f4c4 883c 104e 403b 0364 483c
00000250: 32ff 303b 9866 073c 24a4 6c3b 72cc 43bb
00000260: 31a0 383d b6b7 e93b a02e 903d f470 f73c
00000270: b196 963c 54fa 813b 8bd1 a53c 1e9b c23a
00000280: a04c 563d 4170 a43c 2d8e 113d d873 5b3c
00000290: a586 923c e087 5a3c 79fa 993b 8814 a93c
000002a0: f2dd 113c fd5a 2e3d b01c d83a f465 bd3b
000002b0: 2bf6 cf3c 5284 31bb 6bc2 223c 8090 eb3c
000002c0: abe1 6a3c f48f 18bb 461a 11bb c740 9a3b
000002d0: af22 2a3d 5e3f f3ba 0bbf e1ba 02ad 8d3b
000002e0: 6e76 cb3b d156 803a 2cdd f43c 4000 ee3a
000002f0: 2e95 1abb 34fb b73c 1267 243c acbf b33b
00000300: 6e1a 133c 729c 22bc a0e9 003d 0a95 0e3b
00000310: f4cd 5e3b f676 653d 7f8a 353b 1cb1 a2ba
00000320: 6a04 7c3f b8c1 7f3f e6b2 783f 3931 7d3f
00000330: 1b0e 7e3f 93d2 7d3f 5907 7f3f 6079 7f3f
00000340: 23df 7e3f edce 7e3f e754 7f3f def5 7e3f
00000350: 317a 7e3f 0262 803f c641 7f3f 00c2 7e3f
00000360: dcf7 7e3f 2610 7d3f 4cb9 7e3f dafe 7e3f
00000370: ca14 7c3f 6371 7e3f 5399 7e3f a4aa 7d3f
00000380: 27b2 7f3f 6d5e 7f3f fd96 7e3f 9df6 7e3f
00000390: 0957 7e3f 3691 7e3f d355 823f e210 7f3f
000003a0: 5b04 803f 4ff3 7d3f eab0 7e3f c5af 7e3f
000003b0: 0315 7d3f 3144 7e3f 9ea9 783f cc63 7f3f
000003c0: 61e5 7a3f ec9a 7f3f d9d3 7f3f e5dc 7b3f
000003d0: 5ac0 7e3f 21d5 7d3f 6248 803f dcb7 7e3f
000003e0: 403e 7f3f 199e 7f3f b655 7f3f 8f74 7e3f
000003f0: 232b 7a3f cb6d 7d3f 5d18 803f 0975 7d3f
