model.eurusd.D1.120.till2023.onnx (onnx, 905566 bytes, 9 tensors)

sequential/dense/MatMul/ReadVariableOp:0 f4 [100, 1]
0	0xbe3f2ca4	-0.18669373
1	0xbe4e801f	-0.20166062
2	0xbe160b82	-0.14652827
3	0xbe01b210	-0.12665582
4	0xbde2cdd7	-0.11074417
5	0x3e130641	0.14357854
6	0x3e89b581	0.2689629
7	0xbdf16af8	-0.11787981
8	0x3e1a40bd	0.15063758
9	0x3dd202bd	0.102544285
10	0x3e348472	0.17628649
11	0x3e1edc6f	0.15513776
12	0x3e307c3e	0.17234895
13	0x3e1ea5fd	0.15493007
14	0x3e7a8812	0.24465969
15	0xbe1062a5	-0.1410013
16	0x3e112c1b	0.14176981
17	0x3dc13751	0.09434379
18	0xbe253232	-0.16132429
19	0xbe37ec42	-0.17961219
20	0x3e13bf62	0.14428475
21	0xbe61627a	-0.22010222
22	0xbdd41a1d	-0.10356543
23	0xbe11acab	-0.14226024
24	0xbe5a1457	-0.21296822
25	0x3dcf0c28	0.101097405
26	0xbe2c83c8	-0.16847146
27	0x3e3143d0	0.17311025
28	0x3e167690	0.14693666
29	0x3e63d339	0.22248544
30	0x3e552ba4	0.20817429
31	0xbde2ff76	-0.110838816
32	0x3e4949aa	0.19657007
33	0x3d7406b9	0.059576724
34	0x3e0a6036	0.13513264
35	0xbe54c1ae	-0.20777008
36	0x3dcd520a	0.10025413
37	0x3da68ddd	0.08132527
38	0xbe380b88	-0.17973149
39	0x3dedaf4c	0.11605701
40	0xbe00ab33	-0.12565307
41	0x3dcec6ea	0.100965336
42	0xbe5b36dd	-0.21407647
43	0x3e2065bf	0.15663813
44	0x3e6efee8	0.23339427
45	0x3e3a90e0	0.18219328
46	0x3e23b309	0.15986265
47	0xbe7cdc81	-0.2469349
48	0xbdf6844f	-0.120369546
49	0xbe60935a	-0.2193121
50	0xbe115f28	-0.14196455
51	0x3e1e299a	0.15445557
52	0xbded0be5	-0.11574534
53	0x3e6ce6f7	0.23134981
54	0x3e1d9082	0.15387157
55	0xbdaf2887	-0.08552652
56	0x3e5368cc	0.20645446
57	0xbdcd163f	-0.10014009
58	0xbe64c55a	-0.22340909
59	0x3e772a6b	0.24137275
60	0xbe14b871	-0.14523484
61	0xbdba4613	-0.09095397
62	0x3e233480	0.15937996
63	0xbe35d08c	-0.17755336
64	0x3de39a3c	0.11113402
65	0xbdf7a917	-0.12092798
66	0xbe0e80dd	-0.13916345
67	0x3df9591b	0.12175199
68	0xbe14429c	-0.14478534
69	0xbe254db5	-0.16142924
70	0xbe6bce31	-0.23027875
71	0xbddebc0c	-0.10875711
72	0x3e5987f5	0.2124327
73	0x3ddea66e	0.10871588
74	0x3e5c72df	0.21528195
75	0x3e0f9b47	0.14024077
76	0xbe2a5da6	-0.16637287
77	0xbe4cd651	-0.2000363
78	0x3dd9c001	0.10632325
79	0x3df25461	0.118325
80	0x3e1fd84e	0.15609857
81	0x3e1ef40a	0.15522781
82	0x3e515f66	0.20446548
83	0x3e808cfc	0.25107563
84	0x3e589442	0.21150306
85	0xbe0ac4b4	-0.13551599
86	0x3e051423	0.12995963
87	0x3e314ecd	0.17315216
88	0xbe196999	-0.14981689
89	0x3e81b2e7	0.25331804
90	0xbe48f4ee	-0.19624683
91	0x3e2dee08	0.16985333
92	0xbe47b997	-0.1950439
93	0x3e0c2d20	0.13689089
94	0x3e78720a	0.24262252
95	0x3e7a77a4	0.24459702
96	0xbe018774	-0.12649328
97	0xbe0940d5	-0.13403638
98	0x3deabf80	0.11462307
99	0x3e05393d	0.13010116

sequential/conv1d/Conv1D/ExpandDims_1:0 f4 [256, 1, 1, 2]
0	0x3d429f7b	0.047515374
1	0xbd435267	-0.047686007
2	0xbccacf00	-0.024756908
3	0xbdcf6480	-0.10126591
4	0xbcf31258	-0.029671833
5	0xbd0aed62	-0.033917792
6	0x3dc9de90	0.098569036
7	0x3d9f43c0	0.07776594
8	0xbcc72da5	-0.024313757
9	0x3de6b5cc	0.11265144
10	0xbddf455a	-0.109019
11	0x3dac6f9d	0.08419726
12	0x3df77b84	0.120841056
13	0xbdc86fa7	-0.09786921
14	0xbdae0741	-0.08497477
15	0x3d72c7f3	0.059272718
16	0x3c9590ac	0.018257461
17	0xbb5add7d	-0.0033396177
18	0x3da0fb98	0.07860488
19	0x3de14a78	0.11000532
20	0x3db1afa0	0.08676076
21	0x3cfd8905	0.030949125
22	0x3da3c453	0.0799643
23	0x3d9d6f80	0.076872826
24	0x3e05d11f	0.13068055
25	0xbdd99f81	-0.10626126
26	0xbdc27c18	-0.09496325
27	0xbdd409d2	-0.103534356
28	0xbdc6bf52	-0.0970446
29	0xbdafa1d4	-0.08575788
30	0x3cc88ab7	0.024480207
31	0x3dac85d7	0.084239654
32	0x3d5870c5	0.05284192
33	0x3d7e092b	0.062020462
34	0x3deda600	0.116039276
35	0xbdbf6227	-0.09344893
36	0x3d371b24	0.044703618
37	0x3d0dad3b	0.034589034
38	0x3d52962f	0.051412757
39	0xbc0cb47a	-0.008587951
40	0x3d3493d2	0.044086285
41	0x3d9d42f8	0.07678789
42	0x3dbc45a8	0.091929734
43	0x3daca5bd	0.084300496
44	0x3a329ef1	0.0006813845
45	0xbd684339	-0.056704734
46	0x3d891e4f	0.06695234
47	0xbcd2f2e4	-0.025750585
48	0xbd3d4ba8	-0.04621473
49	0x3dee8a6a	0.11647494
50	0xbb0e0283	-0.0021668978
51	0x3da5d8d9	0.08098001
52	0xbc885dd2	-0.0166463
53	0xbe1f4500	-0.15553665
54	0x3d55c1c9	0.05218676
55	0x3d4fb0cc	0.050705716
56	0xbd43b35c	-0.047778472
57	0x3c7d237f	0.015450357
58	0x3dab1201	0.08353043
59	0xbc8c80f4	-0.017151333
60	0xbd578a1c	-0.052621946
61	0x3b6706ec	0.0035251928
62	0x3d83177a	0.06400962
63	0x3de5cb5b	0.112204276
64	0x3ba28a7c	0.0049603563
65	0x3cb99d42	0.022657994
66	0xbd6d4916	-0.05793103
67	0xbcfe2284	-0.031022318
68	0xbd9a9006	-0.075470015
69	0xbe88d3c3	-0.2672406
70	0x3da13549	0.078714915
71	0x3d071674	0.032980397
72	0xbd700803	-0.05860139
73	0xbd0249a6	-0.031808518
74	0x3b497021	0.0030737
75	0x3d2c1969	0.04201642
76	0x3cfd20e0	0.030899465
77	0x3d4c01dc	0.04980646
78	0x3dbb4a29	0.09145004
79	0xbd24b81d	-0.040214647
80	0x3c7ecf04	0.015552286
81	0x3d05bf44	0.03265311
82	0x3cea0a14	0.028569259
83	0x3d3fdb21	0.046839837
84	0xbdaec2c4	-0.08533242
85	0x3d29c65e	0.041448943
86	0xbd0fd998	-0.035119623
87	0xbb827eb0	-0.0039823875
88	0xbd6a83d3	-0.057254624
89	0x3c3161a6	0.010826504
90	0xbdb352e4	-0.087560445
91	0x3ca88683	0.020571953
92	0x3dc72532	0.09723891
93	0xbb9e03b7	-0.00482222
94	0x3cce6e03	0.025198942
95	0x3de9041e	0.113777384
96	0xbd892142	-0.066957965
97	0x3c572f87	0.01313389
98	0x3cfcb32f	0.03084716
99	0x3d60d082	0.05488635
100	0x3dd445fe	0.103649125
101	0xbd35ab2c	-0.044352695
102	0xbda9bc4a	-0.082878664
103	0xbda8e6ee	-0.08247171
104	0x3bbe3ac0	0.0058053434
105	0x3d007308	0.031359702
106	0x3dcfb907	0.10142713
107	0x3d9ec5fa	0.07752605
108	0x3c205649	0.009786197
109	0x3dc3bebb	0.09557863
110	0x3ced9472	0.029001448
111	0x3d8781b3	0.06616535
112	0x3d84398b	0.06456288
113	0x3d4b7950	0.04967624
114	0x3c25bf8b	0.010116468
115	0x3d175919	0.036950205
116	0xbd7be08b	-0.061493438
117	0xbce5d3c4	-0.02805508
118	0x3d89c843	0.0672765
119	0xbdc7767f	-0.09739398
120	0xbd29b52e	-0.041432552
121	0xbdcb2169	-0.09918482
122	0x3d70922a	0.058733143
123	0xbb8278a6	-0.0039816676
124	0xbdccf181	-0.10007001
125	0xbd74f8c8	-0.05980757
126	0xbd91849a	-0.0710537
127	0x3ddda27f	0.10822009
128	0xbdb7fff2	-0.089843646
129	0xbd9061c4	-0.07049897
130	0x3d9c35d9	0.07627458
131	0x3d24843c	0.04016517
132	0x3dab3478	0.08359617
133	0xbc7b89f5	-0.015352716
134	0x3ca594e0	0.02021259
135	0x3db1e26d	0.086857654
136	0x3e13a25c	0.14417404
137	0xbdf09391	-0.11746896
138	0xbcd849c4	-0.026402362
139	0xbc8bb8e0	-0.017055929
140	0x3cb232e0	0.021752775
141	0x3d2c7699	0.04210529
142	0x3daa11ad	0.08304153
143	0xbb86cd66	-0.004113841
144	0xbd293c76	-0.041317426
145	0x3d22d5b4	0.039754584
146	0xbd3cf43d	-0.04613136
147	0xbba077e0	-0.0048971027
148	0xbd82ed8c	-0.06392965
149	0xbd8eeaf4	-0.069784075
150	0xbd8a6cc0	-0.06759024
151	0x3d496312	0.049166746
152	0x3db5aaf0	0.08870494
153	0xbc44f167	-0.012020445
154	0xbd7aa3f5	-0.061191518
155	0x3d1aae12	0.037763663
156	0xbc91a2f4	-0.017777897
157	0x3dd4cbc0	0.10390425
158	0xbe65169e	-0.22371909
159	0xbdc46ad7	-0.095906906
160	0xbd7e6519	-0.062108133
161	0xbda253f4	-0.07926169
162	0xbd51ef1b	-0.05125342
163	0xbd1012e8	-0.03517428
164	0xbd99f6cc	-0.07517776
165	0xbb627420	-0.003455408
166	0xbd9a6297	-0.07538336
167	0x3e026128	0.12732375
168	0xbcd57f49	-0.02606167
169	0x3d938c1c	0.07204458
170	0x3d2ee8d0	0.042702496
171	0xbbce1967	-0.0062896493
172	0x3db71887	0.08940225
173	0x3dc0f832	0.094223395
174	0xbcfa535e	-0.03055733
175	0x3df21b02	0.118215576
176	0xbd29e106	-0.041474365
177	0xbd6d2f4b	-0.05790643
178	0x3d1e3328	0.038623005
179	0x3da04c20	0.0782702
180	0xbcb85428	-0.022501066
181	0xbd384474	-0.044987157
182	0xbd2e0ed4	-0.04249461
183	0xbce7239c	-0.028215222
184	0xbdba84f8	-0.09107393
185	0xbd9ce9a3	-0.0766175
186	0x3e0544d1	0.13014533
187	0xbdcce43e	-0.10004471
188	0x3d035ce3	0.032071006
189	0x3d67059a	0.056401826
190	0x3dd231ad	0.10263381
191	0x3db4a4b5	0.08820478
192	0x3de0ae64	0.10970762
193	0xbd9e41b8	-0.077273786
194	0x3d4fc1a8	0.050721794
195	0xbca2c597	-0.019869609
196	0xbc826892	-0.015919004
197	0x3d877928	0.066149056
198	0xbcdccecc	-0.026954077
199	0xbd7eca7f	-0.062204834
200	0x3d911349	0.070837565
201	0x3d813507	0.06308942
202	0x3d0900d6	0.033448063
203	0xbdcd19e0	-0.10014701
204	0xbd011595	-0.031514723
205	0x3d9f2e28	0.077724755
206	0x3dbdb859	0.09263677
207	0xbcc7aca0	-0.024374306
208	0x3c9a9de1	0.01887411
209	0x3d8d765e	0.069073424
210	0x3b8e7df5	0.0043485113
211	0x3d886c6e	0.06661306
212	0x3dbf1cf6	0.09331696
213	0xbdfdd3e0	-0.123939276
214	0xbca188d4	-0.019718565
215	0xbd32d216	-0.043657385
216	0xbbf87d60	-0.0075833052
217	0xbd8712a6	-0.06595354
218	0xbdc85390	-0.09781563
219	0xbd17a176	-0.037019216
220	0xbd87a1ea	-0.066226795
221	0x3d026d4a	0.031842507
222	0x3d6b72f6	0.057482682
223	0x3da1d4f0	0.07901943
224	0x3d520971	0.051278535
225	0xbdd1ffbc	-0.102538556
226	0x3de82aa9	0.11336262
227	0xbce20307	-0.027589334
228	0x3e21889d	0.1577477
229	0xbde85771	-0.11344803
230	0x3d9ea9cd	0.07747231
231	0xbdb656bb	-0.08903261
232	0x3c59137a	0.0132492725
233	0x3d61fc7d	0.055172432
234	0x3dd4e19b	0.10394593
235	0xbd583d5e	-0.0527929
236	0x3dc452d5	0.095861115
237	0xbc8c93e9	-0.017160373
238	0x3dc011a5	0.093783654
239	0xbb6c02e6	-0.003601247
240	0x3ca67ec0	0.020324111
241	0x3d6996bd	0.05702852
242	0xbb745680	-0.0037283003
243	0xbc849de0	-0.016188562
244	0xbdbb5bc6	-0.09148364
245	0xbd939d5b	-0.072077475
246	0xbda56fa3	-0.08077934
247	0x3d41a02d	0.047271896
248	0xbdba1234	-0.09085503
249	0xbdceb4fd	-0.100931145
250	0x3d466ef3	0.048445653
251	0xbd931391	-0.07181466
252	0x3d045efb	0.032317143
253	0x3d9ca253	0.076481484
254	0x3c863da1	0.016386809
255	0xbca6f313	-0.020379579

const_fold_opt__150 f4 [1, 256, 1]
0	0xbb2f59d7	-0.002675643
1	0x00000000	0.0
2	0x00000000	0.0
3	0xbcfcb811	-0.030849488
4	0xbcd06dd5	-0.025442997
5	0xbbbd09e4	-0.0057690013
6	0xbd0c7ef4	-0.03430076
7	0xbbb57ad0	-0.005538322
8	0x3cb9dc22	0.022687975
9	0xbce01a72	-0.02735636
10	0xbd0c2c2b	-0.03422181
11	0xbc2480aa	-0.0100404415
12	0xbd23b29d	-0.03996526
13	0x00000000	0.0
14	0x00000000	0.0
15	0xbbd45100	-0.0064793825
16	0xbd115fe4	-0.03549184
17	0xbd66d671	-0.05635685
18	0xbcccf7ed	-0.025020564
19	0xbd0ef269	-0.03489915
20	0xbd0c8e39	-0.03431532
21	0xbd1637d5	-0.03667434
22	0xbba341b4	-0.0049821977
23	0xbd0baed1	-0.034102265
24	0xbc9fd919	-0.0195127
25	0xbcb55091	-0.022133144
26	0x3d6df4a1	0.058094624
27	0xbcfb835e	-0.03070229
28	0xbb7ca5e1	-0.003855102
29	0xbd54558e	-0.051839404
30	0xbaef13ac	-0.0018240116
31	0xbc7ac52e	-0.0153058
32	0xbc218ab4	-0.00985973
33	0x00000000	0.0
34	0x3dbc14fa	0.091836885
35	0xbce9be39	-0.028533088
36	0x00000000	0.0
37	0xbcec1531	-0.028818699
38	0xbd67949c	-0.05653821
39	0xbd22cf80	-0.03974867
40	0xbc91af9a	-0.017783929
41	0xbcb3de38	-0.021956548
42	0xbb9242b8	-0.00446352
43	0x00000000	0.0
44	0xbb165fa4	-0.002294519
45	0xbad50bb4	-0.0016254098
46	0xbc95df49	-0.018294947
47	0xbcdbc26b	-0.026826104
48	0xbb3b8a36	-0.0028616316
49	0xbd792a33	-0.06083126
50	0xbd35f6f4	-0.044424966
51	0x00000000	0.0
52	0xbcdc98ef	-0.026928393
53	0xbca527a1	-0.020160498
54	0xbcf75ed3	-0.030196583
55	0xbd0fcb8d	-0.03510623
56	0xbd075fc9	-0.033050332
57	0x3b5a1c89	0.0033281168
58	0x00000000	0.0
59	0x3cf418d1	0.02979699
60	0x00000000	0.0
61	0xbd204a6e	-0.03913348
62	0x00000000	0.0
63	0xbc2f6e59	-0.010707461
64	0x00000000	0.0
65	0xbceff0f6	-0.029289704
66	0xbcc40ef3	-0.02393291
67	0xbcf58fea	-0.02997585
68	0xbd2f8a4f	-0.04285651
69	0x00000000	0.0
70	0xbd36c0e4	-0.04461755
71	0xbce879ef	-0.028378455
72	0x3c9059a0	0.017620862
73	0x00000000	0.0
74	0x00000000	0.0
75	0xbbc27101	-0.0059338813
76	0xbd6ff6f1	-0.05858511
77	0xbae3080e	-0.0017321126
78	0xbcbf47e9	-0.02334972
79	0x3d38cc67	0.04511681
80	0x00000000	0.0
81	0x00000000	0.0
82	0x00000000	0.0
83	0xbcc573f2	-0.024103139
84	0xbd035b21	-0.03206933
85	0xbcecf77e	-0.028926607
86	0xbcb2fd6c	-0.021849357
87	0xbcc73ae1	-0.024320068
88	0x00000000	0.0
89	0xbd067c66	-0.03283348
90	0x00000000	0.0
91	0x00000000	0.0
92	0x00000000	0.0
93	0xbd1cfb5f	-0.038325664
94	0xbccfac0e	-0.025350597
95	0xbc3dd04a	-0.0115853045
96	0xbd4fd5c2	-0.050740965
97	0x3bdc4c88	0.0067229904
98	0xbd0b5844	-0.034019724
99	0x00000000	0.0
100	0xbcf3f793	-0.029781139
101	0x3d82f99e	0.06395267
102	0xbcff01b5	-0.031128744
103	0xbd6b419a	-0.05743561
104	0xbcd01905	-0.025402555
105	0x3ca41bf1	0.020032855
106	0x3d376b7f	0.04478025
107	0x00000000	0.0
108	0x00000000	0.0
109	0x00000000	0.0
110	0xbb776666	-0.0037750243
111	0xbbeaf67d	-0.007170497
112	0x3d4b9292	0.049700327
113	0xbcd8ffbd	-0.026489133
114	0xbd40803f	-0.046997305
115	0x3c301840	0.010747969
116	0xbcadfd5a	-0.021238972
117	0xbd20c9ab	-0.039254826
118	0xbcd4ff50	-0.026000649
119	0xbcf4e132	-0.029892538
120	0xbd6554b0	-0.055988967
121	0x00000000	0.0
122	0x00000000	0.0
123	0xbba37613	-0.004988441
124	0x00000000	0.0
125	0x3cd18dca	0.025580306
126	0xbd01e486	-0.031712078
127	0x3a3c31fa	0.0007179078
128	0xbd786d95	-0.06065138
129	0x00000000	0.0
130	0xbcd13845	-0.025539527
131	0x3d86af72	0.06576432
132	0xbc9097cf	-0.017650513
133	0xbd37cc9b	-0.04487286
134	0xbc967a99	-0.018369006
135	0x3d35299a	0.044229127
136	0xbd04b6b7	-0.032400813
137	0xbd1e761e	-0.038686864
138	0x00000000	0.0
139	0x3d32af8b	0.043624442
140	0x00000000	0.0
141	0xbcf950d9	-0.030434059
142	0x00000000	0.0
143	0x00000000	0.0
144	0xbc13d789	-0.009023556
145	0xbc00ca65	-0.007860755
146	0x00000000	0.0
147	0xbc33e9b3	-0.010981011
148	0xbb8d495f	-0.004311725
149	0xbc5d52b5	-0.013508488
150	0xbcc905ba	-0.024538863
151	0x3c080305	0.008301501
152	0xbd2a5f99	-0.041595075
153	0xbb30be0d	-0.0026968748
154	0xbc021fd1	-0.007942156
155	0x00000000	0.0
156	0x00000000	0.0
157	0xbd14581d	-0.036216844
158	0xbd0bce79	-0.034132455
159	0xbd04c2c2	-0.032412298
160	0xbcad03ae	-0.021119919
161	0xbd7731a9	-0.060350094
162	0xbd3a701a	-0.045517065
163	0xbd0498dd	-0.032372344
164	0xbbb9f993	-0.0056755035
165	0xbd31f1dc	-0.043443546
166	0xbccb3822	-0.02480704
167	0xbd21dc3d	-0.039516676
168	0xbd50c087	-0.05096486
169	0x00000000	0.0
170	0xbd0d91ee	-0.034562998
171	0xbceb5131	-0.028725239
172	0xbca44c54	-0.020055927
173	0xbd2105b0	-0.039312065
174	0x00000000	0.0
175	0x00000000	0.0
176	0xbd21fc9f	-0.03954756
177	0x00000000	0.0
178	0x00000000	0.0
179	0xbb0ef4af	-0.0021813323
180	0xbd31aced	-0.043377806
181	0xbd05ed2e	-0.032696895
182	0x00000000	0.0
183	0xbd48a6e6	-0.04898729
184	0xbce4e768	-0.027942374
185	0x00000000	0.0
186	0xbd3c84b5	-0.046024997
187	0x3d289a0b	0.04116253
188	0xbd009848	-0.031395227
189	0xbd05f0a2	-0.03270019
190	0x3d2c8454	0.042118385
191	0x00000000	0.0
192	0xbc2a06af	-0.01037757
193	0x00000000	0.0
194	0xbc7e05a5	-0.015504275
195	0xbc841b03	-0.016126161
196	0xbc8c283f	-0.017109035
197	0xbd0eb777	-0.034842934
198	0xbc0a463a	-0.008439595
199	0x00000000	0.0
200	0xbce1d91d	-0.027569348
201	0x00000000	0.0
202	0x00000000	0.0
203	0x00000000	0.0
204	0x00000000	0.0
205	0x3d23f269	0.040026102
206	0xbd4780e0	-0.04870689
207	0xbbc486b3	-0.0059975027
208	0xbd2ecfe0	-0.042678714
209	0x3cdd60a2	0.027023617
210	0xbd271d78	-0.040799588
211	0xbbbf3628	-0.0058353133
212	0x00000000	0.0
213	0xbcd89e72	-0.02644274
214	0xbd804bde	-0.062644705
215	0xbc83d602	-0.016093258
216	0x00000000	0.0
217	0x3c32b99c	0.010908511
218	0xbd092b96	-0.033488832
219	0xbc600a09	-0.013674268
220	0xbc988791	-0.01861933
221	0x3d299b9d	0.04140817
222	0x00000000	0.0
223	0xbc66bbaa	-0.014082829
224	0xbd086c99	-0.03330669
225	0x3c1a6151	0.009422616
226	0x00000000	0.0
227	0xbd7a6678	-0.061132878
228	0xbc8fffd5	-0.017578045
229	0x00000000	0.0
230	0xbd0f85fd	-0.03503989
231	0x00000000	0.0
232	0x3d1bd55e	0.03804528
233	0xbd33a134	-0.043854907
234	0xbc405845	-0.011739795
235	0xbb005b54	-0.0019585686
236	0x00000000	0.0
237	0xbd262cec	-0.040570185
238	0xba947011	-0.0011324902
239	0xbcba9080	-0.022773981
240	0x00000000	0.0
241	0xbd486cd6	-0.04893192
242	0xbd0cf1c1	-0.034410242
243	0xbba567e1	-0.0050477837
244	0xbc035991	-0.00801696
245	0xbb8f1af8	-0.0043672286
246	0xbd24db28	-0.040248066
247	0x00000000	0.0
248	0xb9dae4b0	-0.00041750586
249	0xbca89edd	-0.020583564
250	0xbc98bc25	-0.018644402
251	0xbc07aa2b	-0.008280317
252	0xbb0f1b58	-0.0021836367
253	0xbd120764	-0.03565158
254	0x00000000	0.0
255	0xbcd0a869	-0.02547093

W0__62 f4 [1, 400, 100]
0	0xbd7f4372	-0.06232018
1	0x3d4eb1a3	0.050462376
2	0x3dc0caf2	0.09413709
3	0xbcb76153	-0.022385275
4	0xbce3e6bc	-0.027819984
5	0xbd90cbc0	-0.07070112
6	0x3d34f542	0.04417921
7	0xbd529ff2	-0.051422067
8	0xbd3b4561	-0.04572046
9	0x3d6b618f	0.057466086
10	0x3db8f354	0.09030786
11	0x3d22bec2	0.039732702
12	0x3dd19dc6	0.10235171
13	0x3db86766	0.09004097
14	0x3c22b100	0.009929895
15	0x3b9af506	0.004728916
16	0x3db81806	0.08988957
17	0x3c2be599	0.010491752
18	0xbdc1fd90	-0.09472191
19	0xbd412047	-0.047149923
20	0x3d24199e	0.040063493
21	0xbd8c6b83	-0.06856444
22	0x3c2103b7	0.009827546
23	0x3decde69	0.11565859
24	0xbd18bbe2	-0.037288554
25	0xbbbd3e14	-0.0057752226
26	0x3d4dfbc4	0.05028893
27	0x3d8a8209	0.067630835
28	0xbddd673e	-0.108107075
29	0x3d21d88b	0.039513152
30	0x3df0bfae	0.1175531
31	0xbda04950	-0.07826483
32	0x3dee2f34	0.11630097
33	0x3d93378e	0.071883306
34	0x3d99a645	0.075024165
35	0x3df0a704	0.11750606
36	0xbdb776b6	-0.08958189
37	0x3a3aea5a	0.0007130258
38	0x3d0f8763	0.035041224
39	0x3ca81d26	0.020521712
40	0xbd1e1d58	-0.038602203
41	0x3ddec641	0.10877658
42	0xbd7d757f	-0.06187963
43	0x3de33404	0.110939056
44	0xbb386353	-0.0028135374
45	0x3cefb5d7	0.029261513
46	0x3d401aa9	0.046900425
47	0xbc89d99e	-0.0168274
48	0x3c9b0515	0.018923322
49	0x3d17b0eb	0.037033956
50	0x3d78fac5	0.060786027
51	0x3d7f085e	0.06226384
52	0xbdc16198	-0.09442443
53	0xbd7fa6ae	-0.062414818
54	0x3df89670	0.12138069
55	0x3da7b3c2	0.08188583
56	0xbd963dee	-0.07336031
57	0x3b28a054	0.0025730329
58	0x3cd81b54	0.026380219
59	0xbcca73d1	-0.024713429
60	0xbe09a454	-0.13441592
61	0xbd0d5725	-0.034506936
62	0xbdb5fd99	-0.088862605
63	0x3b66138d	0.0035106868
64	0x3e094dfc	0.13408655
65	0xbddd1fb1	-0.1079706
66	0xbd9b5714	-0.07584968
67	0x3956d55b	0.00020488111
68	0xbde0d1cb	-0.10977515
69	0x3c5dc68b	0.013536106
70	0xbdde1e1a	-0.10845585
71	0x3dced54c	0.10099277
72	0xbd804320	-0.06262803
73	0xbda15e64	-0.07879332
74	0x3dd5f286	0.10446648
75	0xbdb8aea1	-0.09017683
76	0xbd2c5fd1	-0.042083565
77	0x3d147bab	0.03625075
78	0x3db5e29b	0.08881112
79	0xbc5a74e6	-0.013333535
80	0xbd813999	-0.06309814
81	0x3d2bc398	0.04193458
82	0xbd8ddaa3	-0.06926467
83	0xbd7cd405	-0.061725635
84	0xbe142348	-0.14466584
85	0xbdf8d841	-0.12150622
86	0xbca185c2	-0.019717101
87	0xbca3950d	-0.019968534
88	0xbdce186b	-0.10063251
89	0x3d0a6b3a	0.033793665
90	0x3c8c3857	0.017116709
91	0x3dcbe591	0.09955896
92	0xbd27fd0d	-0.041012812
93	0xbd5e975c	-0.054343566
94	0x3d0544ca	0.032536305
95	0xbdb6c63c	-0.08924529
96	0x3d687aef	0.056757864
97	0x3d757c63	0.059933078
98	0xbc4aa796	-0.012369057
99	0x3ce23806	0.027614605
100	0x3c9d7672	0.019221518
101	0xbc1e6f97	-0.00967016
102	0xbd05e0ee	-0.032685213
103	0x3c130584	0.008973483
104	0x3c30d615	0.010793229
105	0x3e0b9dd9	0.13634433
106	0xbd046e0c	-0.03233151
107	0xbce50a40	-0.02795899
108	0xbd7159b0	-0.058923423
109	0x3e0b2d97	0.1359161
110	0x3d9d665b	0.076855384
111	0xbcf17e43	-0.029479152
112	0x3cefdcd0	0.029280096
113	0xbdb5be03	-0.088741325
114	0x3d5c8daa	0.05384604
115	0xbcdb1909	-0.026745336
116	0x3d0b7dae	0.034055404
117	0xbd651a1e	-0.05593311
118	0x3ce75a40	0.028241277
119	0x3bdd69e5	0.0067570084
120	0x3d8a5a57	0.06755512
121	0x3d09b2d2	0.033617802
122	0xbe006235	-0.12537463
123	0xbd8b07c6	-0.06788592
124	0x3d8087e9	0.06275923
125	0x3d180466	0.03711357
126	0x3db7a4dc	0.08966991
127	0x3d854797	0.06507795
128	0xbcf39c7d	-0.029737705
129	0xbda2ebe6	-0.0795515
130	0x3dc0123e	0.093784794
131	0xbdc8d7bb	-0.09806772
132	0xbddc668f	-0.10761749
133	0x3d92878b	0.07154759
134	0x3d90407d	0.0704355
135	0xbd9fc644	-0.07801488
136	0x3da42c90	0.08016312
137	0x3d05bcb5	0.03265067
138	0x3dcf125e	0.10110925
139	0xbd560e86	-0.052259944
140	0xbc5a3abc	-0.013319667
141	0xbdc1daeb	-0.094655834
142	0xbcde4226	-0.027131151
143	0x3bd6c669	0.006554414
144	0x3d870000	0.06591797
145	0x3dbcabd4	0.09212461
146	0x3d937da6	0.072017
147	0x3c51266a	0.012765506
148	0xbc98fd2c	-0.01867541
149	0x3d4dfb85	0.050288696
150	0x3da03ea9	0.078244515
151	0xbda1bea8	-0.07897693
152	0x3d744853	0.059639286
153	0xbd69569e	-0.05696737
154	0x3d783c2c	0.06060426
155	0x3df0e7e7	0.11762982
156	0xbdb532d7	-0.088475876
157	0xbd5f218b	-0.05447535
158	0xbd91e17c	-0.07123086
159	0xbd1b94e1	-0.03798378
160	0x3d774b45	0.060374517
161	0x3d9ab09a	0.07553215
162	0xbd5daf17	-0.054122057
163	0xbcf89283	-0.0303433
164	0xb9c35648	-0.00037257583
165	0x3c8f817f	0.017517803
166	0xbcf38b5d	-0.02972954
167	0xbdb56b93	-0.08858409
168	0xbe11f728	-0.14254439
169	0xbd068681	-0.032843117
170	0xbdafb46c	-0.085793346
171	0x3da69958	0.08134717
172	0x3b1935c4	0.0023377994
173	0xbdb3479e	-0.08753894
174	0xbd547e2c	-0.05187814
175	0x3e0e3aeb	0.13889663
176	0x3dd74ce3	0.10512712
177	0xbc9d12fb	-0.01917409
178	0xbdbf69f7	-0.09346383
179	0x3e12765b	0.14302962
180	0xbcad2fb0	-0.021140903
181	0xbd0877ac	-0.033317253
182	0xbe0d1010	-0.13775659
183	0xbd19d863	-0.037559878
184	0xbdaf06a9	-0.08546192
185	0x3be015e1	0.0068385457
186	0xbd72ac44	-0.059246317
187	0x3d8c975d	0.06864808
188	0x3d8a5041	0.067535885
189	0x3db0d1cb	0.08633765
190	0x3ca4b72c	0.020106874
191	0x3c9e3e38	0.019316778
192	0xbce60079	-0.028076397
193	0x3b9b6c0c	0.004743105
194	0x3c969a95	0.018384257
195	0x3cf28a20	0.029606879
196	0xbda01fa4	-0.07818535
197	0xbdb595b2	-0.08866443
198	0x3cee23c9	0.029069798
199	0xbc877b37	-0.016538246
200	0xbdeaefb4	-0.11471501
201	0xbcbed677	-0.023295624
202	0xbdb33a5e	-0.08751367
203	0xbd8f5483	-0.06998541
204	0x3dc289b6	0.094989225
205	0x3dc36796	0.09541242
206	0xbd5b0d07	-0.05347922
207	0xbd8d3c9d	-0.06896327
208	0x3d9a89d2	0.075458184
209	0x3d45555e	0.048177116
210	0xbdebad6d	-0.11507688
211	0xbde2de57	-0.11077564
212	0x3cbb74c5	0.022882828
213	0x3ccc2386	0.024919283
214	0x3d51fc81	0.051266197
215	0xbb074cc5	-0.0020645123
216	0xbda3096c	-0.079607815
217	0x3da6620b	0.08124169
218	0xbd05ab3d	-0.03263401
219	0x3d69cb76	0.0570788
220	0x3d7627fe	0.060096733
221	0xbc181571	-0.009282456
222	0xbd5b4912	-0.053536482
223	0x3d9c375e	0.07627748
224	0xbc2add0f	-0.010428681
225	0x3d93a4e2	0.07209183
226	0x3da4571a	0.08024426
227	0xbd49c56d	-0.049260546
228	0xbdd3dd39	-0.10344929
229	0x3de14157	0.10998791
230	0x3cbee336	0.023301702
231	0x3ce269f4	0.027638413
232	0xbd174336	-0.03692933
233	0xbddebc10	-0.10875714
234	0x3d28c70a	0.041205443
235	0x3dbbbfcd	0.091674425
236	0xbc111c6e	-0.008856876
237	0x3dce122c	0.1006206
238	0x3dc6c5fc	0.09705731
239	0xbc3c0ecc	-0.011478137
240	0x3d62ec8a	0.055401362
241	0xbc2606d2	-0.010133462
242	0x3d7a4dd5	0.061109383
243	0xbce0bae7	-0.027432872
244	0xbd99ea0e	-0.075153455
245	0xbc2df591	-0.01061763
246	0x3d5c54a8	0.053791672
247	0xbd836f04	-0.06417659
248	0xbd98d9b7	-0.07463401
249	0x3d9a577c	0.075362176
250	0x3ca198c5	0.019726167
251	0x3d61047e	0.054935925
252	0x3d6bec54	0.057598427
253	0xbda33a09	-0.07970054
254	0x3d822901	0.06355477
255	0x3cbb8e11	0.022894891

W0__41 f4 [1, 400, 256]
0	0x3be46dd3	0.0069711
1	0xbd94a3fc	-0.0725784
2	0x3b3b3ee0	0.0028571412
3	0x3d797949	0.060906682
4	0x3d8d8353	0.06909814
5	0x3d892001	0.066955574
6	0x3cba79d5	0.022763172
7	0xbdaf6bc9	-0.0856548
8	0x3d2b73f6	0.041858636
9	0xbd418cff	-0.047253605
10	0xbd078a8a	-0.033091106
11	0xbdb25266	-0.087071225
12	0xbcb008db	-0.021488598
13	0x3b9dbd30	0.0048138127
14	0xbdb5bfdb	-0.08874484
15	0xbda551f4	-0.08072272
16	0x3c9d37fa	0.01919173
17	0x3d6b7569	0.057485018
18	0x3da93b2e	0.08263241
19	0x3d9448fb	0.072404824
20	0xbbfed73c	-0.007777123
21	0xbdafcd31	-0.08584059
22	0xbc0389ce	-0.008028461
23	0x3d310c70	0.043224752
24	0x3c1635cf	0.009168102
25	0x3b9c8836	0.00477698
26	0x3de0786c	0.10960469
27	0x3dad07f4	0.084487826
28	0x3cee45ac	0.029085957
29	0x3d9bfc99	0.076165386
30	0x3d8a2fc7	0.06747394
31	0x3cd351cf	0.025795845
32	0xbdae230a	-0.08502777
33	0x3d856f61	0.065153845
34	0x3e032e0a	0.12810531
35	0x3d7309eb	0.05933563
36	0xbd7dcf9d	-0.061965574
37	0x3d9744c3	0.07386162
38	0xbda628a0	-0.08113217
39	0xbd8801ac	-0.06640944
40	0xbca50774	-0.020145155
41	0x3d2c54e1	0.042073134
42	0xbd3324f5	-0.043736417
43	0xbd205011	-0.039138857
44	0x3d92b5b7	0.071635656
45	0x3d15e892	0.03659875
46	0x3da308a4	0.079606324
47	0xbb149916	-0.0022674254
48	0x3dc3803b	0.095459424
49	0x3d8babef	0.06819903
50	0xbdb8532e	-0.0900024
51	0x3c04c878	0.008104436
52	0xbceafffe	-0.02868652
53	0xbdb53635	-0.0884823
54	0x39d5653a	0.00040701946
55	0xbc3e237e	-0.011605142
56	0xbd8649f4	-0.06557074
57	0xbd24948c	-0.040180728
58	0x3d8496cb	0.06474074
59	0xbd05f531	-0.032704536
60	0xbdb6e7be	-0.0893092
61	0xbad451e8	-0.0016198726
62	0x3d8b7acd	0.06810532
63	0x3d5db4ce	0.054127507
64	0x3d82f6f5	0.063947596
65	0x3d6e6ec3	0.0582111
66	0xbd455f6b	-0.0481867
67	0x3d1ba907	0.038002994
68	0x3e078427	0.13234006
69	0x3d91f6a1	0.07127119
70	0x3c2b9181	0.010471703
71	0x3d9cfd41	0.07665492
72	0x3da8b224	0.08237103
73	0x3d573dea	0.05254928
74	0x3c8d3f10	0.017241985
75	0xbccde7c0	-0.025134921
76	0x3d687da7	0.056760456
77	0x3d586366	0.05282917
78	0xbd2b1dda	-0.041776516
79	0x3cfd3603	0.030909544
80	0xbd024bb8	-0.031810492
81	0xbdb1c667	-0.0868042
82	0x3d475462	0.048664458
83	0xbd175ee0	-0.036955714
84	0xbcf2a1ce	-0.02961817
85	0xbdc5bd53	-0.09655251
86	0xbc2173ff	-0.009854316
87	0xbd592fff	-0.05302429
88	0x3d80c8db	0.0628831
89	0xbd2fcc15	-0.042919237
90	0x3d6f83ee	0.058475427
91	0xbd98fcf5	-0.07470123
92	0x3d33794e	0.043816857
93	0xbb858c23	-0.0040755435
94	0xbd7578b6	-0.059929572
95	0xbc66f917	-0.014097474
96	0x3cd98e0a	0.026556987
97	0xba07b255	-0.0005176415
98	0xbcc32e91	-0.023825916
99	0xbd404d34	-0.046948627
100	0x3cde5f37	0.027145011
101	0x3c82eec0	0.015982985
102	0x3d597277	0.053087678
103	0xbdbba08d	-0.09161482
104	0x3d0e4fa8	0.034743935
105	0xbd9a089c	-0.07521173
106	0x3c4ea81a	0.012613321
107	0xbd16627a	-0.03671501
108	0x3c4bdcf0	0.012442812
109	0x3cb42bac	0.02199348
110	0x3dabd7e8	0.0839079
111	0xbd9bb2e9	-0.07602484
112	0x3cc63c9e	0.024198826
113	0x3cf461ba	0.029831756
114	0x3d8e4505	0.06946758
115	0x3d042b07	0.032267597
116	0xbc3f9fd4	-0.011695821
117	0x3cc56667	0.02409668
118	0xbd66e7d4	-0.056373432
119	0x3da417c6	0.08012347
120	0x3d098f5f	0.033583995
121	0x3c8ad51c	0.016947322
122	0xbd8a7573	-0.06760683
123	0x3d85b57b	0.06528755
124	0x3d947b61	0.07250095
125	0x3dd9729b	0.106175624
126	0xbd5c85a5	-0.05383839
127	0x3d44f6ce	0.048086934
128	0xbd3e03a9	-0.04639021
129	0xbda962e8	-0.08270818
130	0xbd8a7a8b	-0.067616545
131	0x3d494f30	0.049147785
132	0xbd9b96bc	-0.0759711
133	0x3d43f8a5	0.047844548
134	0x3da234cd	0.07920227
135	0x3d46dceb	0.048550528
136	0x3d1e2ff5	0.038619954
137	0x3cfa8c10	0.030584365
138	0xbd1268b0	-0.03574437
139	0xbd0e1755	-0.03469022
140	0xbd8a9574	-0.06766787
141	0x3d40eb0a	0.04709915
142	0x3d81aab1	0.06331385
143	0x3d8cd5d7	0.06876724
144	0x3d2dddd3	0.042447876
145	0xbcf7f317	-0.030267281
146	0xbd8d4e30	-0.06899679
147	0xbd9ab34f	-0.07553732
148	0xbda48ada	-0.08034296
149	0xbb072918	-0.002062386
150	0xbda67375	-0.081274904
151	0xbd4e4352	-0.05035717
152	0x3c9ae401	0.018907549
153	0xbd418f74	-0.04725595
154	0x3da9781f	0.082748644
155	0xbb5b0440	-0.0033419281
156	0x3d18bf4e	0.037291817
157	0x3dde4bbf	0.10854291
158	0xbcba5417	-0.022745175
159	0x3d744782	0.059638508
160	0xbd4b9ea6	-0.049711846
161	0xbdcc14ab	-0.099648796
162	0xbcdb2d26	-0.026754927
163	0xbdbedc7b	-0.09319397
164	0x3db4e5e7	0.08832913
165	0x3d15dc4c	0.036587045
166	0x3ce12730	0.027484506
167	0x3db95a00	0.09050369
168	0x3d49e3fe	0.049289696
169	0xbd2026d2	-0.039099522
170	0x3c1feb17	0.00976064
171	0x3d749674	0.059713796
172	0xbd4e0d9c	-0.050305948
173	0xbd1117dc	-0.035423145
174	0xbd99ff05	-0.07519344
175	0x3d47d246	0.048784517
176	0xbb391845	-0.0028243226
177	0x3d93cb81	0.0721655
178	0xbdb2bf1b	-0.08727857
179	0xbd429b29	-0.047511254
180	0xbdc3ac58	-0.09554356
181	0x3b1bdedd	0.002378396
182	0xbd1b0b54	-0.0378526
183	0x3dc09541	0.09403468
184	0x3dae0838	0.08497661
185	0x3c009380	0.007847667
186	0x3c93d804	0.01804734
187	0x3d85c3b0	0.06531465
188	0x3d94dd43	0.07268765
189	0xbccd5106	-0.025063049
190	0x3d1b7f0a	0.03796295
191	0xbb7d8780	-0.00386855
192	0x3cda67da	0.026660848
193	0x3d868871	0.06568993
194	0x3d9673ea	0.073463276
195	0xbd7e2df0	-0.06205553
196	0xbbbdb288	-0.005789105
197	0x3b003744	0.001956419
198	0x3ce425ae	0.027849998
199	0xbd1946a2	-0.037420876
200	0xbd9a57f8	-0.0753631
201	0xbc87374c	-0.01650586
202	0xbd8db808	-0.06919867
203	0xb9a2bd00	-0.00031039864
204	0x3d0a98d6	0.033837162
205	0x3d164cf0	0.036694467
206	0x3b0e9dcd	0.0021761537
207	0x3dc09222	0.094028726
208	0x3d87fbfa	0.066398576
209	0x3b974e4a	0.004617487
210	0x3ca8ad05	0.020590315
211	0x3d494639	0.049139235
212	0x3af70d80	0.0018848628
213	0x3cd8322d	0.026391113
214	0xbd492425	-0.049106736
215	0xbdabea0c	-0.0839425
216	0xbc9f8b70	-0.019475669
217	0x3d4938f8	0.049126595
218	0x3bff7f9b	0.007797194
219	0xbd37d297	-0.04487857
220	0x3cd38fcc	0.025825404
221	0x3ddaefad	0.10690246
222	0xbd9097a2	-0.07060172
223	0x3db494e8	0.08817464
224	0x3db06669	0.08613283
225	0xbd9cc81d	-0.07655356
226	0x3b508480	0.0031817257
227	0xbdca4883	-0.09877112
228	0xbc41e478	-0.011834256
229	0x3dad5f6f	0.08465468
230	0x3d5d802d	0.054077316
231	0x3d52d5fa	0.051473595
232	0x3dee51c0	0.11636686
233	0x3c7021c8	0.014656492
234	0xbc640ee4	-0.013919566
235	0x3db4fc2b	0.0883716
236	0x3d9f1cf7	0.077691965
237	0xbc83135e	-0.016000446
238	0xbd757fad	-0.059936214
239	0x3da6363d	0.08115814
240	0xbd0f4f4a	-0.034987725
241	0xbdd8af26	-0.10580282
242	0xbb386ada	-0.002813986
243	0x3d6655c2	0.05623413
244	0xbd65bb82	-0.056087025
245	0xbdb1941f	-0.0867083
246	0x3dcb8f3a	0.09939428
247	0x3d1e7346	0.038684152
248	0x3b250860	0.0025181994
249	0x3ac963aa	0.0015364785
250	0xbd84e49c	-0.06488916
251	0xbc814715	-0.015780965
252	0xbd64f5a2	-0.055898316
253	0x3d51b6a5	0.051199574
254	0x3d960ebf	0.07327031
255	0x3b9079b1	0.004409038

R0__63 f4 [1, 400, 100]
0	0x3db98e0b	0.09060296
1	0xbd80a049	-0.06280572
2	0x3dd7def1	0.105405696
3	0xbc7b97e0	-0.015356034
4	0x3dee91e4	0.1164892
5	0x3dc4455a	0.0958354
6	0xbacbc1fb	-0.0015545482
7	0x3c94801d	0.018127495
8	0x3bc3829d	0.005966498
9	0xbd611c33	-0.054958533
10	0x3bd6d5ac	0.0065562334
11	0x3d27b60d	0.0409451
12	0xbcaa3073	-0.020775056
13	0x3cb01b57	0.021497412
14	0x3d846227	0.064640336
15	0x3d382df1	0.04496569
16	0xbd8d7a8c	-0.069081396
17	0x3aa6c1b4	0.0012722523
18	0x3c23dbc0	0.010001123
19	0x3d156d7b	0.03648136
20	0xbc45ecd4	-0.01208039
21	0xbc9a2800	-0.018817902
22	0x3d9ef9bd	0.077624775
23	0x3d0b541c	0.03401576
24	0xbb0e3b3c	-0.0021702787
25	0xbd95dd19	-0.07317562
26	0x3cbc011e	0.022949751
27	0xbd0183ff	-0.031620022
28	0xbdfbf75a	-0.12303038
29	0x3d0f8418	0.035038084
30	0xbe011195	-0.12604363
31	0x3dbb777f	0.091536514
32	0xbd8adbdb	-0.06780215
33	0xbc58a68a	-0.0132233
34	0xbc479f27	-0.012183941
35	0xbd757cb8	-0.059933394
36	0xbc8bbf95	-0.017059127
37	0xbbe10c3e	-0.0068679145
38	0x3dad011f	0.084474795
39	0x3d2b3b90	0.04180485
40	0x3c693cb4	0.014235664
41	0x3be994f2	0.0071283514
42	0x3c97942b	0.01850327
43	0xbe3f38a2	-0.18673947
44	0xbcfe88aa	-0.031071026
45	0x3a972f8e	0.0011534558
46	0x3c256647	0.010095186
47	0x3d75e904	0.060036674
48	0x3d5e4348	0.054263383
49	0x3b89e092	0.004207679
50	0xbc652c3b	-0.013987596
51	0xbd245965	-0.040124316
52	0xb9e93310	-0.00044479268
53	0x3d38c620	0.04511082
54	0xbda74f05	-0.08169369
55	0x3cf89263	0.03034324
56	0x3d2a9e58	0.041654915
57	0xbd96c4a4	-0.07361725
58	0xbc22d58e	-0.009938611
59	0xbdea3d5a	-0.11437483
60	0xbc09d60e	-0.008412851
61	0x3c7aa59c	0.015298273
62	0xbd1d98ac	-0.038475677
63	0xbd5c6502	-0.053807266
64	0xbdd478ad	-0.103745796
65	0xbbbf41ba	-0.0058366926
66	0xbcac1d4e	-0.021010067
67	0x3ba72874	0.005101258
68	0xbc93b300	-0.01802969
69	0xbc53a881	-0.012918592
70	0x3dcca6e5	0.0999277
71	0x3d42a0e1	0.047516707
72	0x3da604f0	0.081064105
73	0xbd4aa6e4	-0.049475566
74	0x3d8412fe	0.06448935
75	0xbd6dff3a	-0.05810473
76	0x3d64afc9	0.055831704
77	0x3d981552	0.074259415
78	0xbd1aeee4	-0.03782548
79	0xbd6334d5	-0.055470306
80	0x3d7b4d5f	0.061353084
81	0x3dd09c88	0.10186106
82	0xbd0fe97e	-0.035134785
83	0x3d13624f	0.035982426
84	0xbd08be51	-0.033384625
85	0x3db22278	0.08697981
86	0x3d8259af	0.06364762
87	0xbd50b8f7	-0.050957646
88	0x3de22389	0.11041934
89	0x3d789118	0.060685247
90	0x3d652b91	0.05594975
91	0x3d5e5036	0.054275714
92	0x3c07c55f	0.008286803
93	0xbd5ce673	-0.05393071
94	0x3dd3396c	0.10313687
95	0x3d195b6a	0.037440695
96	0x3d69bd34	0.057065204
97	0xbc3c0834	-0.011476565
98	0xbd031b54	-0.032008484
99	0xbcce6c20	-0.025198042
100	0xbcaadd92	-0.020857606
101	0x3d3ec7c2	0.046577223
102	0xbb83a7d6	-0.0040178103
103	0xbd9151b0	-0.07095659
104	0x3d9d65d2	0.07685436
105	0x3e0aa0bf	0.13537882
106	0x3d0e2115	0.03469952
107	0x3bb7bc63	0.0056071742
108	0x3d132767	0.03592625
109	0xbda5ac70	-0.080895305
110	0x3d641e48	0.05569294
111	0x3d0defaf	0.03465241
112	0xbca503ba	-0.020143379
113	0x3d808591	0.06275476
114	0x3d13bed0	0.036070645
115	0x3d768961	0.06018961
116	0x3cc24d54	0.023718514
117	0x3beb025d	0.0071719126
118	0x3e22fd2a	0.15916887
119	0xbc727116	-0.01479747
120	0x3c40bffa	0.011764521
121	0x3c3827d9	0.011239969
122	0x3c2e6348	0.010643788
123	0xbc938149	-0.018005984
124	0xbd90f4db	-0.070779525
125	0xbc1bef43	-0.009517494
126	0x3d8818a9	0.066453286
127	0xbd5b9107	-0.053605106
128	0x3c394389	0.011307606
129	0x3d8947c2	0.0670314
130	0x3caf6270	0.021409243
131	0x3d5504e4	0.052006617
132	0x3cfcac1f	0.030843792
133	0x3d56463c	0.052313074
134	0x3dc9b0ac	0.098481506
135	0xbdcf3ed8	-0.10119408
136	0x3d2554ad	0.040363956
137	0xbd1395df	-0.0360316
138	0xbc8d2937	-0.017231567
139	0x3d01cf24	0.031691685
140	0xbd90e1e3	-0.070743345
141	0x3d530640	0.051519632
142	0x3cc37b58	0.023862526
143	0x3b1c8e32	0.0023888466
144	0xbc37cf96	-0.011218926
145	0xbdcb4251	-0.09924758
146	0xbd558524	-0.052128926
147	0xbd75e41a	-0.060031988
148	0xbd25f8e4	-0.040520564
149	0xbd7488e8	-0.059700876
150	0x3d872651	0.06599105
151	0xbc91cb19	-0.01779704
152	0x3cd75185	0.026283989
153	0x3cff6638	0.031176671
154	0x3d0859be	0.03328871
155	0x3c87b9b8	0.01656805
156	0x3d275964	0.040856734
157	0xbde98f3f	-0.11404275
158	0xbc23a525	-0.009988104
159	0x3d587505	0.052845974
160	0x3cb308ae	0.021854725
161	0xbd4a0ac1	-0.049326662
162	0xbca1e6d6	-0.019763391
163	0xbd5883f4	-0.052860215
164	0xba2b8be6	-0.0006543979
165	0xbd742b39	-0.059611533
166	0x3c555bdc	0.013022389
167	0xbdad5536	-0.08463518
168	0x3c89dd3b	0.016829124
169	0x3d3bbb05	0.045832653
170	0xbb7a8969	-0.0038228875
171	0xbda6cb7c	-0.0814428
172	0x3bc553be	0.0060219457
173	0x3d0aaf53	0.03385861
174	0x3d46327d	0.048387993
175	0x3c47d709	0.0121972645
176	0x3e0b7e00	0.13622284
177	0xbc014974	-0.007891048
178	0x3de5df44	0.11224225
179	0xbdbc60c8	-0.09198147
180	0x3c241093	0.010013717
181	0x3d70ee86	0.058821224
182	0x3dac2b8b	0.08406743
183	0x3d0bafc9	0.03410319
184	0xbdec425e	-0.11536096
185	0x3d9c9b32	0.07646789
186	0xbbf0e70d	-0.007351762
187	0xbba10538	-0.004913952
188	0x3dd14be3	0.10219552
189	0x39ba1947	0.00035495518
190	0x3d92f04c	0.07174739
191	0x3db7e35e	0.08978914
192	0x3d66e8bb	0.056374293
193	0xbb9b16fc	-0.0047329646
194	0x3df8a28b	0.121403776
195	0xbb9b2b47	-0.0047353837
196	0x3dba88f8	0.09108156
197	0xbc87785d	-0.016536886
198	0xbda669b1	-0.08125628
199	0xbe27881e	-0.16360518
200	0x3d3a6abc	0.045511946
201	0x3d71bc2d	0.05901735
202	0x3de439a7	0.11143809
203	0xbc7427dc	-0.014902081
204	0xb9065d60	-0.00012814021
205	0x3d0f6aa0	0.035013795
206	0x3c5003b2	0.0126961935
207	0xbccc52b0	-0.024941772
208	0x3c960a07	0.018315328
209	0x3d3b2782	0.045691974
210	0xbcfdbd8b	-0.03097417
211	0xbda5c007	-0.08093267
212	0x3d1c9ce9	0.03823558
213	0xbbaea877	-0.005330141
214	0x3c9dd60f	0.01926711
215	0x3d6d68b0	0.057961166
216	0xbdd0090d	-0.10157976
217	0xbcdf776b	-0.027278623
218	0x3de89dd1	0.11358226
219	0x3c0fd3fc	0.008778568
220	0xbd3f0755	-0.04663785
221	0x3dcf1efd	0.101133324
222	0x3cbdbb09	0.023160474
223	0x3d633f3f	0.055480238
224	0x3d61896d	0.0550627
225	0xbd247a9f	-0.040156003
226	0x3c52e758	0.012872539
227	0x3ceaebf1	0.028676959
228	0x3d00829f	0.03137457
229	0x3d9e6a48	0.07735115
230	0xbd03995a	-0.03212867
231	0xbcbefeee	-0.02331492
232	0x3cabf834	0.020992376
233	0xbd33283b	-0.04373954
234	0xbd641db3	-0.055692386
235	0x3d8c6646	0.068554446
236	0x3c28cc8c	0.010302674
237	0xbd48724a	-0.04893712
238	0x3cd1aeca	0.025596041
239	0x3d113d5a	0.0354589
240	0xbd9207b1	-0.07130373
241	0xbddde391	-0.108344205
242	0x3e2c69ee	0.16837284
243	0xbd6f9b11	-0.058497492
244	0xbd33c6ee	-0.043890886
245	0xbd38e46e	-0.045139723
246	0xbc8587f1	-0.016300173
247	0x3d2fa83d	0.042885054
248	0xbc068bd9	-0.008212053
249	0xbcb7b6ab	-0.02242597
250	0xbc1b3d88	-0.009475119
251	0x3d022601	0.031774525
252	0xbccf35ad	-0.02529415
253	0x3b7188e8	0.0036855284
254	0xbc9c08a3	-0.019047087
255	0xbc851c86	-0.016248953

R0__42 f4 [1, 400, 100]
0	0xbcea2149	-0.028580325
1	0xbd4b016c	-0.049561903
2	0x38e50654	0.000109207496
3	0xbd12579b	-0.03572808
4	0x3c8a2015	0.016861001
5	0x3cebb2a8	0.028771713
6	0x3ca90e3b	0.020636668
7	0x3d86c5a9	0.065806694
8	0x3cb369ad	0.021900976
9	0x3c9795d2	0.018504057
10	0x3c4f0962	0.012636514
11	0xbd7c51ef	-0.061601575
12	0xbd24787a	-0.040153958
13	0x3d254b84	0.04035522
14	0x3cc46e17	0.023978276
15	0x3d42ac70	0.04752773
16	0x3b1fe662	0.0024398793
17	0xbd539741	-0.05165792
18	0xbbbdb1b1	-0.0057890047
19	0x3ca12e8a	0.019675512
20	0xbb52816a	-0.0032120594
21	0xbcda4fe5	-0.026649425
22	0xbc9458a6	-0.018108677
23	0xbd4c7920	-0.0499202
24	0x3dcab4ea	0.09897788
25	0x3cd47dc6	0.02593888
26	0xbceacf65	-0.028663347
27	0xbd07a8df	-0.033120032
28	0x3d6d1fa8	0.057891518
29	0x3d4d2fe8	0.050094515
30	0x3ca5b60d	0.02022841
31	0xbcbafc8a	-0.022825498
32	0x3d4151b4	0.04719706
33	0x3be18f44	0.0068835337
34	0xbdad452f	-0.08460461
35	0xbd1bd2f2	-0.03804297
36	0xbd3572e6	-0.04429903
37	0x3d4d370f	0.050101336
38	0xbd24fc94	-0.04027994
39	0x3a16ed4c	0.0005757406
40	0xbcda6861	-0.0266611
41	0x3cbd9b81	0.02314544
42	0xbcefc9ac	-0.02927097
43	0xbd41de79	-0.047331307
44	0x3d55c6a2	0.052191384
45	0x3c961d3f	0.018324492
46	0xbd148aa0	-0.036265016
47	0xbd043496	-0.032276712
48	0x3d595be1	0.05306614
49	0xbdd49a9c	-0.10381052
50	0xbd66e266	-0.056368254
51	0xbd0b42fe	-0.033999436
52	0x3d88159c	0.06644747
53	0xbd96515a	-0.07339735
54	0x3dd5ba78	0.10435957
55	0x3cd29306	0.025704872
56	0x3c29f180	0.0103725195
57	0x3d5d678d	0.05405383
58	0xbd10df07	-0.035368945
59	0x3dbe3117	0.09286707
60	0x3d8049e6	0.06264095
61	0xbd224391	-0.039615218
62	0xbd1e9825	-0.038719315
63	0x3d62aee3	0.055342566
64	0x3d07eb9e	0.033183686
65	0x3dbb4fa5	0.0914605
66	0xbd8cdeee	-0.06878458
67	0xbd9c40c2	-0.07629539
68	0x3d75cd77	0.0600104
69	0xbc69ad61	-0.014262528
70	0xbda6860d	-0.08131037
71	0xbd00e8eb	-0.031472128
72	0x3ceaefc6	0.028678786
73	0xbcacc3f3	-0.02108953
74	0xbd24911b	-0.040177446
75	0xbd9f669b	-0.07783242
76	0xbdb6be1a	-0.08922978
77	0x3da88b8a	0.0822974
78	0xbcdbe3a7	-0.026841952
79	0xbde75e0f	-0.11297237
80	0x3cd24423	0.025667256
81	0xbd643867	-0.055717852
82	0x3cb2b059	0.021812605
83	0xbdfefd16	-0.12450616
84	0x3da19a97	0.07890814
85	0xbd057c9f	-0.03258955
86	0x3d9acae6	0.07558231
87	0x3db451af	0.088046424
88	0xbb4df59c	-0.0031426912
89	0xbba30249	-0.0049746376
90	0xbd8150ce	-0.063142404
91	0xbd29fca8	-0.041500717
92	0xbc774989	-0.015093216
93	0xbd0f9b02	-0.035059936
94	0xbd116b2d	-0.0355026
95	0xbcb18e54	-0.021674313
96	0xbd58895c	-0.05286537
97	0x3deae2eb	0.114690624
98	0x3ca0cab6	0.01962791
99	0x3d18f738	0.03734514
100	0x3de97221	0.113987215
101	0xbd946758	-0.07246274
102	0x3d824ba2	0.06362082
103	0x3ccd792f	0.025082199
104	0xbd925ab4	-0.071462065
105	0xbca56756	-0.020190876
106	0x3d2af093	0.041733336
107	0x3d8b0456	0.067879364
108	0xbcaa38e8	-0.020779088
109	0xbd8d9e7d	-0.06914995
110	0xbcbef419	-0.023309754
111	0xbd8645b0	-0.065562606
112	0x3b8c0429	0.004272957
113	0x3d93cede	0.07217191
114	0xbd362c31	-0.044475738
115	0xbcb43ae2	-0.022000734
116	0x3d07eb17	0.033183184
117	0xbe1093e4	-0.14118916
118	0xbc1d7a64	-0.0096117
119	0x3d437408	0.047718078
120	0xbcc5f028	-0.024162367
121	0x3c7c5a92	0.015402453
122	0x3de677e1	0.11253334
123	0x3c208d8f	0.009799375
124	0xbdc428d4	-0.095781
125	0x3d9d5561	0.076823
126	0xbdae7fa7	-0.085204415
127	0xbc2e9eec	-0.010658007
128	0x3dc2ac41	0.09505511
129	0x3d801fb3	0.06256046
130	0x3dd7e902	0.105424896
131	0x3d8b0277	0.067875795
132	0x3d019958	0.03164038
133	0xbd484d97	-0.04890212
134	0x3b0b4203	0.0021249063
135	0xba345fc6	-0.00068807264
136	0xbd256861	-0.040382747
137	0x3c54b8c4	0.012983505
138	0x3c4d3256	0.012524208
139	0xbd48d2bf	-0.049029108
140	0x3d13633f	0.03598332
141	0xbc6439a0	-0.0139297545
142	0x3c6463c5	0.013939803
143	0x3db287de	0.08717321
144	0x3d036456	0.03207811
145	0x3c907ae5	0.017636726
146	0x3d43eb56	0.047831856
147	0xbc1db2a5	-0.009625112
148	0xbc061a53	-0.008184987
149	0xbd539c9c	-0.051663026
150	0x3bd7ce29	0.0065858555
151	0xbcc58de8	-0.024115518
152	0x3cc2b86e	0.023769584
153	0x3cbe8cf4	0.023260571
154	0x3cdabe60	0.026702106
155	0x3c238a15	0.009981652
156	0xbd06521f	-0.03279316
157	0xb8d07506	-9.94001e-05
158	0x3d379e0f	0.04482847
159	0x3cb403a1	0.021974387
160	0xbd2f4f7b	-0.042800408
161	0xbc17d9ba	-0.009268219
162	0x3bdb3947	0.0066901776
163	0xbb16ac3b	-0.002299084
164	0x3dc5a063	0.09649732
165	0xbd9227ba	-0.071364835
166	0x3cd792af	0.026315061
167	0xbd1a0bce	-0.037608914
168	0xbd04339e	-0.03227579
169	0x3d852ce5	0.065027036
170	0xbd810e55	-0.06301562
171	0x3dd43046	0.1036077
172	0x3d152179	0.036408875
173	0x3d7b0b82	0.06129027
174	0xbde8bfd3	-0.113647126
175	0x3bd0ea39	0.0063755778
176	0xbc78eaf4	-0.015192736
177	0x3d75464e	0.0598815
178	0x3d67e3f4	0.056613877
179	0x3dab0dbc	0.08352229
180	0xbc01b478	-0.007916562
181	0xbd0753ea	-0.03303901
182	0x3d621717	0.0551978
183	0xbcf98d48	-0.030462876
184	0xbd69c5e5	-0.057073493
185	0x3de8c13d	0.11364982
186	0xbcbc27bf	-0.022968171
187	0xbd113cf8	-0.035458535
188	0xbd662a5e	-0.05619275
189	0x3d790ad7	0.060801353
190	0xbd9a7bb9	-0.075431295
191	0x3d9e220d	0.077213384
192	0x3e0c9486	0.13728532
193	0xbdbbe240	-0.09174013
194	0xbdcc2018	-0.09967059
195	0xbd4bb718	-0.04973516
196	0xbd8268c9	-0.063676424
197	0x3d5623a5	0.052280087
198	0x3c02ac8e	0.007975711
199	0xbd822382	-0.06354429
200	0xbd31b1b3	-0.043382358
201	0xbca0d86a	-0.019634444
202	0x3d3f7614	0.046743467
203	0x3aae6084	0.001330391
204	0x3b961af0	0.004580848
205	0xbda32ad1	-0.07967151
206	0x3cee3ff7	0.029083235
207	0xbdb8a1c7	-0.090152316
208	0xbda392b6	-0.07986967
209	0xbd1aeb37	-0.037821975
210	0xbcb22518	-0.021746203
211	0xbb8bf217	-0.0042708027
212	0x3d8a18f7	0.06743043
213	0xbba08584	-0.004898729
214	0x3dd370a5	0.103242196
215	0xbd79ece6	-0.06101694
216	0x3c0b61c5	0.008507197
217	0x3cd8a009	0.026443498
218	0xbca9ca21	-0.020726265
219	0x3bd1b9ad	0.006400308
220	0x3dcdb7a8	0.10044795
221	0xbd54adab	-0.051923435
222	0xb8926a3a	-6.981609e-05
223	0x3d85627f	0.06512927
224	0x3d950cf5	0.07277862
225	0xbb4ca7c1	-0.0031227919
226	0xbe2e5e7e	-0.17028233
227	0x3c5d547a	0.01350891
228	0x3d1923e0	0.03738773
229	0x3d84aa92	0.06477846
230	0xbd703c9e	-0.05865156
231	0xbd7f3ab4	-0.062311843
232	0xbd5a87d4	-0.053352192
233	0x3de2c155	0.110720314
234	0x3caa7a04	0.020810135
235	0xbc68d6d0	-0.014211372
236	0x3d67f2ce	0.05662804
237	0x3ddcfda3	0.10790565
238	0x3d8f4fd2	0.069976464
239	0x3d85b5bf	0.06528806
240	0xbd4585fc	-0.04822348
241	0xbdce81c8	-0.100833476
242	0xbd779876	-0.060448132
243	0x3d836a90	0.064168096
244	0xbd9fb010	-0.07797253
245	0x3d873144	0.066011935
246	0x3d2522bb	0.040316325
247	0x3b8e969e	0.004351451
248	0x3dd3bb24	0.103384286
249	0x3d8b2249	0.06793649
250	0xbd446868	-0.047951132
251	0xbd373c82	-0.04473544
252	0x3cb27c2e	0.02178773
253	0xbde771b1	-0.11300982
254	0x3e10b7e8	0.14132655
255	0xbcf10325	-0.029420445

B0__64 f4 [1, 800]
0	0x3aa5a8d9	0.0012638821
1	0xbbd311da	-0.006441337
2	0x3c8c5217	0.017128987
3	0xbc7b4de8	-0.0153383985
4	0x3c10348e	0.0088015925
5	0xbc3fd0c0	-0.011707485
6	0x3c939c2e	0.018018808
7	0xbc6c7b8f	-0.014433756
8	0xbca6bdf0	-0.020354241
9	0x3ccb5b31	0.024823757
10	0x3c9c8231	0.019105049
11	0x3c1bc85c	0.009508219
12	0xba6d13db	-0.0009043791
13	0x3bc58ffa	0.0060291262
14	0xbb961a8b	-0.004580801
15	0x3cc73aeb	0.024320086
16	0x3c6597fe	0.014013289
17	0x3bcb6d44	0.006208094
18	0x3cca22f5	0.024674872
19	0x3d0ce420	0.034397244
20	0x3cdbee23	0.02684695
21	0xbcaa4f73	-0.020789837
22	0x3cc5eb5f	0.024160085
23	0xbb9b5ca2	-0.0047412673
24	0x3cc8ec35	0.024526695
25	0xbabf5681	-0.0014597924
26	0x3d2a22af	0.041536983
27	0x3c89ac8b	0.016805908
28	0x3d121149	0.035661016
29	0xbc91ae61	-0.017783346
30	0x3c3bdd23	0.011466297
31	0xbbfe04d5	-0.007752041
32	0x3bd93d97	0.0066296565
33	0xbc752010	-0.014961258
34	0x3b16091d	0.0022893616
35	0x3c7b47a5	0.015336906
36	0xba527ee9	-0.00080297753
37	0xbbe46ff9	-0.006971356
38	0x3cefbadf	0.029263912
39	0x3b2c04e1	0.0026248025
40	0xbb8071d7	-0.0039198208
41	0x3ceecc4e	0.029150154
42	0x3c1bb897	0.009504459
43	0xbb923dcd	-0.0044629336
44	0xbc53b2db	-0.01292106
45	0x3c78c0b7	0.015182666
46	0xbc0a9e6b	-0.008460621
47	0x3c44c622	0.012010129
48	0x3cc1b4eb	0.023645839
49	0x3bf46611	0.0074584563
50	0x3b9bf7b3	0.0047597527
51	0x3d4f564f	0.05061942
52	0x3bb7894e	0.005601085
53	0xb99d2e5d	-0.00029979917
54	0x3bded47c	0.0068002325
55	0x3cdcc6a4	0.026950188
56	0x3b3c45d7	0.0028728151
57	0xbd00660f	-0.03134733
58	0xba87dd06	-0.0010365553
59	0x3c80b9f7	0.015713675
60	0x3a65cee9	0.0008766489
61	0x39a0ae93	0.00030647646
62	0x3c82b0f7	0.015953524
63	0x3c6ffe00	0.014647961
64	0xba8f87be	-0.0010950489
65	0xbc181396	-0.009282013
66	0x3c0f44f9	0.008744472
67	0x3c93364e	0.01797023
68	0xbb63aa1c	-0.0034738844
69	0x3c566784	0.0130862035
70	0x3c2d3050	0.010570601
71	0xbc950422	-0.018190447
72	0xbc2b686b	-0.010461907
73	0x3c7480eb	0.014923315
74	0x3db2c6b9	0.087293096
75	0x3d97940a	0.07401283
76	0x3c869295	0.016427318
77	0xbc7f16ba	-0.015569383
78	0x3b5eb672	0.0033983258
79	0x3bc8aae1	0.006123886
80	0x3cd2f285	0.025750408
81	0x3d0803ba	0.03320668
82	0xbc45b63b	-0.012067373
83	0x3b46af2c	0.0030316813
84	0x3c5b7217	0.0133939
85	0x3d036d8d	0.032086898
86	0xbb5ad022	-0.0033388217
87	0x3c05d840	0.008169234
88	0xbc89c076	-0.016815405
89	0x3c245152	0.010029154
90	0x3c4c7986	0.012480145
91	0xbbffad9c	-0.0078026783
92	0x3c1f527c	0.009724256
93	0xbc698e16	-0.014255067
94	0x3a66b6b0	0.0008801026
95	0x3ad84311	0.001649948
96	0xbbadf2d5	-0.005308489
97	0x3b979053	0.004625359
98	0xbc0a502f	-0.008441969
99	0xbbb6935d	-0.0055717663
100	0x3ac18c85	0.001476661
101	0x39b94d27	0.00035343433
102	0x3c81bfbd	0.015838498
103	0xbc6e404c	-0.014541697
104	0x3c13c803	0.0090198545
105	0xbbcac27c	-0.006187735
106	0x3c94d3c2	0.01816738
107	0xbcc4db29	-0.024030285
108	0xbc938e6a	-0.018012244
109	0x3cb376bb	0.021907201
110	0x3cd20405	0.025636682
111	0x3c60569a	0.013692522
112	0xbb0fb1b6	-0.0021925992
113	0x3c869cdb	0.016432216
114	0xbb765eb8	-0.0037593078
115	0x3ce40eed	0.027839148
116	0x3ca1d9ed	0.019757235
117	0xbac33abf	-0.0014894827
118	0x3cce3595	0.025172034
119	0x3d2a8289	0.041628394
120	0x3d115add	0.035487045
121	0xbcad90be	-0.021187183
122	0x3ccf2a44	0.025288709
123	0x3a2c622e	0.0006575909
124	0x3cd36ff0	0.025810212
125	0xbb88896b	-0.004166772
126	0x3d377770	0.04479164
127	0x3ca150b6	0.019691806
128	0x3d096877	0.03354689
129	0xbc532549	-0.012887307
130	0x3c451bd8	0.012030564
131	0xbc0ea048	-0.008705206
132	0x3bfad25e	0.0076544723
133	0xbc642f04	-0.013927225
134	0x3b0c4c72	0.002140787
135	0x3c87cf00	0.016578197
136	0xbb644380	-0.0034830272
137	0xbb98a411	-0.00465823
138	0x3d13cc9b	0.0360838
139	0x3bb1f3f0	0.005430691
140	0xba99f8fe	-0.0011747179
141	0x3d02ed51	0.031964604
142	0x3c375ba4	0.011191282
143	0xbbcc7a9e	-0.006240203
144	0xbc3a6b33	-0.011378097
145	0x3c9c89cd	0.019108677
146	0xbbe092ad	-0.0068534226
147	0x3c4ad594	0.012380023
148	0x3d0537e0	0.03252399
149	0x3c2bba97	0.010481498
150	0x39b3202e	0.00034165516
151	0x3d5f203a	0.054474093
152	0x3b491900	0.0030685067
153	0x3ac49533	0.0014998078
154	0x3bd9cd2c	0.006646773
155	0x3beba22b	0.007190963
156	0x3b83d8b9	0.004023638
157	0xbcd630d8	-0.026146337
158	0x3bb1879a	0.0054177763
159	0x3c74e180	0.0149463415
160	0x3b3c4d6a	0.0028732666
161	0x3b678efd	0.003533303
162	0x3c728342	0.014801802
163	0x3c6cb280	0.014446855
164	0xbc14c127	-0.009079254
165	0x3b50bb19	0.00318498
166	0x3c017c89	0.007903227
167	0x3c99956b	0.018748006
168	0xbb406b71	-0.0029360915
169	0x3c31b897	0.010847232
170	0x3c219333	0.009861755
171	0xbc509f1c	-0.012733247
172	0xbbf6161b	-0.0075099594
173	0x3c6b4e89	0.014361986
174	0x3db7287b	0.08943268
175	0x3d93e6f5	0.07221786
176	0x3ca28e18	0.019843146
177	0xbc879d22	-0.016554419
178	0x3bad6c7a	0.0052924724
179	0x3b8cf921	0.0043021594
180	0x3ce04f7f	0.027381657
181	0x3d0fc9f1	0.035104696
182	0xbc1ec29f	-0.009689956
183	0x3bb0142a	0.0053734975
184	0x3c5d9d90	0.013526335
185	0x3cfaa704	0.030597217
186	0xb8d1fa60	-0.000100125326
187	0x3c669ab8	0.014074974
188	0xbc6fcb49	-0.014635869
189	0x3c3ebc02	0.011641504
190	0x3c31a171	0.010841713
191	0xbbffba5f	-0.0078041996
192	0x3c366866	0.011133289
193	0xbbfc1559	-0.0076929745
194	0x3b3d25f6	0.0028861738
195	0x3b13b842	0.0022540246
196	0xbc2c7f51	-0.0105284015
197	0x3be31a32	0.006930613
198	0xbc1e43c6	-0.009659713
199	0xbc3aea76	-0.011408439
200	0x3f79f431	0.9763823
201	0x3f72e5ba	0.94881785
202	0x3f7c2d84	0.9850695
203	0x3f7c1c05	0.98480254
204	0x3f800acf	1.0003299
205	0x3f799225	0.97488624
206	0x3f78bd80	0.97164154
207	0x3f74e156	0.95656335
208	0x3f6e6755	0.9312642
209	0x3f81d041	1.0141679
210	0x3f7aff2f	0.9804563
211	0x3f786303	0.9702608
212	0x3f789c1b	0.971132
213	0x3f71d9d7	0.9447302
214	0x3f7afd16	0.9804243
215	0x3f75d8c5	0.9603389
216	0x3f7abcac	0.9794414
217	0x3f7f2d90	0.996789
218	0x3f7500fa	0.95704615
219	0x3f7702f5	0.9648889
220	0x3f7917e8	0.97302103
221	0x3f72ae43	0.9479715
222	0x3f7ca867	0.9869446
223	0x3f7a8041	0.9785195
224	0x3f6e502d	0.9309109
225	0x3f7d80e2	0.99024785
226	0x3f79b32e	0.9753903
227	0x3f7df105	0.9919589
228	0x3f6c034d	0.92192537
229	0x3f78fa14	0.9725659
230	0x3f6dd7e6	0.9290756
231	0x3f73582a	0.950564
232	0x3f70b34a	0.94023573
233	0x3f7c6e89	0.98606163
234	0x3f6f329c	0.934366
235	0x3f7cdf87	0.98778576
236	0x3f7d59a1	0.9896489
237	0x3f790def	0.97286886
238	0x3f6d6890	0.92737675
239	0x3f7e0e6d	0.9924076
240	0x3f7cb662	0.98715794
241	0x3f79a7d3	0.97521704
242	0x3f6c77e5	0.92370445
243	0x3f76457f	0.9619979
244	0x3f77f73b	0.9686162
245	0x3f7b42e0	0.9814892
246	0x3f78fea8	0.97263575
247	0x3f79bd80	0.9755478
248	0x3f78c141	0.9716988
249	0x3f7ea522	0.9947072
250	0x3f7524c8	0.9575925
251	0x3f6d34d0	0.9265871
252	0x3f6c8375	0.9238809
253	0x3f7aac04	0.97918725
254	0x3f7b44b5	0.98151714
255	0x3f820c89	1.0160075
