DL and sentiment analysis/model_ethusdt.onnx (onnx, 905579 bytes, 9 tensors)

sequential/dense/MatMul/ReadVariableOp:0 f4 [100, 1]
00000000: b0ff 6ebe 8742 5c3e b77e 9ebd 3357 5bbe
00000010: f477 553e c1eb 8cbe e894 8fbd 1179 ca3d
00000020: 1790 02be 4145 f1bd cc4c 87be c810 573e
00000030: 3952 0bbe 7df9 80ba 663f 813d 4c49 203e
00000040: 53e6 9abe cf3b 76be 90e2 b3bc f40a aebd
00000050: 0a7f 77be 2bfe f2bd f598 43be 0431 0e3e
00000060: b446 44be 0ec2 d5bd 458f 2abd cefe 59bd
00000070: e02c 59be b327 ed3d f10b 6d3e a96f 7bbe
00000080: 9568 3d3e 1f54 623d 662d 7b3e 255b 50be
00000090: e1b5 363e fd93 97be 2da2 e1bd aef3 10be
000000a0: aa6d 65be 9288 43be f919 8e3e 5716 033a
000000b0: ba83 98be 8cce e13d a581 a13d caf0 f93d
000000c0: db08 763e 692e 42be b892 57be aaa4 39be
000000d0: 72b6 433e d023 733e 3f8f 88be 389e 18be
000000e0: cc63 023e e6bd 89be bc62 89bd ce06 60be
000000f0: 1a45 783e facc 823e 00bf ca3c f447 a0bd
00000100: d7dd 5abe 7709 d4bd aab6 5a3e bbd2 6f3e
00000110: f4ea ad3d 10ea 503d eb60 7abe cf85 593e
00000120: 864e 1a3e 2f9b 8a3e ddbf db3c 69d9 1c3e
00000130: 5986 203e a004 383e 8f10 8fbe c11c 1d3e
00000140: ace3 62be 25a8 f6bd fdc1 023e 13d9 e6bd
00000150: b70e 483e 032c 80be 37fe 6a3e 2ef2 2fbd
00000160: 9a12 843e 3fd9 883e 4769 62be 1518 483c
00000170: 1994 8cbb 493d 103e 0433 84be 45e9 293e
00000180: bfeb b43d e778 753e 9acf 28be 2345 563e
-0.23339725 0.21509753 -0.07739013 -0.21419983 0.2084654 -0.27523616 -0.070108235 0.09886373
-0.12750278 -0.11780787 -0.2642578 0.21002495 -0.13605584 -0.0009839978 0.063109204 0.1565296
-0.30253848 -0.24046253 -0.02195862 -0.08498183 -0.24169555 -0.11864885 -0.19101317 0.13885885
-0.19167596 -0.104374036 -0.04164054 -0.053221516 -0.21208525 0.11579838 0.23149087 -0.24554314
0.18496926 0.055256005 0.24529037 -0.20347269 0.17842819 -0.29605094 -0.11017261 -0.14155456
-0.22405115 -0.19095066 0.2775419 0.00050005823 -0.29788 0.11025724 0.07886056 0.1220413
0.24026816 -0.18963017 -0.21052063 -0.1812922 0.19112566 0.2374413 -0.26671788 -0.14904106
0.12733382 -0.26902694 -0.06708285 -0.21877596 0.2424511 0.2554701 0.024749279 -0.07826224
-0.21373688 -0.10353368 0.21358743 0.23420231 0.084920794 0.05100447 -0.24451034 0.2124245
0.15069017 0.2707152 0.026824886 0.1531731 0.1567625 0.17970514 -0.2794232 0.15343
-0.22157162 -0.1204379 0.12769313 -0.11271872 0.19536863 -0.25033578 0.22948538 -0.04295557
0.25795442 0.26728246 -0.22110473 0.012212773 -0.0042901156 0.14085878 -0.25820172 0.16592892
0.088340275 0.23971902 -0.16485444 0.20924811

sequential/conv1d/Conv1D/ExpandDims_1:0 f4 [256, 1, 1, 2]
00000000: 9dd7 a7bd b3f4 843c b907 ad3d cff3 b33d
00000010: a1f2 a83d c04b e8bd bb7e dabd 1a90 58bd
00000020: 17a9 a33c 504f 843d 2962 973d e55a 55bd
00000030: 9c98 74bd ff94 053e 3637 6c3c c1dc 243d
00000040: b8d2 9b3c 719b fa3b dcf1 3a3d 76ae 023d
00000050: a8f5 a13d abd0 e93c 55bd 80bd ed82 fd3c
00000060: 3934 d23c e7f5 353d 023c b73d 608b 15bc
00000070: 9750 82bd 5889 2ebc d03a 39bc 2d16 353d
00000080: 63f4 1e3c 9f1b febc 6d1e ec3c fdd2 4b3d
00000090: cb36 9a3d cfa7 953d 036a 6ebd 7d00 913c
000000a0: f37e dc3d f33a ff3c 8fc1 bfbd c0a2 843d
000000b0: 904e 55be 40ac 0fbe 7a34 0fbd 2063 3abd
000000c0: a1b1 093e d95e 14be 506a 2f3e a55f 40be
000000d0: b4ab ad3c 8f1e 9a3c 84e0 873d 88c0 cbbd
000000e0: 086a 693d 4cea 4dbc 6877 d7bd bc6f ba3c
000000f0: e351 d9bd e053 9dbc 2b8c bc3d b64d a43d
00000100: 54a6 2a3e 5801 40be 12e7 50be 4d1a 02be
00000110: 8587 b73d 3eb3 9e3d 1a51 da3d 5c19 c83c
00000120: ee3d 26bc 56c0 c13d deab b0bd 00fe 32bb
00000130: 810e 253e d2da 3dbe 3125 ef3c 3248 09bd
00000140: cf4b a2bd 6868 5a3d 6c2d a9bc 63dd e33d
00000150: 21bb cdbd 455e 5b3d 3ac8 943d 1616 033e
00000160: c517 ac3d 0ecb 123d d340 85bd 734b db3c
00000170: 7efd 25bd eeeb b7bd b1ed 8f3d b131 b03b
00000180: cd62 6c3c 525f 29bd 9d51 8cbd a088 a3bc
00000190: edf4 babd c4b0 123d 8038 09ba 4aff d8bd
000001a0: 93ef 2b3e 2068 39be 3843 f83d 9482 02be
000001b0: 38da 533e be82 6abe dc27 f33c 6371 83bd
000001c0: 2ecf b43d e707 923c 3794 d8bd 6708 a33d
000001d0: 8f09 b13c d28f d73d ee17 3ebb 7ecc cbbc
000001e0: 02ad 73bd 4237 893d c846 a2bd d680 703d
000001f0: ea69 7bbd 8c92 8fbc 63d5 8fbc f7fb 3c3d
00000200: 2c13 3fbc a6e9 6e3d 99c5 cbbd 283c a23d
00000210: 14d9 f9bc e5d4 a7bd 55ed cd3d 74af b1bc
00000220: 7490 263e 694e 3dbe 0b02 d23d e4ff 13bd
00000230: f5fa f53d 7d2f e1bd 1055 f2bb 7eb5 b1bd
00000240: 3c2f 93bd e34e f13d 7ca9 f13b 4e0c 12bd
00000250: b5ac c93d 49f7 2e3d e15c cabd b2eb 1dbd
00000260: 4cee 98bd 0aba 373d 31f1 ad3d a32b b93d
00000270: 2f99 62bd 9878 a0bd 4743 b83d 99e6 af3d
00000280: 0519 a0bd 30dc 1c3d f753 1bbd 8054 8f3d
00000290: 8d89 053e a267 0dbe 938b dabd 7b0a 7e3b
000002a0: e1fd 6ebb 9ad0 173d 56a0 9f3d a853 ec3d
000002b0: 6c38 d33d 8516 263d 5c30 b3bd 4c2c 273d
000002c0: 70db 83bb b86f 3fbd cf8b 0fbc f2b3 c13d
000002d0: 0e15 b6bd 93d4 c33b 3adf 0f3e 9a36 21be
000002e0: 202b c1bd bc9a 86bd 232e 843d 4889 82bc
000002f0: 48e9 c63d c3d6 9b3d 71cd ca3d 350a 8abc
00000300: 2986 e03d 461b 7abd d54e 9b3d 9ac0 d6bc
00000310: b7e0 8bbd b5f8 6e3d 7951 bb3d 6771 933d
00000320: 91b9 8d3d 24b0 9c3d d076 463d 3388 b93d
00000330: 0d12 b43c 8976 603d b8b6 13bd 3823 65bc
00000340: 6811 d539 2caf 073d 4bc5 ca3d 1080 51bd
00000350: 6a82 51bd 48fc d63d e5b9 65bc fa07 b43d
00000360: 97b4 ac3d 8a5a 8c3d e4a3 683d 709f b1bd
00000370: 693c f93d 75bc ffbd 9d4c 94bd 91ef a9bd
00000380: d681 04bd 8188 123c df18 c9bd 8a49 a33d
00000390: 79fa 11bd e96f d23d b0f0 84bc 52ac 6cbd
000003a0: 6871 783d 3457 d63c a18f 723d ee8f afbd
000003b0: 107e c5bc a790 c73d aa77 babd 0be2 7a3d
000003c0: 1eb3 713d f89f 983c a73e 6bbd 2d46 8bbe
000003d0: df3b d13b b06c 0a3c 2f8b 3dbc f830 f03d
000003e0: 79f3 59be 11bd 9dbd 988c 81bd 03a8 123d
000003f0: 7425 e1bc da33 683d 61b9 d33d 2252 35bc
-0.08195422 0.016229963 0.084487386 0.08786737 0.08249403 -0.11342573 -0.10668703 -0.0528718
0.01997809 0.0646044 0.073917694 -0.052088637 -0.059715852 0.13045119 0.01441746 0.04024959
0.019021377 0.0076479246 0.04564081 0.03190466 0.07908183 0.028541883 -0.06286112 0.03094622
0.025659667 0.044423964 0.089469925 -0.009127468 -0.063630275 -0.0106528625 -0.011305526 0.0442106
0.009701821 -0.03101903 0.028823102 0.04976176 0.07529982 0.073073976 -0.05820657 0.017700428
0.10766401 0.031156039 -0.0936309 0.064763546 -0.2083075 -0.14030552 -0.034962155 -0.04550469
0.13446666 -0.14489307 0.17130399 -0.18786485 0.021200038 0.0188134 0.0663462 -0.09948832
0.056985885 -0.012568068 -0.10520822 0.022758357 -0.10611322 -0.019205034 0.092064224 0.08022635
0.16665012 -0.18750513 -0.20400646 -0.12705345 0.08961395 0.077490315 0.1066 0.024426155
-0.010146601 0.09460513 -0.08626531 -0.002731204 0.16118814 -0.18540505 0.029192539 -0.033516116
-0.079246156 0.053322226 -0.020651542 0.111262105 -0.10045458 0.0535567 0.07264753 0.12801394
0.08402971 0.03583818 -0.06506505 0.026769375 -0.040524952 -0.08980547 0.07027758 0.0053770174
0.014427853 -0.04135067 -0.06851504 -0.019962609 -0.09128747 0.035813108 -0.00052345544 -0.105955675
0.16790609 -0.18106127 0.12122196 -0.12745124 0.20688713 -0.22901437 0.029682092 -0.06418111
0.08828579 0.017826034 -0.10575145 0.07960587 0.021611003 0.105254784 -0.0029005962 -0.024877783
-0.059491165 0.06699993 -0.07923657 0.058716618 -0.061380304 -0.017525934 -0.017557805 0.04613873
-0.011662286 0.058328293 -0.09949798 0.0792163 -0.030499019 -0.08194903 0.10055033 -0.021690108
0.16266042 -0.18486942 0.10254296 -0.03613271 0.12010757 -0.10995386 -0.007395394 -0.08677195
-0.071867436 0.117826246 0.0073749404 -0.035656266 0.098473944 0.0427163 -0.098809965 -0.038554855
-0.074673265 0.044855155 0.08493269 0.09041526 -0.05532187 -0.078355014 0.08997207 0.08588905
-0.07817272 0.038295925 -0.037921872 0.06998539 0.13040753 -0.13809064 -0.10671153 0.003876357
-0.0036467242 0.037064172 0.077942535 0.11539394 0.10313496 0.04054882 -0.08749458 0.04081373
-0.0040239617 -0.046737403 -0.00876136 0.0945815 -0.088907346 0.0059762686 0.14049998 -0.15743485
-0.094320536 -0.06572482 0.064541124 -0.015934601 0.097124636 0.07609322 0.09902466 -0.01685057
0.10963089 -0.061061166 0.075833954 -0.026214886 -0.0682997 0.058342654 0.09146399 0.07199364
0.069201596 0.07650784 0.048453152 0.09059181 0.021981264 0.054800544 -0.036062926 -0.013985448
0.00040639495 0.03312604 0.09900912 -0.05114752 -0.051149763 0.104973376 -0.0140213715 0.08790584
0.08432882 0.068532065 0.056796923 -0.086729884 0.121697254 -0.12487117 -0.07241175 -0.08297647
-0.032350384 0.008943678 -0.09819197 0.07973011 -0.03563926 0.102752514 -0.01622805 -0.057781525
0.060655028 0.026164629 0.059219006 -0.08572374 -0.024107963 0.09744387 -0.09104855 0.061250728
0.05900871 0.018630967 -0.057432797 -0.27201977 0.006385311 0.008448765 -0.0115688285 0.1172809
-0.21284284 -0.07702077 -0.06325644 0.03580476 -0.02748368 0.056690075 0.103380926 -0.011066945

const_fold_opt__158 f4 [1, 256, 1]
00000000: 14f2 7dbb 8aa7 4d3b fba9 fb3c 0000 0000
00000010: 0d4e c2ba 081f 1f3c 0a85 b7ba 679f 593c
00000020: 91a2 a8ba 7d0a 8aba c569 e7ba b2cc a2ba
00000030: 6699 fbba fe4e 6fbd 0000 0000 14bf 29ba
00000040: 9deb e93c 8c64 a13c 44b5 96bb dd59 68bb
00000050: d351 16bb f340 f63c 8577 283d 0000 0000
00000060: d237 ecbc 4bfb e6bc b62a ab3c 5ad1 003d
00000070: 598e 52ba a583 8bbb 0000 0000 a4ce c1ba
00000080: b5ef e0bc 4470 1f3d 78e4 f539 c4ce e6ba
00000090: dd7e d8ba 0000 0000 c117 f0bc 2874 dc3c
000000a0: c78e d03c 8012 ddba 3f4d 9dbb 870a 60bb
000000b0: 460b b63c 3682 173d 0000 0000 815e a9ba
000000c0: ab77 f23c 0000 0000 e140 92bb 0000 0000
000000d0: cbec febc 4fb4 d3bc f82c 0abd a44b 093d
000000e0: 0b11 a93c 3087 ec3c ae24 11bb 268c 91bb
000000f0: bd64 893a ad40 c2bb 0000 0000 7cf0 b9ba
00000100: f673 8fba 9d68 c2bb 0000 0000 0bef 34ba
00000110: 4a27 e9bc af7a acbc 4c80 d1bc 0000 0000
00000120: 073d 5eba 6ed7 df3c 29db b3ba 0000 0000
00000130: 41fd e43c 32e3 25bb 0000 0000 6e8c 8ebb
00000140: 3178 87bb 90dd a03c 5501 d7bc 4c19 8abb
00000150: 718b a23c fefa 2ebb ebc3 05bb 91d1 a3bb
00000160: 0000 0000 6334 9eba a00e 7ebb 6321 c4bc
00000170: 0000 0000 ec2d fabb 0ee1 8bbb 2d38 9fba
00000180: cea6 e2b9 3c88 803c 9944 7b3c e2fc feba
00000190: e2ca 8abb 8317 e4ba 00db 4aba 0000 0000
000001a0: 0b41 ab3c 187e 01bb 9a4e b6ba 15cd cbba
000001b0: 90a9 01bb dae7 e23c 4d28 d4bc 0000 0000
000001c0: 4fac a8bb 4394 aa3c 3d58 15ba 0000 0000
000001d0: 2d8e 99ba 2e6e eb3c 7e62 c0ba b4ec ef3c
000001e0: f3f6 cd3b 218c 923d 3ca3 8f3c c629 06bb
000001f0: cfad 083d 6eda ed3c 6ba7 29bb df5e e0ba
00000200: e32d e7ba 0000 0000 196d 92ba 0000 0000
00000210: e294 113d 0000 0000 d3b9 af3c ce8e ba3c
00000220: 0000 0000 1dd0 8a3c ae83 ae3c ba73 a5bb
00000230: d377 733c 886f 423c 37f8 093d 6267 103d
00000240: 8f65 f8bc 0000 0000 62c0 503c 477d c33c
00000250: 0000 0000 6c0f 81ba 0000 0000 963a 2bbc
00000260: a97d e53c 0000 0000 d0fc 9f3d 0000 0000
00000270: abae 3dba cb76 82bb 0000 0000 e6c9 bdba
00000280: 869b d0ba 92ed 643c 93d1 5f3d 0000 0000
00000290: 0000 0000 0ea3 2bbb 969b 083c 50d2 d3bc
000002a0: 0000 0000 a765 76bb 0000 0000 849e 5aba
000002b0: 0000 0000 4038 11bb 5317 393c 9179 d43c
000002c0: e1c0 95bb bb53 54ba 4c34 05bb 4e08 11bb
000002d0: 0000 0000 025a c53c 04df 0a3d da05 f33c
000002e0: 9285 04bd 2df4 e5bb f972 e63c 0000 0000
000002f0: 0000 0000 060c 6b3c 7be2 4aba 0000 0000
00000300: 8b77 b33c f913 073d 4a96 763c 0000 0000
00000310: 91d3 87ba b4c4 0dbb 74f6 13bd 67db b1ba
00000320: 0000 0000 0000 0000 4cbe 4fba ca66 a33c
00000330: 0000 0000 8138 f53c 0000 0000 fc63 f9bb
00000340: 04c3 0e3d 7085 f2bc 0c9d d1bc 6671 193d
00000350: 0000 0000 21b4 beba 0000 0000 c34b 2ebb
00000360: 7550 66b9 2f00 ebbc e20d 473c 0000 0000
00000370: 15e9 8cbb 4545 caba 0000 0000 ccc3 da3c
00000380: b44a dabb d319 df3c 9a82 1ebc 0000 0000
00000390: 9ea2 e73c e737 893d a650 71ba fbb9 a2ba
000003a0: 0000 0000 f8be 263c 0fe1 933c 5d3b 8a3c
000003b0: 0000 0000 0000 0000 18fa d1bc 0000 0000
000003c0: 0be0 c53b ffeb b8bb 2c45 6e3c 70a1 54ba
000003d0: bbb4 e53c 7af1 2abb b17d 0dbb 0000 0000
000003e0: 0264 5cba baa0 943c f826 4dbb 9145 36bb
000003f0: 1faf 1cbd 0000 0000 4e1a ccba 0000 0000
-0.0038749026 0.0031380379 0.030720701 0.0 -0.0014824286 0.009711988 -0.0014001441 0.013282633
-0.0012865831 -0.001053169 -0.0017655423 -0.0012420623 -0.0019195497 -0.058424942 0.0 -0.0006475311
0.028554732 0.019701265 -0.0045992453 -0.0035453953 -0.0022936955 0.030060267 0.041129608 0.0
-0.028835211 -0.028195998 0.02089439 0.031449653 -0.0008032076 -0.0042576366 0.0 -0.0014786315
-0.027458051 0.038925424 0.00046900264 -0.0017609228 -0.00165173 0.0 -0.029308202 0.026910856
0.025458707 -0.0016866475 -0.004800468 -0.0034185962 0.022222172 0.036989413 0.0 -0.0012921841
0.029598078 0.0 -0.0044633006 0.0 -0.031118771 -0.025842814 -0.03373429 0.033519402
0.02063801 0.028873056 -0.0022147107 -0.004441756 0.0010482293 -0.00592812 0.0 -0.001418605
-0.0010944593 -0.005932881 0.0 -0.0006902075 -0.028461117 -0.021054594 -0.025573872 0.0
-0.0008477722 0.027324405 -0.0013721931 0.0 0.027952792 -0.002531242 0.0 -0.0043502366
-0.004134201 0.0196369 -0.026245752 -0.0042144414 0.019841881 -0.0026699896 -0.0020410966 -0.0049993475
0.0 -0.0012070056 -0.0038766041 -0.023941701 0.0 -0.007634869 -0.004268772 -0.0012147479
-0.00043230358 0.015689962 0.015336179 -0.0019454027 -0.0042356113 -0.0017402027 -0.0007738322 0.0
0.020905038 -0.0019758996 -0.0013908923 -0.001554879 -0.0019784905 0.027698446 -0.025898123 0.0
-0.005147494 0.02082265 -0.00056970475 0.0 -0.0011715345 0.028739061 -0.001467779 0.029287674
0.006285542 0.07155634 0.01753389 -0.0020471676 0.03336888 0.02903482 -0.0025887142 -0.0017118118
-0.0017637577 0.0 -0.001117143 0.0 0.035542376 0.0 0.021450913 0.022773173
0.0 0.01694494 0.021303024 -0.005049196 0.014860111 0.011867411 0.03368398 0.035254844
-0.030321864 0.0 0.01274118 0.023863448 0.0 -0.0009846515 0.0 -0.01045098
0.028014021 0.0 0.07811892 0.0 -0.00072358054 -0.0039814464 0.0 -0.0014479726
-0.001591549 0.013972657 0.054643225 0.0 0.0 -0.0026189717 0.008337876 -0.02585712
0.0 -0.003759721 0.0 -0.00083396607 0.0 -0.0022158772 0.011297065 0.025936874
-0.004570112 -0.0008099635 -0.002032536 -0.0022130194 0.0 0.02409077 0.03390409 0.029665876
-0.032353945 -0.0070176334 0.028130995 0.0 0.0 0.014346128 -0.00077394367 0.0
0.021907588 0.03297803 0.01505048 0.0 -0.0010362734 -0.0021632137 -0.036123708 -0.0013569415
0.0 0.0 -0.000792478 0.019946475 0.0 0.02993417 0.0 -0.007610796
0.03485395 -0.029604644 -0.025587581 0.03746166 0.0 -0.0014549532 0.0 -0.002659545
-0.00021964482 -0.028686611 0.012149306 0.0 -0.0043002465 -0.0015432021 0.0 0.026704691
-0.0066617373 0.027233994 -0.0096746925 0.0 0.028275784 0.06700116 -0.0009205438 -0.0012415046
0.0 0.010177366 0.018051652 0.01687401 0.0 0.0 -0.02563195 0.0
0.006038671 -0.0056433673 0.014542859 -0.0008111214 0.02804028 -0.0026083873 -0.002158981 0.0
-0.00084072363 0.018143047 -0.0031303745 -0.002781246 -0.038252946 0.0 -0.0015571804 0.0

W0__62 f4 [1, 400, 100]
00000000: 8663 23bd 1860 c8bd f07e de3d e024 2f3e
00000010: 94b4 b7bd 7731 fb3d e090 30be 4014 833d
00000020: dc40 913d 49c8 2b3d 9fad b23d 04a5 dbbd
00000030: ac9e 5d3d 1a91 6c3d 75ab 1b3c e045 89bc
00000040: c438 26bd 639c d5bb 1642 27bd b495 01bd
00000050: 2b11 db3d 6af2 b63d 8420 dabc ea34 8b3d
00000060: 2aee e3bd d0c1 2f3c 86d2 82bd 530d 7abd
00000070: 81ba 7d3c 2230 a1bd 9602 6dbd 61da d0bd
00000080: 2dd4 abbd 8ad2 74bd 9ebe 5a3d 3563 a8bd
00000090: 5c92 953d cef2 163e f5c5 56bd 7640 943d
000000a0: 8aba b7bd 9bb7 9ebd 85f4 3b3d 8a56 c73c
000000b0: 96ca 81bd a388 573d 1b39 883d 895d a73d
000000c0: 6808 01be 9ca6 ef3d 0049 443d b327 6c3d
000000d0: 03ab 443d ee86 bf3d 0c01 91bd e898 2ebc
000000e0: 5738 d6bd 4b41 02be ee9b 243e fb56 d3b9
000000f0: 42d0 893d 69f4 3abc f416 d4bd 1c05 85bb
00000100: 8def e73c 8794 8fbc 49e7 d1bd 0623 3cbc
00000110: 0b56 fd3d 619e 86bc 3901 ad3b 2ee1 323d
00000120: ede1 1fbd fa2e 45bd dfee 24bd 7fdf d9bd
00000130: 5876 b63d c1bd 033e f433 1cbc 3ac4 4c3d
00000140: 6095 c73c 1a9b 53bd 159a dbbc 3339 26bd
00000150: 774c 3e3d fbbf 94bc c8c4 6abc c675 893d
00000160: fb27 9dbb 40c8 3ebc 3ad7 9c3b 22fa cfbd
00000170: 7942 a5bc 2b6d a3bd 4616 b43c 51c5 133d
00000180: c818 483d 19fc bf3d ae40 1b3c ef7a 853d
00000190: f933 2f3d 24ee 8c3d 204f 14bc a2ba ed3d
000001a0: 4f20 1fbd 6f25 acbc b322 1fbd 94b4 1aba
000001b0: 614d 8f3d 1465 c93d 513d af3d 9448 eaba
000001c0: fa81 99bc bd61 093e cfaa bebd a303 2d3d
000001d0: 6683 f2bc 7526 9b3d e824 02be 3360 433c
000001e0: b9b5 9fbd e171 c53d f37e 433d d61e 16bb
000001f0: 4e8b b93d 8b50 103e 1212 ffbc 3c6a 38bd
00000200: 0423 c63d c9f1 873d ef4e abbd 96d6 133d
00000210: 95e0 cd3d 8dcd 453d 81f4 873c 63bd 823d
00000220: 74be 093d efa1 24bd 5175 673d 6097 793b
00000230: 29cd 75bd 7a43 74bd 870e d1bd 3330 1fbd
00000240: 3413 e8bd d825 d2bc ce61 c6bd 0b6d a93d
00000250: 57ac ea3b acc7 5e3d 95f6 d33d ac4a d6bd
00000260: 842c d33d e5e2 1b3d 8672 853d 8dbb 18bd
00000270: 290f 09bd ef95 a23d aa79 0c3e 3ff4 a23d
00000280: 87a9 4f3d f973 a6bd 0cb5 293d c144 6fbd
00000290: 613d b93d 14c1 1fbc 8771 c6bd d6bb c8bd
000002a0: 89c6 67bc a166 993d c423 603d 38bc b8bc
000002b0: 6c59 d4bd e08f 563d 53f4 283d 2900 783d
000002c0: 1e86 57bd 4ee7 983d fcd2 9cbc e4fd aebc
000002d0: bd13 dabd b43d 6c3d 5d30 793d b3ed 0c3e
000002e0: a249 fe3d afb6 9a3d b7ea bdbd b6b1 9a3d
000002f0: 4925 7a3d 0bd5 cbbd 7875 d9bd f39c 653d
00000300: 2cda 903d d617 c63d 943d 2c3b 69f8 d2bc
00000310: f7e3 6abc 7886 e63c c288 9abd 6f2b 633d
00000320: 2a29 bcbd 80e2 bbbd f870 91bd 51e5 e23b
00000330: a6fe 5b3d 967b 08be 940b bebd cdab bebd
00000340: feb3 e33d 549c 19bd c74f cbbb 11d6 e73c
00000350: a4cc 73bc 6273 72bd 3043 f83c 92c8 71bd
00000360: cb04 093d 2c3b c4bd 6d2a ccbc 2234 bc3d
00000370: aa74 fc3d 884f 123e 424c c8bd f570 03bd
00000380: 1bb3 bb3d 51a1 353e 7d0c 3cbc b522 9ebd
00000390: 9311 81bd 0171 8c3c 2317 a6bd 1c20 21bd
000003a0: 972d c8bc ede0 a93d de27 a0bc 0c60 a73d
000003b0: bc5c b63d 37d9 093e 16d1 983d d34b 89bd
000003c0: deef 42bd e47d 9ebc b335 34bd ef0c d0bd
000003d0: 166d dabd be29 14be b3a2 f13d 1353 dfbd
000003e0: 7fa5 b33c b987 7abc 9791 adbc 43d6 483d
000003f0: a3cb 2e3e 9e8a ab3c 3492 ed3c 868a 65bd
-0.039889835 -0.097839534 0.10864055 0.1710391 -0.089699894 0.12265294 -0.17242765 0.06400347
0.07092449 0.041939054 0.08724522 -0.107248336 0.0541064 0.057755567 0.009501328 -0.016756952
-0.04058148 -0.006518887 -0.04083451 -0.03163691 0.10696634 0.089329556 -0.026626833 0.06797202
-0.111294106 0.010727361 -0.063878104 -0.061047863 0.0154863605 -0.07870509 -0.057863794 -0.101979025
-0.08390079 -0.0597711 0.053404443 -0.08222047 0.073033065 0.1474106 -0.05243488 0.072388574
-0.089711264 -0.07749864 0.04588749 0.024333257 -0.06337468 0.05262054 0.06651517 0.08172137
-0.12600863 0.117017 0.04792118 0.057655048 0.048014652 0.09351908 -0.07080278 -0.010656573
-0.10459965 -0.1272022 0.16075107 -0.00040309862 0.06729175 -0.011410811 -0.103559405 -0.004059447
0.028312469 -0.017526878 -0.10249192 -0.01148296 0.12369927 -0.016432943 0.005279687 0.04367178
-0.03903382 -0.048140503 -0.040266868 -0.106383316 0.08909291 0.12865354 -0.009533871 0.049991824
0.02436322 -0.05166159 -0.02680687 -0.040581893 0.04645964 -0.01815795 -0.014329143 0.067119166
-0.004796026 -0.011644423 0.004786399 -0.10155131 -0.020173298 -0.079798065 0.021983277 0.036076847
0.04885176 0.09374256 0.00947587 0.06517588 0.042774174 0.06881359 -0.009052068 0.11607863
-0.03884917 -0.021013943 -0.03885145 -0.0005901542 0.06997181 0.09833732 0.08556617 -0.0017874413
-0.018738735 0.1341619 -0.09309923 0.042239796 -0.029603671 0.075756945 -0.12709391 0.011924791
-0.07798333 0.09640861 0.04772849 -0.0022906563 0.090597734 0.14093225 -0.031136546 -0.045023188
0.096746475 0.06637914 -0.08364665 0.036093317 0.10052601 0.04829173 0.01659608 0.06383779
0.033628896 -0.040193494 0.056508366 0.0038084611 -0.06001011 -0.059634663 -0.10207849 -0.038864326
-0.11331788 -0.02565281 -0.096866235 0.082727514 0.007161658 0.05438964 0.10349766 -0.10463461
0.10311225 0.03805818 0.06515984 -0.037288237 -0.033461723 0.07938754 0.13718286 0.079567425
0.050698783 -0.08127589 0.041432425 -0.05841518 0.0904491 -0.009750623 -0.09689622 -0.09801452
-0.014146456 0.07490278 0.05472161 -0.022550687 -0.10368618 0.052383304 0.04124863 0.060547028
-0.05261814 0.07465993 -0.019143574 -0.021361299 -0.10648296 0.057676032 0.06083714 0.1376255
0.12416388 0.075543754 -0.09273284 0.07553427 0.061070714 -0.09952744 -0.106181085 0.05605788
0.07072863 0.09672515 0.002628182 -0.025753217 -0.014336578 0.028140292 -0.07545616 0.055461343
-0.09187539 -0.09174061 -0.07101625 0.0069243093 0.05370965 -0.13328394 -0.09279552 -0.09310112
0.11118315 -0.0375026 -0.0062045786 0.028300317 -0.014880333 -0.05919207 0.030305475 -0.05902917
0.033451837 -0.09581599 -0.024922574 0.09189631 0.123269394 0.14288151 -0.0978017 -0.032090146
0.09165021 0.17737319 -0.011477587 -0.077214636 -0.0630218 0.017143728 -0.08109882 -0.039337263
-0.024435801 0.08294854 -0.01955026 0.08172616 0.089044064 0.13461767 0.07461755 -0.067039154
-0.047592036 -0.019347139 -0.043996524 -0.10158717 -0.10665338 -0.14469048 0.117986105 -0.10904517
0.0219295 -0.015291148 -0.021187587 0.04903246 0.17069869 0.020940121 0.02900038 -0.05604031

W0__41 f4 [1, 400, 256]
00000000: 2754 b6bd d1e6 a73a 35c1 b43c 5a2e 723d
00000010: 8dbc 71bd 457f d6ba e832 8f3d c789 95bd
00000020: d1ac 05bd 2405 ad3c c13e a63c 4cbd 7dbd
00000030: 4b2d 053d efe2 6ebb d8aa 653c 8efc 94bd
00000040: 29cc bb3c e861 5bbc 91af 863d b7b9 813d
00000050: f798 1cbc 0b3c c03c f543 1f3e 6c77 a83c
00000060: 87e7 533e 4668 cd3d e629 553b 2bd7 e43d
00000070: a227 de3d 06c5 a3bd f0e5 a23b ddd1 c43d
00000080: 9f74 0e3e f096 243e d1d6 10bc c5d2 0ebd
00000090: 4d58 ce3b 8648 7dbd 6abf b13d 3130 8dbd
000000a0: dd9d d73d 57ff b53a ced5 3d3d 7c64 b0bb
000000b0: 2c55 df3d 9f50 a9bd 90e5 b13b ed1e d6bc
000000c0: 4c79 eebc a6a4 3ebd 213f 9fbc c02f efbc
000000d0: 33d5 1a3e 81e5 d43d 7c72 3b3e ec51 933d
000000e0: c83b 8b3d 3fa3 403d a21a b03d 46d4 9a3c
000000f0: 3e87 81bc 046b a1bd 0031 943a ddda 29bc
00000100: 96be b33d f220 de3c 1e3d 4e3d 2511 25bd
00000110: acb4 bd3d c0c9 14bd b632 a53d 7552 76bd
00000120: 7cea 60bd 273a cf3a a22f e83c 8cb8 92bd
00000130: f704 9b3d 0b34 63bb cfc8 833d 3846 933d
00000140: 10d5 723c ab6b 873d 514c 583e cbfa b73d
00000150: efd8 3b3d 865f 3c3b ee11 6d3d f214 90bd
00000160: 9d9d aa3d dace 79bd f487 c33c 73a1 183e
00000170: c2d9 633d 58e2 7abd 31c3 8c3d f10f 883d
00000180: 3c01 ca3c 9940 763d a82c 30bc 92c6 e93d
00000190: b56d 9abd 600b 9c3d bf56 40bd 6744 a83d
000001a0: b4eb b33d 7a0f 85bd fcd1 d83d 3762 97bc
000001b0: ff09 39bc 5120 a23d b0f9 2a3e 27de 8c3d
000001c0: 31d0 9c3d df71 55bd ef36 79bd 664a 2f3d
000001d0: 81f2 d33c 6289 ed3d 36bf c63d fa1a a53c
000001e0: 347c 363d f558 ca3c 0e04 bc3c 6d41 383d
000001f0: 2f81 a63d f0ec 473d 2217 8a3c 01ec 09bd
00000200: 5fbc 82bd d610 7ebd 476a 033d be90 7a3d
00000210: 4e1e 1f3e 4af4 173d 3b47 b83d e3a3 38bd
00000220: d7d0 a5bd 2796 b03b 135a 3fbd 99b6 96bd
00000230: edb6 77bd 8d43 9cbd c656 88bd d965 ce3c
00000240: a91d 593e 4865 81bd 5b10 99bc 710b 593d
00000250: 6705 803d 1d9f 0b3c 702d f3bc 2989 ae3d
00000260: 5af1 20bd c814 c1bc 9e6d 393e 900b 213c
00000270: e8a9 68bd 2013 95bd f76a 7bbd a6de b33c
00000280: 2776 843d afc4 863d e1c3 333e 80df 2d3a
00000290: 8026 b3bb 22ee 96bd 1598 f6ba 3df5 de3d
000002a0: 4251 563d 4038 1a3b 6206 1e3d 007b 7a3d
000002b0: 3f1c 87bd 0d75 0f3c 7c3d 25ba 7c0d 94bd
000002c0: 30ce c1bd 92ac eb3d b928 b93d 039b 77bd
000002d0: 37b7 8c3d ff1f c2bb ee66 db3d 61a1 38bd
000002e0: 5686 163e 6540 473d 1c26 d33d 40cd 1cbd
000002f0: 7fe7 a2bd 6065 97bd 9d2a 4a3d 15ff 823d
00000300: af41 c53d 490f 173d 0fc8 83bc 6f29 93bd
00000310: 4451 f6bc 59fd 91bd b2d7 313e be94 323d
00000320: 8bfd 9c3d 5675 173d dfe0 ad3d a911 983c
00000330: eb7e c13d 09bc efbc 9dc0 4abd 3225 02bc
00000340: 07d1 ec3d 8a88 2e3e 38ca 3f3e 7593 ef3d
00000350: 674e c03d b26e 4dbd 0dcf 7fbd d355 82bd
00000360: 0f08 90bd e854 e13d a052 8d3d 262d 2b3d
00000370: ab9c 9a3d 39b0 49bc 11a2 bcbd ace7 273d
00000380: bed7 d0bc 73ca a03c b382 033c 80cd 85bc
00000390: e62e 5cbd 08e5 363e 6548 40bd d465 80bd
000003a0: 8e84 443d 1b97 97bd dabf b3bc d792 483d
000003b0: fc86 a6bc f8c2 013c 805d 193e e0c2 643b
000003c0: 6ee6 0bbd 6f32 6b3c 0e00 65bd 72c8 11bd
000003d0: 6b25 3fbd 2d44 243d 41fb 3f3d 7881 3abc
000003e0: c6de fdbc 002f e53d 10df 8cbd 3274 af3d
000003f0: a9a9 a639 d642 553d 79e9 5a3d 23bb 67bd
-0.089027695 0.0012809878 0.022064785 0.059126236 -0.059017707 -0.0016364834 0.069921315 -0.073016696
-0.032635514 0.021120615 0.020293595 -0.061948106 0.032513898 -0.003645118 0.014017783 -0.072747335
0.0229245 -0.013390042 0.065764554 0.063342504 -0.009557954 0.02346613 0.15553267 0.020564757
0.2069379 0.10029654 0.0032526194 0.111738525 0.10847403 -0.079965636 0.0049712583 0.09610341
0.13911675 0.16073203 -0.008840279 -0.034868974 0.0062971474 -0.061836742 0.086790875 -0.068939574
0.10528157 0.0013885301 0.04634648 -0.0053830724 0.10904917 -0.082673304 0.0054289773 -0.026137793
-0.029110573 -0.04654374 -0.019439282 -0.029197574 0.15120392 0.10395337 0.18305391 0.0719336
0.06798512 0.047030684 0.0859883 0.018900048 -0.015811559 -0.0788174 0.0011306107 -0.0103671225
0.08776586 0.027115319 0.050351255 -0.040299553 0.09262976 -0.036325216 0.08066313 -0.06013723
-0.05491112 0.0015810177 0.028343026 -0.07164106 0.07569306 -0.0034668471 0.064347856 0.071911275
0.014821306 0.06612333 0.21122862 0.08983382 0.04586118 0.002874346 0.057878427 -0.07035245
0.083308436 -0.060988285 0.023868538 0.14905338 0.055627592 -0.061251014 0.06873167 0.066436656
0.024658792 0.0601202 -0.010752834 0.114148274 -0.07540456 0.07619357 -0.046957728 0.08216172
0.08785191 -0.064970925 0.10586926 -0.01847945 -0.011293887 0.0791632 0.1669681 0.0687831
0.07656897 -0.05211055 -0.060843404 0.04279556 0.02587247 0.11598469 0.09704439 0.020154465
0.044552043 0.024700621 0.022951152 0.04498427 0.081301086 0.048809946 0.016856734 -0.033672336
-0.06383585 -0.062027775 0.032083776 0.061173193 0.15538904 0.037098207 0.08997961 -0.04507817
-0.08096474 0.0053889933 -0.04671676 -0.073590465 -0.060477186 -0.07630072 -0.06657176 0.02519505
0.2120272 -0.06318146 -0.018684557 0.052989427 0.062510304 0.008521822 -0.029684752 0.08522255
-0.03929267 -0.02356948 0.18108222 0.009829417 -0.05680266 -0.072790384 -0.061381306 0.021956753
0.06467848 0.06580483 0.1755519 0.00066327304 -0.005467236 -0.07369639 -0.0018813635 0.10886619
0.052323587 0.0023532063 0.038580306 0.06115246 -0.065971844 0.008755934 -0.00063034124 -0.072291344
-0.09463155 0.115075245 0.0904097 -0.060450565 0.06870883 -0.0059242244 0.10712992 -0.045075778
0.14699683 0.048645396 0.10310003 -0.03828168 -0.079543106 -0.073923826 0.049357045 0.06396309
0.09631669 0.03687981 -0.016086606 -0.07185637 -0.030068047 -0.071284 0.17367437 0.043598883
0.07665547 0.036977135 0.084901564 0.018563109 0.09448036 -0.029264467 -0.049500097 -0.007943438
0.11563306 0.17044273 0.18729484 0.11698047 0.09389954 -0.050154395 -0.06245332 -0.06364026
-0.07032787 0.11002523 0.06900525 0.041791104 0.07549413 -0.012310081 -0.09210599 0.040992424
-0.025493499 0.019627785 0.008026767 -0.016333342 -0.053755663 0.17860806 -0.04694404 -0.06269422
0.047977977 -0.07401868 -0.021942068 0.048968162 -0.020328037 0.007920019 0.14977074 0.0034906194
-0.0341553 0.014355286 -0.055908255 -0.03559155 -0.046666544 0.04010408 0.046870474 -0.011383407
-0.030990016 0.11190605 -0.06878483 0.08567084 0.00031788394 0.052065693 0.053445313 -0.05657495

R0__63 f4 [1, 400, 100]
00000000: 085f 353d 5143 ffbc c5bf 01bc 8d4a c73c
00000010: 3c5f 3dbd 3bd5 9d3d f639 bbbb b27e 05bd
00000020: 9190 333d dd83 1c3e caeb 393d ca6f 37be
00000030: 5fa0 c13d 6185 58bd dd63 0ebc f16e a4bc
00000040: 5dff a4bb 1bca e33b 1106 513d af9f 063e
00000050: 4592 a13d c2cf 68bc 409e 0e3c c8cb 21bd
00000060: 934f 683d 4c5e 383c e622 e6bc f39b 913c
00000070: bbfc 843d fe9c 723c 97fd 41bc 2f7b ec3c
00000080: 9bbe d0ba 8aee 60bb 42ca 61bc 5880 c1bc
00000090: 713e f63b 8232 c4bc afa4 89bd 9291 e53b
000000a0: 46c6 97bd 9a08 15bd f0ee c63c fbf8 2bbd
000000b0: f711 7b3d 421c 0abd 8591 6c3d 203c c23c
000000c0: 9933 1a3d 36b3 a4bc 517e 9dbc e764 7bbd
000000d0: 6361 5b3d 754e 2339 a7e6 983c 6ea4 b53c
000000e0: be35 823b 7ce6 123e b77b 293d 9431 153c
000000f0: db45 d5bd 71bd ce3c 1d5f 8f3c b407 d2bd
00000100: 2344 8b3d 1ec2 483b beed d33c e289 bcbc
00000110: 30de 33bd de8c 9cbd eaec a0bc d7a3 0cbd
00000120: be8a efbb 80a8 dbbd 81ee a93c b680 563c
00000130: e7e6 1fbd bd21 543d 8d1b abbc b035 6cbd
00000140: ce78 88bd 6030 5a3d 396a a63d b16b 2abd
00000150: f794 cfbc 3ab4 083d 3839 46bd 6548 4ebd
00000160: ba1f 2a3c 3629 203d e3c1 11bc 36d5 823d
00000170: a590 253d 9509 8c3c 350a a1bc 8da6 13bd
00000180: 739b 923d af2e 06bd 46e7 623d cc46 7fbc
00000190: 96e1 9f3c f742 c33d d308 02be d24f 9abd
000001a0: 1b12 52bd b8f3 e3bb a5fe 6bbd 7c6e 70bc
000001b0: e5c4 e4bd fcbc 0f3c 0a12 863d 3591 903c
000001c0: 443c 0bbd bcdc 31bd ff64 8b3d bcf4 153d
000001d0: dfbb 03bd 9e82 823d a259 f73c 150b 3bbb
000001e0: c21b b9bd f989 53bd a2e1 1abd 134c 9f3d
000001f0: 2e15 d3bd 03c3 c53b 3f9b 1d3d cdc8 a9bd
00000200: 3279 103c 5f2a 00bd b788 dd3d a325 963d
00000210: edc7 2dbd f938 5d3d ee2d b03c f67f 97bc
00000220: b880 4b3b 59a7 62bd f575 70bd 62dc 85b9
00000230: 8dbf 17bd 3e1f 60bc 2767 8ebd 08f7 a03c
00000240: 12be 03bb 8984 933d b5f6 03bc 2a22 a33c
00000250: 29d5 0d3b 1bb7 0cbd c580 183d cbe7 0c3d
00000260: 82bb 6d3b ded5 dc3c 0fba b13c b04a c6bd
00000270: 87ba 16bd 2e65 09bd 20b4 8c3d 5671 ddbc
00000280: 2e42 5fbd c0ce 90bd d6e7 d7bc f611 8abd
00000290: d165 61bd ac26 49bc fa88 c3bc 3b9a e73c
000002a0: e619 073c 7b51 a3bd 6236 b8bc 61d4 83bd
000002b0: 9b31 69bc 0b5c b13d e89e 1a3b 1b0f 5cbd
000002c0: c0d6 44bc 1f1e 1abd eca6 9e3d 24cb 46bd
000002d0: 02d8 99bd 3131 db3c 6a83 c43c 2e86 68bc
000002e0: 96b7 fc3c d91a 05bc 8d10 1ebd fc93 363d
000002f0: 5f1f c33c 0906 b0bb e958 f4bc f74f 323c
00000300: 5d81 a33c 3708 f83b 6f9e 463d 4753 883c
00000310: c27a 13bd 1bb5 87bd f729 a63b 6b1f 68bc
00000320: 88b3 7a3d 3bb0 e13d f383 03bd 65ac ff3b
00000330: 16a7 2e3d 46ec 11bc 0f8d e0bd 2615 1a3d
00000340: ed58 223d ef9b d3bc 94bf 153d 562d 103d
00000350: 9a7a 08bc e13e e63c 826a e63d 7cec 7cbc
00000360: 7474 483c ea53 79bd a1d2 19bc 06ad a03c
00000370: a6ea b83c 22ca 81bc 410b 8a3c fc5c afbc
00000380: 396b a0bd ec76 74bd 0b86 7abc 9f39 34bd
00000390: 511d dd3c cf02 1f3c 2380 ecbd 08c0 fd3c
000003a0: 8335 b93c 591b c73c 0521 14ba 87c4 49bd
000003b0: 6a34 2e3d 3db8 c5bc c3af 8abd e8b4 ac3d
000003c0: 6ef4 0bbd 5d86 f7bc 1915 bc3b a765 543c
000003d0: fe59 83bc 1791 ddba 5f38 a83d ebc4 863d
000003e0: 943e 9a3c c917 16bd 449f b7bd 7e44 fe3c
000003f0: 18ea b23d f32d 31bb ecfc 04bc 683a 1fbd
0.044280082 -0.031160029 -0.007919257 0.02432754 -0.0462334 0.07706686 -0.0057136966 -0.03259153
0.04383904 0.15284677 0.04539088 -0.17913738 0.094544165 -0.052861575 -0.008690801 -0.020072432
-0.0050353245 0.006951583 0.051031176 0.13146852 0.07889227 -0.01420969 0.008704722 -0.03950098
0.056716513 0.011252951 -0.028092813 0.017774558 0.06493517 0.014807938 -0.011840246 0.028867332
-0.0015925945 -0.0034321868 -0.013781132 -0.02362077 0.007514768 -0.023949865 -0.06720864 0.0070058787
-0.074108645 -0.036385156 0.024283856 -0.041985493 0.06129643 -0.033718355 0.057755966 0.02371031
0.037646864 -0.020104986 -0.019225271 -0.061375525 0.053559672 0.00015574119 0.018664671 0.022173133
0.0039736917 0.14345735 0.04137775 0.009106059 -0.104137145 0.025236817 0.017501408 -0.102553755
0.068001054 0.003063328 0.0258702 -0.023014966 -0.043913066 -0.07644056 -0.01964422 -0.034335937
-0.0073102405 -0.10725498 0.02074361 0.0130922105 -0.039038565 0.051789988 -0.02088716 -0.057668388
-0.06663667 0.05326879 0.08125729 -0.04160661 -0.025339587 0.033375002 -0.04839441 -0.05036201
0.010383541 0.0391018 -0.008896324 0.06388323 0.040421147 0.017094413 -0.019658187 -0.036047507
0.07158556 -0.032759365 0.05539634 -0.015580844 0.019516747 0.09534257 -0.12698679 -0.07534756
-0.051286798 -0.006956544 -0.057615895 -0.014674779 -0.11170367 0.008773085 0.065464094 0.017647365
-0.03399302 -0.0434234 0.06806373 0.03661035 -0.03216159 0.063725695 0.030194107 -0.002854054
-0.090384975 -0.051645253 -0.037812836 0.07778182 -0.10306774 0.00603521 0.038478132 -0.08290253
0.008817958 -0.03129041 0.10817092 0.073313974 -0.042426992 0.05400941 0.021506276 -0.018493634
0.0031052064 -0.055335376 -0.058706243 -0.00025531935 -0.03704791 -0.013679324 -0.069532685 0.019649044
-0.0020102304 0.072030134 -0.008054425 0.019913752 0.0021641946 -0.03435431 0.03723218 0.034400743
0.0036275093 0.026957449 0.021695165 -0.09682214 -0.03679898 -0.033543758 0.068702936 -0.027031582
-0.054506473 -0.070706844 -0.026355665 -0.06741707 -0.05502874 -0.0122772865 -0.023869026 0.028271785
0.008245921 -0.079745255 -0.02248687 -0.064369924 -0.014233018 0.08660134 0.002359325 -0.053725343
-0.012014091 -0.037626382 0.077466816 -0.048533574 -0.07511903 0.026756855 0.023988444 -0.014192147
0.03084926 -0.008124077 -0.038590003 0.044574723 0.02381867 -0.005371813 -0.029827552 0.010883323
0.019959146 0.0075693387 0.048490938 0.016641272 -0.036005743 -0.0662634 0.0050709206 -0.014167647
0.06120637 0.110199414 -0.03210826 0.0078025335 0.042639814 -0.00890643 -0.10964405 0.037617825
0.039635587 -0.02583119 0.036559656 0.035199486 -0.008330012 0.028106155 0.112507835 -0.015437242
0.012234796 -0.060871042 -0.009388597 0.019613754 0.022572827 -0.015843455 0.01685107 -0.021406643
-0.07832951 -0.059683725 -0.015290747 -0.044000264 0.026991518 0.009705259 -0.11547878 0.030975357
0.022608524 0.024305033 -0.0005650672 -0.04925969 0.042530455 -0.024135703 -0.06771805 0.08432943
-0.034168653 -0.030215437 0.0057398197 0.012963689 -0.016034123 -0.0016904202 0.08213877 0.06580528
0.018828668 -0.036643777 -0.089659244 0.031038519 0.08736056 -0.0027035445 -0.008116942 -0.03887406

R0__42 f4 [1, 400, 100]
00000000: 9232 50bd 3cd5 2b3d f556 f53d 144a 073e
00000010: a10c a13c c509 2a3e 0f92 91bd 24f5 cf3d
00000020: a863 8fbd 017d 133d 4d2d 5ebd afc1 933c
00000030: c1fb 01bd 1557 6a3d 0adc a33c f0a0 f7bb
00000040: c36f 7e3c bb1c ea3c 8e9c c33b b620 ebbc
00000050: ff7b dfbd e14b 803d 60c9 87bb 99fa 0a3d
00000060: c117 f13c c9e0 41bc 67ed 813d 7d0a 823c
00000070: 34e5 1c3d 79c3 99bd a2ee 773c e764 f73b
00000080: c2cd 7e3d 9e95 26bb 1648 d83d 6e0a 37bd
00000090: c0da f5bd 76bd e6bb d95e b2bd 8b07 0bbd
000000a0: 8a2e 8abd 38c7 b4bd 1756 bcbd 7004 13bd
000000b0: cea7 593c 48c4 363d 402e 15bd c7ec 4f3d
000000c0: e85b afbd d18a b3bd 8851 983d aea7 64bc
000000d0: 64eb 92bc e78e 99bc f0b9 2cbc 7c7a 2c38
000000e0: b3ac 4fbd 366f 19bd af10 823c a676 a5bb
000000f0: 9f36 80bd d7a8 42bc 0bbb 11bd b874 223d
00000100: 7284 d63d b165 1ebd 8ea4 d43c 139b a2bc
00000110: c785 ca3d f433 cf3c 4f08 f63b 8d72 a73d
00000120: 5e40 9ebc e6d3 373d 6f08 8f3d 25ff 053d
00000130: 6b95 10be 8338 97bc 120c 84bd 9701 a63d
00000140: b86d c93d 8ac9 53bc 9abb acbc 2ba8 cdbd
00000150: 9649 903d 694c 9f3d e457 883d 834f a03d
00000160: 2685 83bd bfc8 493d 5b2b 083d f7ac a1bd
00000170: 590b 8ebd 4b52 493d 924a f53b 5f9e 423d
00000180: a34d 95bc bcc8 253e 4af1 833c 9dd5 c53d
00000190: d9a1 053d d847 00bd f5d1 853c aa23 963c
000001a0: 9630 3b3c a2f2 3abd 4c96 10bd 33ca 903d
000001b0: 362d 8cbc cb29 013d 0fd1 96bc 188a a43d
000001c0: e9e3 603d 1edc 533d 106e 10bd cece 56bd
000001d0: c96c 5b3d 4876 27be 8a17 f0bc f999 ce3d
000001e0: 476b 953d 9db8 453d cebf 93bc 33f5 aabd
000001f0: 271c 843d bc49 733c 4a91 67bd e12f ebbb
00000200: cc08 5abc 0e86 e53c da62 b93d 0a12 1dbd
00000210: 9b6d a73b fd21 6c3d 3641 033d 01fa 47bc
00000220: d5c2 3b3d dd53 b13d 030f 38bd 84f4 48bd
00000230: 09c8 8e3d a53b df3d 8042 ef3d 2bd4 c63c
00000240: e454 3d3d 4a3a 13bd d713 5abc 60fe 03bd
00000250: 220a 9fbc 065a babc ffb1 1d3e e355 883d
00000260: 88ee 933d dd27 153d aa18 44bb 069e 32bd
00000270: d5ee e6bb 449d 49bc 15fa d63c 84dd 1f3c
00000280: 87a2 003b af13 34bd af24 d23c e135 393b
00000290: cac3 ef3b 733a 4dbc 65c4 3dbb a81f 543d
000002a0: c9a2 d63d 8b16 a23b efab d13d 20ee 053d
000002b0: 8a37 46bc c08f e1bc d816 9cbd cc4b 3d3c
000002c0: 8501 663d c2b4 f3bb d9c5 bdbc f0ad b13c
000002d0: 93a3 5ebd f9df 55bd 51fd 473b 2529 073e
000002e0: bdd2 d93d 2335 403d 740e 13bd 9b81 06bd
000002f0: ba78 ac3b 5523 d83c 319c 013e cd6d 113c
00000300: a4c4 8f3d e5b0 9cbc 6104 05bd 462e 63bd
00000310: 74cc 083c cefd 78bd a63f 32bd 06e1 f2bb
00000320: b0c2 a83d f75a 8bbd c731 8ebb c61b b0bc
00000330: 77a4 573d 06b4 f9bc 23f8 c73d bd8b f1bb
00000340: 6d7a 2dbd ceee 10bd acfe 5abd ab2e 72bc
00000350: ba8d 8bbb 8cee 03bd eea6 fd3c 572d 47bd
00000360: 31f3 08bd 78e0 f53c 7e47 ccbd 15b4 2fbc
00000370: 8b57 f2bd 4444 63bd f897 153d 32db 1238
00000380: 3516 283d a7fd 21be e2cc a13c 5289 cb3d
00000390: 90dd 0dbd 21df 0bbc 46bd b73d da34 d83c
000003a0: f8f4 ce3c d6b4 02bd e339 93bd e55d bcba
000003b0: a200 04be f679 633d cc5e 9abd ef3f d33c
000003c0: 8fd0 94bc 4b54 853c 90d2 193d 042c ce3d
000003d0: 0bb6 603c 5e74 4d3d 0848 51bc fd47 8a3b
000003e0: ae5f c3bd da68 92bd 71ec f13c ec50 e23c
000003f0: dcaf b83c 384b 6e3d 9f47 003e 0524 323d
-0.050829478 0.041951403 0.11979476 0.13211852 0.019659342 0.1660529 -0.071079366 0.10154179
-0.0700143 0.036007885 -0.05424242 0.018036691 -0.03173423 0.057211954 0.020002384 -0.007557027
0.015529576 0.028578153 0.0059695905 -0.028702121 -0.10912322 0.06264473 -0.004143879 0.033930395
0.029430272 -0.011833378 0.06344109 0.015874142 0.038304523 -0.075079866 0.015132578 0.0075498703
0.062207945 -0.0025418769 0.10560624 -0.04468768 -0.12004614 -0.0070416285 -0.08709497 -0.03394274
-0.06747158 -0.088270605 -0.09196108 -0.035892904 0.013284637 0.044620782 -0.03642106 0.050762918
-0.085624516 -0.087667115 0.07437426 -0.013955994 -0.017934509 -0.018744899 -0.010542378 4.1122068e-05
-0.05070181 -0.037459575 0.015877096 -0.0050495444 -0.06260418 -0.011881075 -0.03557877 0.039662093
0.10474481 -0.0386712 0.025957372 -0.019849336 0.09888797 0.025293328 0.0075083147 0.08176146
-0.019317802 0.044879816 0.069840305 0.032714028 -0.14119498 -0.018459564 -0.06447615 0.08105772
0.0983538 -0.012926469 -0.02108555 -0.10041841 0.070452854 0.07778246 0.06657389 0.07827666
-0.064218804 0.049263712 0.033244472 -0.078943186 -0.06935758 0.049150746 0.007485696 0.047514316
-0.018225497 0.16189855 0.016106267 0.09659884 0.032625053 -0.031318516 0.016335467 0.018327553
0.011425158 -0.04564155 -0.035299584 0.070698164 -0.017111402 0.031533998 -0.018410234 0.08034152
0.054904852 0.051723592 -0.035261214 -0.052443318 0.053570542 -0.16353714 -0.0293081 0.10087962
0.07295852 0.048271764 -0.018035796 -0.08347549 0.06450682 0.014849123 -0.056535043 -0.0071773385
-0.013307761 0.028018024 0.090520576 -0.03834728 0.0051095015 0.0576496 0.032044612 -0.012205602
0.045840103 0.08658574 -0.04493619 -0.049061313 0.069717474 0.10900048 0.11682606 0.024271091
0.046223536 -0.03594426 -0.013310394 -0.032225013 -0.019414011 -0.022748005 0.15399931 0.066570066
0.072232306 0.03641497 -0.0029921927 -0.043607734 -0.007047514 -0.012305561 0.026242295 0.009757403
0.0019628124 -0.043964084 0.025652258 0.0028260874 0.007317041 -0.012526142 -0.0028956172 0.051788002
0.104802676 0.004946535 0.10237872 0.032697797 -0.0120982025 -0.027534366 -0.076215446 0.011553716
0.056153793 -0.0074373195 -0.02316563 0.021689385 -0.054355215 -0.05221555 0.0030515979 0.13199289
0.10635898 0.046925675 -0.035902455 -0.032838445 0.005263415 0.026384035 0.12657239 0.008876276
0.07019928 -0.019127319 -0.03247488 -0.05546405 0.008349527 -0.060788922 -0.04351773 -0.007412079
0.08240259 -0.068044595 -0.00433943 -0.021497618 0.05264708 -0.03048135 0.09764125 -0.0073713944
-0.042353082 -0.035383992 -0.05346553 -0.014781634 -0.0042588385 -0.032209918 0.030963387 -0.048627224
-0.03343505 0.030014262 -0.099745736 -0.010724087 -0.11833104 -0.055485025 0.03652188 3.5013254e-05
0.041036803 -0.15819417 0.019751016 0.09938301 -0.034635127 -0.008537085 0.08971648 0.02639239
0.025263295 -0.03191074 -0.071887754 -0.0014371244 -0.12890866 0.055536233 -0.07537612 0.025787322
-0.018165855 0.016275546 0.037554324 0.10066989 0.013715277 0.050159805 -0.012773521 0.0042200075
-0.09539734 -0.07148905 0.02953169 0.027626477 0.022544794 0.058177203 0.12527321 0.043491382

B0__64 f4 [1, 800]
00000000: 18ff 163d 4aee 773c 276d a43c 2f2c 633c
00000010: de32 8f3c af9e 293c 4c87 3a3c ff4b b83b
00000020: 95b1 b33a 9de1 9b3b cdf8 e63b 4a92 5a3c
00000030: dad3 553c dcfd c2bb f3be 26bc f76c 8a3c
00000040: 3ef5 313d 77bb cc3d 1d58 d6bc 8e60 78ba
00000050: 47d0 cf3c 97c2 1d3c 4644 0f3d b980 4e3b
00000060: 0b0c b13c 3c9a 313b 8528 9c3b 05d9 cdbb
00000070: fb43 463c 3d7c 923c f188 8b3c 6ba1 f23b
00000080: bbe4 f63c 680a a63c 9223 0e3d 03dc 923c
00000090: 87f7 4a3c 858e 063d 50a7 893c afb8 343b
000000a0: 3f81 993b 9441 d83c ee2b 323c 5444 3fbc
000000b0: 43b8 463d 03d2 0ebb 9eb8 22bc 3f63 933c
000000c0: c427 873c d609 553c ee87 5b3c 3a64 983c
000000d0: df55 ce3c bb29 9c3c 7afa 533c 0ca2 cab9
000000e0: 0162 453c aa2f bf3c 2908 8c3b fa4b 9b3c
000000f0: 4044 643d b8ec b63b 201d d339 ea05 e03b
00000100: fc0b b63c ce1e 443c 4754 983c b1dc ea3c
00000110: 77a7 c53b e114 763b 6f39 f73b beb0 4d3c
00000120: 6e5d 2f3b e87e 923c 2f51 a4bb 70c0 453c
00000130: a729 743d 351b 823c bc91 783c 780f e33b
00000140: 30c1 1d3d f976 613c 0fdc 583d f2ee 713c
00000150: 66e7 2e3d 501d e73b 351d 943d d969 9fbb
00000160: 08f5 4f3c 8611 f83c 9ead 9b3c 9183 9e3b
00000170: 3aa8 6cbd 52e4 023d 2c9a fe3b 504c 0b3d
00000180: 2aee a43b 06d5 903c b2b3 473c 0981 083c
00000190: b7fb 203d 505f b53c ff94 7c3c acb2 823c
000001a0: 92c2 aa3c d887 463c 90ee 3c3c 56cb d73b
000001b0: 414e 973b 4302 973b 598f e03b ae9c 733c
000001c0: 931e 5f3c bd57 c7bb 217c 3ebc 4da4 963c
000001d0: 1da4 3b3d 311d db3d 6461 01bd 962a 20ba
000001e0: 72d0 c23c 6c7e 263c 5fb9 1d3d 5be3 1e3b
000001f0: 8cfc b93c d99d e33b cbe1 9e3b f1cc cabb
00000200: 7f13 823c 16a2 4d3c fa95 a93c a21e 153c
00000210: 34c9 fe3c 52b1 913c b614 133d 5e11 b63c
00000220: 8c26 2e3c f948 063d 361b c03c 6ae9 993a
00000230: 3b16 743b c644 de3c 2b89 4c3c 65b0 49bc
00000240: 4495 5b3d ee3f 2ebb b821 2cbc 14fe d73c
00000250: fc0f a33c deeb 6d3c bca0 673c 3fb9 963c
00000260: 64f8 c23c 859e 9c3c 2ae5 423c 5747 32bb
00000270: 6527 0e3c 4e35 c63c 2025 883b 407a aa3c
00000280: 854c 693d 1bcf f13b 5bca 7cb9 7b24 223c
00000290: 252b b03c 6b87 473c 90bc a53c db2b 0d3d
000002a0: 39bf 033c c239 7d3a ff35 c13b 6782 563c
000002b0: e68e 263b b601 9b3c 5b5c 97bb b42e 693c
000002c0: 2afe 783d 7ac6 c83c 18f6 843c cdf9 013c
000002d0: eaf9 2e3d b93c 483c 8af0 6f3d 4243 733c
000002e0: 1d1c 2e3d 6730 233c 75ee a63d debe 97bb
000002f0: 9c64 4d3c a872 f93c 01ea ae3c 7f29 ab3b
00000300: e32b 73bd 3afa f73c 9694 1c3c 0316 0e3d
00000310: 50dd bd3b 45a1 813c 42f4 493c 76f5 153c
00000320: c60c 7c3f 7018 7c3f c134 813f 3cbc 7d3f
00000330: 28be 7e3f 2993 7e3f 8f2b 7e3f 44e6 7e3f
00000340: 53a6 793f 8770 7f3f 9fb8 7d3f 98d3 7e3f
00000350: 5394 7f3f 0e06 7e3f e8fc 7a3f 3919 7a3f
00000360: ab85 743f fa0d 713f 8eda 753f da06 7e3f
00000370: 1a93 7c3f b85e 7f3f 4002 793f 85df 7d3f
00000380: 28a3 7a3f 48c6 7d3f b40a 7e3f e38e 7e3f
00000390: d144 793f 5128 7f3f 91ff 7e3f e23b 7e3f
000003a0: 35d4 7d3f 33e4 803f 7267 7c3f 8846 7e3f
000003b0: 67f7 7a3f 77e3 7a3f 088d 7b3f ca9c 7e3f
000003c0: 429f 7c3f 52b3 7e3f c125 7e3f 16a1 7c3f
000003d0: c699 773f bfe1 7a3f a734 7a3f 5d19 7a3f
000003e0: c917 7f3f 4b43 793f 08af 7f3f 130c 803f
000003f0: 5b56 7d3f 2e29 803f f932 7f3f 5e38 783f
0.03686437 0.015132496 0.02007158 0.013865515 0.01748031 0.0103527745 0.011384796 0.005624294
0.001370954 0.00475712 0.0070487023 0.013340542 0.013050998 -0.0059506726 -0.010177362 0.016897662
0.04344677 0.099966936 -0.026165063 -0.0009474837 0.025367869 0.009628913 0.03497722 0.003150983
0.021612188 0.0027099987 0.0047655725 -0.0062819743 0.012101169 0.017881507 0.017033072 0.0074044964
0.030138364 0.020268634 0.03470189 0.017927175 0.012388117 0.03285076 0.016803414 0.00275759
0.004684597 0.026398458 0.0108747315 -0.011674006 0.04851557 -0.0021792657 -0.0099317115 0.01799166
0.016498454 0.013002833 0.013399107 0.01860248 0.02518743 0.019062867 0.012938136 -0.00038649177
0.012047292 0.023338158 0.0042734337 0.018957127 0.05572915 0.0055824183 0.00040266756 0.0068366425
0.022222511 0.011970235 0.018594874 0.028669687 0.0060319263 0.0037549066 0.0075446884 0.012554346
0.002675857 0.01788278 -0.0050145607 0.012069806 0.059610035 0.015882114 0.0151714645 0.0069293343
0.038514316 0.013761275 0.05294424 0.014766442 0.042701147 0.007053055 0.07232133 -0.004864913
0.012692697 0.030281793 0.019003686 0.0048374613 -0.05777762 0.031956024 0.0077698436 0.034008324
0.005033274 0.017679702 0.012188839 0.008331546 0.039302554 0.022140175 0.015416383 0.015954338
0.020844731 0.012117349 0.011531487 0.006585519 0.004617483 0.004608424 0.006853026 0.014868898
0.013618129 -0.0060834573 -0.011626274 0.018388892 0.045810807 0.10698927 -0.03158702 -0.00061098614
0.023781035 0.010161977 0.03850686 0.00242444 0.022703432 0.006946307 0.004848694 -0.0061889817
0.015878437 0.012550851 0.020701397 0.009101542 0.0311018 0.017784748 0.035908423 0.022225078
0.0106293075 0.032784436 0.023450475 0.0011742536 0.0037244696 0.027132403 0.012483875 -0.012310122
0.053609148 -0.0026588398 -0.010506086 0.026366271 0.019905083 0.014521567 0.014137443 0.01839888
0.023800083 0.019118557 0.011895457 -0.0027203166 0.008676385 0.02419534 0.0041548163 0.020810246
0.05695774 0.007379425 -0.00024107976 0.009896393 0.021504948 0.012178282 0.020231515 0.034465652
0.0080411965 0.00096597907 0.0058963294 0.013092614 0.0025414764 0.018921714 -0.004619164 0.014232326
0.060789265 0.024508704 0.016230628 0.007933092 0.042718805 0.012221509 0.058579005 0.0148475785
0.04250728 0.0099602705 0.08150951 -0.0046309074 0.012536194 0.03045018 0.021351816 0.0052234526
-0.059368026 0.030270685 0.00955691 0.03468896 0.005794205 0.01582397 0.012326302 0.009152761
0.9845699 0.9847479 1.0094224 0.9911535 0.99508905 0.994433 0.99285215 0.9957011
0.97519416 0.9978108 0.99109834 0.99541616 0.998357 0.9922799 0.98042154 0.97694737
0.9551646 0.9416195 0.96036613 0.99229205 0.9866196 0.99753904 0.9726906 0.9916919
0.97905207 0.9913068 0.9923508 0.9943678 0.9737063 0.9967089 0.99608713 0.99310124
0.9915193 1.0069641 0.98595345 0.9932637 0.98033756 0.98003334 0.9826207 0.9945799
0.9868051 0.9949237 0.9927636 0.986833 0.96719015 0.9800071 0.9773659 0.9769495
0.9964567 0.97368306 0.9987645 1.0003685 0.98959893 1.0012567 0.99687153 0.9696101
